SMNIST/Models/rnn_L1_H16_tanh_drop0.1_sgd_lr0.002_normal_0.01_insize28_e1_iter75.ckpt (torch, 5159 bytes, 3 tensors)

fc.weight f4 [10, 16]
00000000: 144a 073d 4931 fabd fa02 73be be37 60be
00000010: 9d0d 08be d3cf 9b3d e157 60be 4013 d8bc
00000020: b98b 793b 5356 1b3e 0c82 5d3e d068 293e
00000030: e3e1 26bc 3ae9 f53d 79f9 503e d099 3dbe
00000040: 0251 fbbd a957 50bc 4e51 763e c315 d4bd
00000050: 4a21 d0bd 39fe 13be eae2 eebd 2b8f 383c
00000060: 3b8d cd3c 7ed0 3bbe aaa1 3e3e c346 16be
00000070: 29c8 d93c 2bab 0e3e 764f 07be 79d4 293e
00000080: 9ade 2bbe 553a 263e 6b9a 8c3d 81a9 f7bd
00000090: f224 983d f394 a53d 66ed 73be 71a7 2fbe
000000a0: 312d 4f3c 979d 5a3c 2c62 b43d 361c 303e
000000b0: 5699 71be 2662 0ebe 2ba2 aebd 7a5c 78be
000000c0: bb58 f93d f3bc 7cbe cfab 7b3d 53e6 293e
000000d0: f8be 4c3e 70a1 cbbd 7d62 fbbc dceb 803d
000000e0: d82f 2f3d 71ae 593e 7a35 36be bd22 1cbe
000000f0: fd46 d9bd 668c 6d3e 26e1 a6bd 6911 743e
00000100: 316e 2dbe adf1 f03d 00be cf3d cc09 a7bd
00000110: a2f6 1fbc 5725 eb3d cdb5 27bd 7b48 a63d
00000120: d0ab 45be f231 753e 3a9d 1abd 38bc 26be
00000130: 221f f93c 25f6 403e 9ebc 043e 9dcd 82bd
00000140: abf0 d33d bfed 45be b854 3c3e 9b06 083e
00000150: 1a46 e43d 090c 9c3d b41e fbbd 1022 0b3d
00000160: 7ef1 4e3e c898 be3d 40ae bdbd eb00 6a3e
00000170: 7114 1ebe 2a69 513e aed5 503e 3f16 49be
00000180: e1d3 80be 255a 59be 2679 1e3e b276 3ebe
00000190: abcc 743e 3522 54be 45a4 5d3e 57b9 813c
000001a0: 5323 ac3c d510 0f3e 2701 6bbe c39e bf3d
000001b0: 49a2 2abe 5baa dabc b8f3 59bd 033d 0d3e
000001c0: 4b67 833d 72cf 523e 5781 cf3c 1f0f 3c3e
000001d0: 67e0 163e a5b5 743e 403c d33d 71dc 64bd
000001e0: e09a 2fbe a6e4 053e 6f14 853e 435e 0c3e
000001f0: fea2 4e3e 8d42 633e 4687 843e 32e6 acbd
00000200: 05eb 473e f57a 68be c1fa 3e3e 16ef 553e
00000210: 2ba2 b93d 393a f0bd 7bd5 3a3e c7c7 a13d
00000220: 8c46 ab3d deca 45bd 3621 4f3c 8e79 58be
00000230: b401 8e3d bf7b 02be 1a20 8abc 70f6 c33d
00000240: 48c0 cb3c 7ade 3a3e b705 183e 93f1 57bb
00000250: a55f ad3c 8592 5dbe 3d57 093c ea05 46be
00000260: 9d47 a53d 12bf 103e 908a 643e 785a f63c
00000270: 3893 7d3d 89dc 483e 64c3 653e 705b d53d
0.03302963 -0.12216432 -0.23731604 -0.21896264 -0.13286443 0.07607999 -0.21908523 -0.026376367
0.0038077666 0.15169649 0.2163164 0.16543889 -0.0101856915 0.12007375 0.20407666 -0.18515706
-0.122713104 -0.012716212 0.24054453 -0.10355713 -0.101625994 -0.14452447 -0.11664374 0.011264603
0.025091758 -0.18341252 0.18616357 -0.14675431 0.026584702 0.13932483 -0.13213906 0.16584958
-0.16784135 0.1623319 0.068653904 -0.12092877 0.07428922 0.080850504 -0.23821029 -0.17153718
0.012645052 0.013343236 0.08807787 0.17198262 -0.2359365 -0.13904628 -0.08527025 -0.24254027
0.12175127 -0.24681453 0.061443146 0.16591768 0.19994724 -0.09942901 -0.030686611 0.062949866
0.042770237 0.2125795 -0.17793837 -0.15247627 -0.10609243 0.23198089 -0.081484124 0.23834766
-0.16936566 0.11764846 0.101436615 -0.081561655 -0.009763392 0.114817314 -0.040944863 0.08119293
-0.19303823 0.23944834 -0.0377476 -0.16282737 0.030410353 0.18843897 0.12962577 -0.06386874
0.10348638 -0.19328974 0.18391693 0.1328377 0.11146183 0.07619483 -0.122617155 0.03396803
0.2020931 0.093064845 -0.09261751 0.22851913 -0.15437485 0.20450273 0.20394012 -0.19637392
-0.2516165 -0.21225794 0.15475902 -0.18599966 0.239062 -0.20716174 0.21644695 0.015835447
0.021012938 0.13971265 -0.22949658 0.09356453 -0.1666347 -0.02669256 -0.053210944 0.13792805
0.06416186 0.20586947 0.025330229 0.18365143 0.1473404 0.23897417 0.10314226 -0.05587429
-0.17148924 0.13075504 0.25992152 0.13707833 0.20179364 0.22193356 0.25884455 -0.08442344
0.19523247 -0.22703154 0.18650343 0.20891985 0.09064134 -0.11729855 0.18245499 0.07899433
0.08363065 -0.048289172 0.012642195 -0.2114012 0.069339186 -0.12742518 -0.01686101 0.095684886
0.02487196 0.1824893 0.1484593 -0.0032950386 0.02116377 -0.21637924 0.008382616 -0.19338194
0.080703 0.14135388 0.22318482 0.030072436 0.061907977 0.19615377 0.22437817 0.10417831

rnn_layer.weight_ih_l0 f4 [16, 28]
00000000: bd72 9f3c 5e3a a23c 7598 6d3c 28f2 cc3c
00000010: 4bdb c03c e78c bc3c df6c e33a 7293 d33c
00000020: dde9 4e3b 9ba8 043c c9b6 15bc 07ad 17bb
00000030: 3285 643c b709 bebb b71f 5b3c c4d7 473c
00000040: 3707 6a3c b63b e13c 6dcb 6d3c b980 283c
00000050: 561d d13b c0c9 7d3c 2a83 de3c e9f4 523c
00000060: a9c7 003c 9e88 913c 9f1f bf3c 1d88 8e3c
00000070: e5a0 cdbc f3be 0dbc a57a d8bc beb5 9abc
00000080: 3d06 d0bc 3d1c 34bc 2208 a4bb ea75 b2ba
00000090: d1a8 abbc eda3 59bc 1385 183c a599 663c
000000a0: 6d74 cd3c d19e ea3c 5fa5 c53c 0d6e 8d3c
000000b0: 51ae 163c eae7 183c f0ac f1bb c0fd a6bc
000000c0: e4ed 9fbc 4bb7 37bc 73eb fdbb 55d3 6b3c
000000d0: 23bd abbc a3cf c8bc 4227 dbbc 589f c3bc
000000e0: 6208 7fbc 7ca7 843c c5e1 f93b 49a8 febb
000000f0: 3545 9f3b a8a4 90bc 2d57 753c 68f1 0f39
00000100: d996 29bc 32f9 90bc 5d32 463c e733 8b3c
00000110: 7898 16bc c9bc d7bb c7c9 f2bc 87f5 98bc
00000120: 30e0 90bc 287a d5bb 5667 4fbc bb3e 803b
00000130: e328 e3bc d625 b53a 690f 5dbc acfa 1dbb
00000140: 0782 fa3a 5084 12bc 8003 db3a 5a97 013b
00000150: 4ce1 3cbb 3993 093b c783 a9bb eaf5 bcbc
00000160: 94aa 543b 369f 213c 86fb 9fbc 14ea ab3b
00000170: b8b8 f23b 295b af3b 7abe b33b a399 ab3c
00000180: 85dd 383d 19c9 013c c3f5 093d f038 b83c
00000190: 12a2 ce3c 43fd 1abc 4277 b3bc fdc6 423b
000001a0: 3b10 083c fb89 f4bb 8e3d c33b 656a a23c
000001b0: e5b5 9c3b d3ba efba a9cf ae3a 7bd9 2cbc
000001c0: 9232 3d3c ca2e 92bb 6124 ee3b 73b6 01bc
000001d0: 1567 86bc 5638 0e3c 403d b0b6 2137 a5bc
000001e0: a670 5dbc a660 ffbb ef13 14bc 95fa e0bc
000001f0: ae82 b9bc bf7d 98bc 7ff7 e33c a100 593c
00000200: 6f87 a53c 574a 893c 472e 063c ab3a b6bb
00000210: 4962 03bc 59c5 83bc 7f27 473b c2f9 bb3b
00000220: e813 843c 3f31 66bc 165a 3bbb a63a 9abb
00000230: 3e27 99bb 0072 413b c8c5 36bb 59ca bbbb
00000240: 0259 a0bc 67b5 4abc 267f f53b 2d34 6a3c
00000250: 0117 e5bb 2107 a63c fb08 173c 675b 843c
00000260: 8040 1e3c 2260 dc3c 4ffb be3c c142 153b
00000270: 1ca8 0b3c 934e b83c e44a 843b d029 78bc
00000280: eace 5a3c 06d5 72bc a19e 323b e9d0 133c
00000290: c402 e3bb 5ce2 983c 654c ffbb 235e a4bc
000002a0: 3893 80bc 93d5 98bb 126c 10bc 4e28 00bd
000002b0: 456c febb d5a7 da3b 38c5 05bb a4f7 5dbc
000002c0: 98b7 a63c 1038 6a3c a959 e63c 49f2 8a3c
000002d0: 72c2 d73c c205 c43c ab7c ee3c 3a33 8a3c
000002e0: 2799 a0ba 1185 253c 9816 223c 6669 99bc
000002f0: dca5 0abc 0b0e 45bc 320e b4bb af8d 48bc
00000300: 9b3f 75bc 2b07 93bb 5fde abbc a2ee dbbb
00000310: ab8d dab9 9f56 25bc 3b50 443c cfcf aabb
00000320: c189 8f3b 8696 92bb 3b24 acbc 1a2a 85bc
00000330: 30dc d53a 3f4f c13b 9f4d 003c face 773c
00000340: 45e2 463c c562 e33c 3df7 963c a6d3 843b
00000350: 904f 0dbc 336d 5d3c 20f5 75bc 6818 dc3b
00000360: 72b1 e23b a07f 21bb 78d8 363a dbd4 59bc
00000370: 7b67 113c 026b cabb 7d33 663c f329 80bb
00000380: 94d0 943c c761 083d 37e7 9e3b 1965 fe3b
00000390: 8b25 a7ba 7c9b 533c 1053 d93b d16e 8b3c
000003a0: 01e2 3a3c 0e26 38bc f41b 4abc 10e6 cebc
000003b0: e5e3 953b 1983 9fbc 3b78 9ebc 8c1f 333b
000003c0: eca7 763c e8b3 23bc 9695 81bb 50cc 1f3c
000003d0: ce96 d23c 51f5 fa3b 0684 363d 54bf 423c
000003e0: 89e2 1f3d 5fa9 cf3b 202d 073d f345 7f3c
000003f0: f5d4 b43b e153 b93b d1f2 f0bb 407d 773b
0.019463891 0.019803222 0.014501681 0.025017813 0.023542067 0.023016406 0.0017351172 0.025827143
0.00315725 0.008096839 -0.009137818 -0.0023143904 0.013947772 -0.005799498 0.013374261 0.012197439
0.014283947 0.027494293 0.0145138325 0.010284596 0.006381671 0.0154899955 0.027162153 0.012875774
0.007860103 0.01776534 0.023330508 0.017398888 -0.025101135 -0.008651483 -0.026425669 -0.01888549
-0.0253936 -0.010993061 -0.0050058523 -0.0013615463 -0.020954521 -0.013283712 0.009309071 0.014074718
0.02507993 0.028640183 0.024126707 0.01726439 0.009196834 0.009332636 -0.007375352 -0.02038467
-0.019522615 -0.011213134 -0.007749015 0.014393647 -0.02096421 -0.024513071 -0.026752118 -0.023879692
-0.015565963 0.016193144 0.007625791 -0.007771526 0.004860545 -0.01765664 0.014974398 0.00013727474
-0.010350906 -0.01769695 0.0120969685 0.016992522 -0.009191625 -0.0065837842 -0.02963723 -0.018671764
-0.017685026 -0.0065148063 -0.012658915 0.003913728 -0.027729457 0.001382048 -0.013492444 -0.002410571
0.0019112237 -0.008942679 0.0016709417 0.001977405 -0.002882081 0.0020992293 -0.00517318 -0.02306648
0.0032450305 0.009864619 -0.019529115 0.00524641 0.007407274 0.0053514433 0.005485353 0.020947283
0.045133132 0.007921481 0.033681642 0.022488087 0.025223766 -0.009459796 -0.021907452 0.0029720657
0.008304651 -0.0074627376 0.0059582656 0.019826123 0.0047824257 -0.0018289931 0.0013337034 -0.010549898
0.011547701 -0.004461144 0.0072675203 -0.007917034 -0.016406575 0.008680424 -5.252339e-06 -0.02016789
-0.013515627 -0.007793504 -0.009037956 -0.027463237 -0.02264532 -0.018614648 0.027827976 0.013244779
0.020206181 0.01675908 0.008189744 -0.005561193 -0.0080190385 -0.016085314 0.0030388532 0.0057365606
0.016122773 -0.014049827 -0.002858763 -0.0047066985 -0.0046738675 0.0029517412 -0.0027888883 -0.005730909
-0.019573692 -0.012372351 0.007491964 0.014294666 -0.0069912677 0.020267071 0.00921845 0.016156865
0.009658933 0.026901308 0.023313193 0.0022775384 0.008523967 0.022498405 0.004037248 -0.015146688
0.013354996 -0.014821297 0.0027255195 0.009021976 -0.00692782 0.018662624 -0.0077910894 -0.02006442
-0.0156952 -0.004664132 -0.0088148285 -0.031288438 -0.0077643716 0.006672839 -0.002041174 -0.013547812
0.020351216 0.014295593 0.028118925 0.016961234 0.026337836 0.023928527 0.02911218 0.01687013
-0.0012252674 0.010102526 0.009893082 -0.018727016 -0.0084623955 -0.012027274 -0.0054948563 -0.012240811
-0.014968778 -0.0044869385 -0.020980058 -0.006711797 -0.0004168575 -0.010091453 0.011982019 -0.005212761
0.004380435 -0.00447351 -0.02101337 -0.016255427 0.0016316231 0.0058993394 0.007831006 0.015125031
0.012138908 0.027757058 0.01842844 0.004053551 -0.008624926 0.013514805 -0.015012056 0.0067167766
0.006918126 -0.002464272 0.00069750054 -0.013295378 0.008874769 -0.006177307 0.014050362 -0.0039112507
0.018165864 0.033296373 0.0048493403 0.0077635166 -0.0012752278 0.012915488 0.0066322163 0.017020615
0.011406423 -0.011239542 -0.012335766 -0.025256187 0.0045742863 -0.019471692 -0.01934444 0.0027332036
0.015054684 -0.009991623 -0.0039545996 0.009753302 0.025706675 0.0076586385 0.0445595 0.0118864365
0.0390344 0.0063373293 0.03300202 0.015580642 0.0055185505 0.005655751 -0.0073531647 0.0037763864

rnn_layer.weight_hh_l0 f4 [16, 16]
00000000: ba78 703a 1dc9 343b 89ce 12bc eb35 95bb
00000010: bf35 2b3c 8e76 b23b 203c 103c 37e8 05bc
00000020: d614 74ba 897e 4b3c 972f 5d3c c41f 9439
00000030: 348f 473c e9b6 1f3c 316a 823c af91 b8bc
00000040: 60f8 9abc e187 603c b126 b7bc fcff e13b
00000050: 6ac1 35bc c237 403c 625e 3e3d c67b 713c
00000060: 3b6b 76bc 2817 383d a1d0 56b9 1fbd 573c
00000070: 285f a83c 9d94 a23c 0e6b 523d c308 acbc
00000080: 08e6 abba b8b2 a23a e80b 11bc 6592 60bb
00000090: 1c75 2ebc 3c51 24bb 66d9 e3bb 0fa9 8abc
000000a0: 5d6f 2c3c 76c4 cebc 7168 1d3c fa6f f63b
000000b0: b8df a7bc 277d a3bb 382a 0dbc 3190 793c
000000c0: e917 41bc 67d0 4a3c 1751 7fbc d2f3 b53b
000000d0: 99ce aabc 041e 743b 4f70 a63c 3c8a c03c
000000e0: 338d baba 9163 943c a73e 843c 297d 613c
000000f0: f10b 0139 f5c7 02bc e05a d83c ec3f f2bc
00000100: a92c ca3a a5ba 9937 04d6 a3bc 9436 743b
00000110: 866a 9bbc 9be5 9b39 1aaa 3e3b 7043 04bc
00000120: 3fd9 40ba 7de4 6e3a 8ca9 7abb f85d e23a
00000130: 3b9f 173c bc56 de3b 80c1 6e3c d93b 24bc
00000140: c2d9 8abb 9f7a 953b 68b0 2f3c 9bef a2bb
00000150: 65f3 493a 48f5 453c 6929 963c 1a74 d23a
00000160: cf6d 5cbc a0a0 4e3c 6171 443b b3da 0b3c
00000170: ed32 0a3d 2a1c c03a 68ec c13c d067 c8bc
00000180: b617 16bc 61d0 d93c ec90 1b3b eb63 143c
00000190: c916 9bbc 40a1 fe3a 7f0f 7f3c 5192 fd3b
000001a0: 7302 f3b9 774c 813a 917e b83b 1625 893c
000001b0: d9df 823c ad4a a4bc 0e10 e83c 41cc 5abc
000001c0: 850c 8b3b 5017 5e3c 1710 fb3a 45a3 b0bb
000001d0: aedc 263b 5846 8fbb b2f2 713a de28 8bbb
000001e0: ef33 d73a 1499 8cbc d81c 6dba 2fc0 a1bb
000001f0: daf9 07bc 916e 26bc fb85 dcbb cd1c 8c3b
00000200: 1df1 aa3b 7a9b 39bc 3286 f5bb 5685 e4bb
00000210: 8450 f43b 50fe a63b 4402 03bb e599 7bbb
00000220: 19d6 583c dcf7 ea39 b477 603b fdfe c23b
00000230: 0df3 61bc 6e8a 073c 572b 9cbc cea2 6d3c
00000240: b7bb d5bb eb3b 233c 1464 833c e1c5 7f3c
00000250: a856 a0bc c270 6c3c ca06 303c f857 073c
00000260: 2ff7 43bc 3b68 573c bfb6 3fbb 6e14 783c
00000270: 4099 933b 16d7 663b 8461 613b 9339 c4bc
00000280: a072 bcbb 1fb0 c43c b2a7 20bc 7206 903c
00000290: 286a d8bb 0d15 bdbb 6d63 ca3c fe83 583b
000002a0: bf0d afbb e1c7 1d3d 1e0b a3bc 497a c63c
000002b0: 924b 183c 3988 57b9 bc1f 2d3d 56f9 b2bc
000002c0: 89d3 bbbb ed86 993c a28a f8ba dcf8 763c
000002d0: d775 0bbb 24ac 933c 6bd8 963c 6354 af3b
000002e0: 6eb6 e6bc 472d e83c f672 2b3c 48e4 d13b
000002f0: 313c 833c 05ad 883b 7e28 b2bb 1dd8 ebbc
00000300: 4af5 bcbb 892f b73c e3b8 c1bb 2d1b e53c
00000310: 8d1b 82bb 1e61 b03c 1249 153d f5c8 a83c
00000320: 62e9 76bc d76a 253d 8067 cabc 36d4 063c
00000330: a96d 4a3c 4972 9a3b 6cca e53c 2bb8 acbc
00000340: 1cca e4ba 7ee3 a63c a657 28bb 578b eb39
00000350: d811 88bc 5c3c c33b a2ec 8e3c 48e8 333b
00000360: 45ea 21bc ebc1 933c 3eb4 8d3a 1915 06bb
00000370: 379b b6bb bd93 483b 3410 973c a1bf 76bc
00000380: 1479 0a3a 96ee c23c 52bc 9ebc b92f 353c
00000390: f436 ca3b 6f58 9c3c c9a9 cb3c 0a3e 9a3c
000003a0: a434 b4bc 771b 0c3d b499 2d3c 652c 073d
000003b0: c3b8 be3c f32c 7f3c 9d02 3e3d 4f8c aabc
000003c0: 05a7 5e3c 8f9b 32ba f595 bb3b 9a7e debc
000003d0: 7fa2 f439 eaa6 a7bb e54b fe3a dc70 ecbb
000003e0: cbf0 a439 c272 1fbc 9434 dbbb 68c5 70bc
000003f0: a8ae 2cbc e0a4 37bb 8845 6ebc 4a25 383c
0.0009173263 0.0027585693 -0.008960375 -0.0045535467 0.010449826 0.0054462617 0.008803397 -0.00817304
-0.0009310966 0.012420305 0.013500116 0.00028252427 0.012180138 0.009748199 0.015919777 -0.022530405
-0.018917263 0.013704271 -0.022357317 0.006896971 -0.011093477 0.011732044 0.04647673 0.014738983
-0.015040214 0.04494396 -0.0002048635 0.013167649 0.020553187 0.019846255 0.051371627 -0.021000272
-0.0013114819 0.0012412881 -0.008852936 -0.0034266945 -0.010648038 -0.0025072834 -0.006953406 -0.016926317
0.010524598 -0.025240164 0.00960742 0.007520673 -0.02049242 -0.0049892846 -0.008616023 0.015232132
-0.011785486 0.012378789 -0.015583298 0.0055527473 -0.020850467 0.0037249336 0.020317225 0.023503415
-0.0014232754 0.018113883 0.016143156 0.013762751 0.00012306847 -0.007982244 0.02641052 -0.029571496
0.0015424687 1.8325934e-05 -0.019999512 0.0037263976 -0.018971693 0.00029734973 0.0029093088 -0.008072719
-0.0007356591 0.0009113027 -0.003824803 0.0017270437 0.009254272 0.006785242 0.014572501 -0.010024034
-0.0042373845 0.0045617367 0.010723211 -0.004972411 0.000770381 0.012082405 0.018330293 0.001605633
-0.013453915 0.012611538 0.0029974806 0.008536029 0.033739973 0.0014656831 0.023672298 -0.024463564
-0.009160927 0.02658862 0.0023737503 0.009057025 -0.018931763 0.0019426718 0.015567659 0.0077383895
-0.00046350397 0.0009864707 0.0056303223 0.016741317 0.01597588 -0.02005514 0.028327968 -0.013354362
0.004243436 0.013555363 0.0019154575 -0.005390557 0.0025461125 -0.0043723993 0.0009229585 -0.004246815
0.0016418676 -0.017162837 -0.00090451306 -0.00493624 -0.008299315 -0.010158197 -0.006729839 0.0042758943
0.005216731 -0.011328572 -0.007492804 -0.0069739027 0.0074558873 0.0050962344 -0.0019990364 -0.0038391289
0.013234639 0.00044816628 0.0034251036 0.005950807 -0.013790858 0.00827275 -0.019063635 0.014504148
-0.0065226215 0.009963016 0.016038932 0.015611143 -0.01957257 0.01443118 0.010743806 0.0082607195
-0.011960789 0.013147409 -0.0029253212 0.01514159 0.004504353 0.0035223416 0.00343904 -0.023953235
-0.005750969 0.024009762 -0.009805607 0.017581198 -0.0066044517 -0.0057703317 0.024705613 0.0033037658
-0.005342215 0.038520698 -0.019902762 0.024228232 0.009295361 -0.00020554745 0.042266592 -0.021847408
-0.005732004 0.018741095 -0.0018962214 0.015073981 -0.0021279955 0.018026419 0.018413743 0.005350636
-0.028163161 0.028341902 0.010464421 0.006405387 0.016019912 0.004171016 -0.005436956 -0.028789574
-0.0057665454 0.022361534 -0.005911933 0.02796706 -0.0039705695 0.021530684 0.03644664 0.020603636
-0.015070291 0.040385094 -0.024707556 0.008229306 0.012355247 0.004713331 0.028050624 -0.021083912
-0.0017455253 0.020372149 -0.0025687008 0.0004492651 -0.016610071 0.005958123 0.01744682 0.0027451683
-0.009882514 0.018036803 0.0010811163 -0.0020459353 -0.0055727023 0.0030605637 0.018440343 -0.015060336
0.0005282324 0.023795407 -0.019376907 0.011058741 0.0061711017 0.019085137 0.024861233 0.01882841
-0.021997757 0.03420588 0.010595728 0.033001322 0.02328146 0.015574682 0.04638921 -0.020818857
0.013589625 -0.0006813341 0.0057246634 -0.027159978 0.00046660376 -0.0051163333 0.001940128 -0.0072156023
0.00031459922 -0.00973195 -0.0066896174 -0.014695503 -0.010539688 -0.0028021857 -0.014542945 0.011239359
