SMNIST/Models/rnn_L1_H16_tanh_drop0.1_sgd_lr0.002_normal_0.02_insize28_e10.ckpt (torch, 5539 bytes, 3 tensors)

fc.weight f4 [10, 16]
000000 e7 9f b9 bc 3c e7 e5 bd cc cf 0c 3f f4 6a 04 bf
       -0.022659255 -0.11225745 0.5500457 -0.517257
000010 d5 3b 09 3e 18 7c bf be 15 cc b2 be de 4b 9b 3d
       0.1340173 -0.37399364 -0.34921327 0.0758283
000020 a0 e7 01 3d b1 ae e4 3d 37 81 4f bc e4 9c e3 be
       0.031715035 0.11166132 -0.012665085 -0.44455636
000030 86 58 91 3b 82 4e 35 bd b6 ee da bd 6d 7b a0 bd
       0.0044356016 -0.044264324 -0.10690062 -0.078360416
000040 b9 0f 5e 3b 52 13 02 3f 77 a5 c8 bd c1 8d 0c bf
       0.0033883883 0.5081073 -0.09797185 -0.549038
000050 43 ba e4 be 4e 53 2b 3f 57 ad d2 3d 1b 26 53 3b
       -0.44673356 0.6692399 0.10286968 0.0032218758
000060 1e d1 0f 3f 32 9a e9 3e 63 55 b1 3d a3 f4 04 bf
       0.5617846 0.45625454 0.08658864 -0.51935786
000070 c5 be 20 be 4e 70 e0 3e de 35 3d be d5 ce 2c bd
       -0.15697773 0.43835682 -0.1847758 -0.042189438
000080 e2 53 9a be 30 d3 e8 be 0e 9a c2 3e 8f 54 11 bf
       -0.30142123 -0.45473623 0.3800816 -0.5676965
000090 37 cf 34 be 63 9b 1b be e8 a7 94 bd db 45 e7 3e
       -0.17657171 -0.15195994 -0.07258588 0.45170483
0000a0 45 8a 3e bd 97 92 33 3e f5 00 1d be a4 5d bf be
       -0.046518583 0.17536388 -0.15332396 -0.3737613
0000b0 6d b6 73 3e d2 a2 3a be 99 da a8 3e fe d4 66 3d
       0.23800059 -0.18226174 0.32979277 0.05635547
0000c0 ca 25 ee 3c 4c 85 43 be b0 a7 03 3f bf 2e 66 3c
       0.029070754 -0.19093817 0.51427746 0.014049231
0000d0 67 6c 46 3e 6d ec af be 2b 48 9f be b2 a3 6e be
       0.1937729 -0.34360066 -0.31109747 -0.23304632
0000e0 51 b6 8c bd b4 b1 57 3d 45 e8 58 3e 0a d7 07 3d
       -0.068707116 0.052659705 0.21182354 0.03316406
0000f0 c1 77 f8 bd aa c3 b0 bd 68 ff 1b bd c0 d0 ee bd
       -0.12132216 -0.0863107 -0.03808537 -0.1166091
000100 d8 44 9e 3c f2 1c 83 3e c9 c9 50 be ae 48 a8 3d
       0.019319937 0.2560802 -0.20389475 0.082169876
000110 7a b6 5f be 11 ab 4c 3e 09 91 85 3d c4 c7 26 be
       -0.21846953 0.19987132 0.06521804 -0.16287142
000120 b4 90 1b 3d e5 1f 0a 3f 3f 25 81 ba 04 b9 73 3e
       0.037979797 0.5395492 -0.0009853019 0.23801047
000130 39 70 c7 3d ca 39 ba 3e fb d6 f2 bc a5 f8 72 3b
       0.09738202 0.36372215 -0.029643526 0.0037074473
000140 0c e0 0c 3b 05 34 4f be 81 c4 01 3f a8 13 0c 3d
       0.0021495847 -0.20234688 0.50690466 0.034198433
000150 2e 4f 79 3e eb 33 8c be 6b ba b6 bd 2e 86 bb bb
       0.24346611 -0.2738336 -0.08922275 -0.0057227826
000160 fc 11 5f be aa 08 da 3d b0 f5 31 3e 61 1f cf 3d
       -0.21784204 0.10646184 0.17378879 0.10113407
000170 19 e2 17 3d 08 57 12 be 73 26 80 3e 96 2d 4f 3d
       0.037080858 -0.14291012 0.25029334 0.050580584
000180 87 0f b2 3c c4 69 2c bf f7 7e b7 3e f6 5e d0 be
       0.02173592 -0.67348886 0.35839054 -0.4069745
000190 65 9e 14 be 37 d6 ef 3d fe 2d af 3e b5 cd 04 3f
       -0.14513548 0.1171078 0.34214777 0.51876384
0001a0 7f e6 b1 3d 12 a3 5b bd 68 7f 0d bf 73 dd cc be
       0.08686542 -0.053622313 -0.5527253 -0.40012702
0001b0 95 24 13 3f ec 8c 9d be 17 96 99 3e 71 ed ae 3e
       0.57477695 -0.30771577 0.29997322 0.34165528
0001c0 d1 81 07 3f 6c 0c c9 3e 8c f0 6f bf 41 7b 7e 3f
       0.5293246 0.3926729 -0.9372642 0.9940682
0001d0 b3 e3 c4 3e f7 a0 54 3e 74 c0 31 3e 18 9f b3 be
       0.3845497 0.20764528 0.17358571 -0.35082316
0001e0 f4 35 bc 3e fe 37 97 bf 76 95 22 3e a9 88 2d 3f
       0.36759913 -1.1813962 0.15877327 0.6778665
0001f0 d4 57 69 be ad ef cd 3e 51 48 5a be af 4e 80 be
       -0.2278741 0.4022192 -0.21316649 -0.2506003
000200 42 83 b9 3d d9 b6 05 3f e1 6a cb 3e d3 a0 14 be
       0.090582386 0.5223213 0.3972998 -0.14514475
000210 9e 38 31 3e d1 58 07 bf c4 52 a1 be 85 50 0c be
       0.17306754 -0.528699 -0.31508458 -0.13702591
000220 d3 f6 2d 3d 2b 26 58 3e fc cd e3 3b 61 f8 2d bd
       0.042471718 0.2110831 0.0069520455 -0.0424732
000230 44 68 a4 bd 9c 02 2a be 26 0d ba bd 02 98 8b bc
       -0.080276996 -0.16602558 -0.09084539 -0.017040256
000240 ca 66 3b 3e a9 10 8c 3e 6c 41 06 bf 92 fa 98 3f
       0.1830093 0.2735646 -0.52443576 1.1951468
000250 fa 74 fc 3e 19 fd bb bc 14 76 bc 3c 24 1f 9d be
       0.49307996 -0.022947835 0.023005523 -0.3068782
000260 f2 bb 7b be d4 91 0e bf 3a f6 03 3d bc 67 36 3f
       -0.24583414 -0.55691266 0.03221724 0.71252036
000270 61 6a 10 bd d0 83 ea 3e 62 dc 1b be 21 f7 09 be
       -0.0352577 0.4580369 -0.15220788 -0.13473178

rnn_layer.weight_ih_l0 f4 [16, 28]
000000 3f 66 2e be 96 b7 3d be 69 c8 19 be aa cc ba be
       -0.17031191 -0.18527064 -0.15017857 -0.3648427
000010 34 14 73 be 56 17 cf be 24 21 64 bf 08 29 39 bf
       -0.23738176 -0.4044749 -0.8911307 -0.72328234
000020 ac 22 16 be 0d 64 96 3d ae ce c7 ba 76 e0 f8 3d
       -0.14661664 0.07343302 -0.001524409 0.121521875
000030 34 4a 45 3d 33 bd d2 be 73 62 03 bf 56 88 0a 3f
       0.04816647 -0.41159973 -0.51322097 0.5411428
000040 3b 5d 42 3f 1b 3f f2 3e 64 61 a9 3e 45 59 9b 3d
       0.7592351 0.4731377 0.33082116 0.07585386
000050 33 7f 58 3e d2 69 f1 3c ee 3e f3 3d 5c 92 20 be
       0.21142273 0.029469404 0.11877237 -0.15680832
000060 48 8a aa be 93 ee 39 be c0 be 1e be 24 c5 1b be
       -0.33308625 -0.18157415 -0.15502453 -0.15211922
000070 e4 b5 9b be 6c 06 9e be 07 ba 90 be 7b da 85 be
       -0.3041221 -0.30864275 -0.28266928 -0.2614325
000080 25 3d 09 be 5b a9 20 be 1e 94 02 bf c4 5e 9e be
       -0.13402231 -0.15689604 -0.5100726 -0.30931675
000090 e3 00 42 3d c9 03 03 3e f1 da 44 3d 31 08 4d 3e
       0.047364127 0.12794413 0.04806036 0.20022656
0000a0 f7 68 18 3f 98 16 55 3f 35 38 36 3f e3 6d 16 3f
       0.59535164 0.832376 0.71179515 0.58761424
0000b0 dd a9 fb 3e ff 9c 43 3f d8 05 55 3f fd 0c 20 3f
       0.49153033 0.7641143 0.8321204 0.6251982
0000c0 64 77 0a 3f a9 c4 0e 3f ed db 70 3e 78 ad 43 be
       0.54088426 0.5576883 0.23521395 -0.19109142
0000d0 bc 75 a6 be 66 18 98 be cd 3e 87 be 20 71 97 be
       -0.325117 -0.29706115 -0.264151 -0.29578495
0000e0 47 f4 29 3e 3f 05 1e 3e 12 4c 13 3e 95 3c 06 3e
       0.1659709 0.15431689 0.14384487 0.13109048
0000f0 d8 c9 ac 3c 53 ca 51 3d a6 fd 21 3d 66 10 19 be
       0.02109234 0.051218342 0.03954854 -0.14947662
000100 8b 8f d7 be bf ae 11 bf 21 37 f5 be f0 fe d8 be
       -0.42101702 -0.56907266 -0.47893623 -0.42382002
000110 98 78 d4 be c0 e7 09 bf 49 13 05 bf 95 e8 9e be
       -0.41498256 -0.5386925 -0.5198255 -0.3103682
000120 94 bf 69 be 98 b3 b6 be 68 70 f0 be dd 32 07 bf
       -0.22826988 -0.35683894 -0.4696076 -0.52811986
000130 93 a7 28 bf 0f 62 12 bf 00 e9 4a be 2a 74 45 3d
       -0.658807 -0.57180876 -0.19815445 0.048206486
000140 7d 70 53 3e c9 64 2a 3e e2 4e 26 3e 89 94 0f 3e
       0.2064838 0.16640009 0.16241029 0.14021505
000150 51 76 51 be 88 1b 4d be 09 2c 59 be 47 79 84 be
       -0.2045529 -0.20030034 -0.21208204 -0.25873777
000160 ba fe 65 bd 83 f0 56 3e 7d 7a 0a 3e 20 9d 2a 3e
       -0.05615113 0.20990185 0.13523288 0.16661501
000170 00 12 81 3e 5b b4 1c 3e 97 31 d0 3e ad 73 b7 3e
       0.25209045 0.15303175 0.40662834 0.3583044
000180 86 3d 07 3f bb a9 1a 3f dd 18 81 3e 06 43 81 be
       0.5282825 0.6041524 0.25214282 -0.25246447
000190 49 3a f0 bd ea 4f b5 bd a4 8f dd ba 74 01 53 bd
       -0.11729867 -0.08853133 -0.001690377 -0.051515058
0001a0 f5 ef 48 be 23 97 6d be a7 b3 91 bd a5 1b 2e be
       -0.19622786 -0.23202185 -0.07114344 -0.17002733
0001b0 de ff 82 be 73 99 3b be 9f 5a 30 be f7 2d 3a be
       -0.25585836 -0.18320255 -0.17222069 -0.18181597
0001c0 d8 51 b3 3f ba 2d af 3f 97 ac af 3f 9a 90 9c 3f
       1.4009352 1.368583 1.3724545 1.2231629
0001d0 b9 68 6a 3f 83 ad 22 3f 73 58 21 3f 34 29 97 c0
       0.91566044 0.6354601 0.6302559 -4.7237797
0001e0 c9 9e 66 c0 84 76 c3 be c9 5c 94 3e 74 95 79 3d
       -3.6034415 -0.38176358 0.2897704 0.060933545
0001f0 ff 1f 81 be 30 48 25 be ce 92 88 3e d1 fe 6f 3f
       -0.25219724 -0.16140819 0.26674503 0.93748194
000200 51 95 8a 3f 6c ae 1c be d6 5b 22 c0 ec 01 5d c0
       1.0826818 -0.15300912 -2.5368552 -3.4532423
000210 9e 53 0f be 8f 2a a4 bd 21 8e 59 3e 5d e3 7d 3f
       -0.13996741 -0.0801593 0.21245624 0.99175054
000220 cb 42 9e 3f bd 3b c1 3f 76 cf b0 3f 7e 2b b2 3f
       1.2364134 1.5096356 1.3813312 1.3919523
000230 9f b4 8e be 50 64 8d be 88 14 5c be 30 9d e3 bd
       -0.27872178 -0.27615595 -0.21492207 -0.111139655
000240 03 43 e0 3e 58 c1 e1 3e 21 a3 25 3f 0a 2b 49 3e
       0.43801126 0.44092822 0.6470204 0.19645324
000250 55 52 01 bf eb 6d eb 3e 77 a9 f0 3e da f3 61 3d
       -0.50516254 0.45982298 0.4700429 0.055164196
000260 4d 66 f9 3e 85 05 09 3f 20 5d 76 3f cf e2 47 3f
       0.48710862 0.5352405 0.9623585 0.7808046
000270 8f 0d 30 3e 53 d2 01 be 9d 75 46 bf 57 15 88 bf
       0.17192672 -0.12677889 -0.77523214 -1.0631512
000280 9d 12 20 bf 66 6c 5c bf 40 f8 4f bf 52 7f ae be
       -0.625284 -0.861029 -0.81238174 -0.34081513
000290 b0 ac 8c be b9 88 97 be 36 40 95 be b7 0f 89 be
       -0.274755 -0.295965 -0.29150552 -0.26769802
0002a0 53 b1 03 bc 36 84 a8 bc b7 e1 3f bc 32 24 a8 bc
       -0.008037883 -0.020570856 -0.011711529 -0.020525072
0002b0 7b 82 d0 3d 87 62 4b 3e 44 83 99 3e 95 03 0e c0
       0.10181137 0.19861804 0.2998296 -2.2189686
0002c0 d7 67 08 c0 07 ff a4 be 29 3b c8 bc f9 44 c8 3e
       -2.131338 -0.3222582 -0.024442272 0.39115122
0002d0 84 73 a7 3e e9 c7 10 3e 3c ea 0f 3f d4 25 b4 3c
       0.3270532 0.1413876 0.5621679 0.021990694
0002e0 89 5f f7 bc bf c9 24 bf 3f db c6 bf 54 ee 24 bf
       -0.030196922 -0.6437034 -1.5535659 -0.6442616
0002f0 ce 53 23 be a5 6b 47 bf 99 ad 00 bf 6d a6 2f be
       -0.15949938 -0.7789863 -0.5026489 -0.1715333
000300 10 32 56 be 8d 24 6e bc 58 c4 aa bc ac 04 c1 3b
       -0.20917535 -0.014535082 -0.020845577 0.0058904495
000310 c3 cf 0d be a9 f1 3b be b1 11 bf bd 13 05 0e 3e
       -0.13848786 -0.18353905 -0.09329546 0.13869123
000320 21 3e f3 3e 30 40 f9 3e 24 b1 87 3e f5 78 f2 3d
       0.47508338 0.48681784 0.26502335 0.11839477
000330 72 f7 36 be a5 80 ae bc 3b 1a bc 3d 97 2d 10 bd
       -0.1786783 -0.021301577 0.091846906 -0.035199728
000340 d2 ba a7 be 58 4f 29 bd 14 18 b1 be ee 82 cc bd
       -0.3275972 -0.041335434 -0.34588683 -0.0998591
000350 c4 fb 60 3d 80 d6 8a 3c 41 4b 23 be 78 e4 32 be
       0.054927602 0.016947985 -0.15946676 -0.17469966
000360 4b eb 73 be 6e e7 3f 3e 7e cb ea 3d bd 4c 9c 3e
       -0.23820226 0.18740627 0.11464594 0.30527297
000370 79 23 10 3e ed 67 ac bd 42 c7 3f be d2 4e f2 bd
       0.14076032 -0.0841826 -0.18728355 -0.1183144
000380 05 f5 16 bf f7 f7 1d bf 0b ea 1a bf ac 1e 08 bf
       -0.5896762 -0.6170649 -0.6051337 -0.531718
000390 79 60 a0 bd 2d 52 9e 3e 2b 30 ac 3e 7f b9 03 3f
       -0.07830901 0.3092207 0.336305 0.5145492
0003a0 e1 b2 f2 3e ab 13 fb 3e 72 80 e7 3e 8d c0 02 3f
       0.474021 0.49038443 0.45215183 0.5107506
0003b0 6c 83 de 3e 71 e3 9d 3f 63 2a a6 3f c3 2c 29 3f
       0.43459642 1.2335035 1.2981685 0.66083926
0003c0 c4 ff 4b 3f d6 ef 5c 3f be b0 30 3f 71 16 07 3f
       0.7968714 0.8630346 0.6901969 0.5276862
0003d0 98 4f 1c 3f b9 bc 26 3f c6 18 a9 3e 39 a5 b7 bd
       0.6105895 0.6513172 0.33026713 -0.089670606
0003e0 80 b0 04 bf ff 26 13 bf d3 7e 0e bf 48 db 1b bf
       -0.5183182 -0.5748138 -0.5566227 -0.6088147
0003f0 d3 5f ad 3e 33 5b b8 3e 24 bd b3 3e 05 3b a6 3e
       0.3386217 0.3600708 0.3510524 0.32466903

rnn_layer.weight_hh_l0 f4 [16, 16]
000000 d7 a5 f4 3f 05 8e d3 3d b4 0e aa be f7 ef 2b 3f
       1.911311 0.103298225 -0.33214343 0.6716303
000010 90 80 48 bf 24 7f ac bf 32 6c 2e be 3c cd 37 bf
       -0.7832117 -1.34763 -0.1703346 -0.7179754
000020 69 aa ed 3e f1 a1 85 bf b2 6c 16 bf a3 0d 96 3f
       0.46419075 -1.0440046 -0.58759606 1.1722912
000030 18 6d 50 bf 78 1f 13 3f c8 0d 93 3f 84 89 01 c0
       -0.81416464 0.5746989 1.1488581 -2.0240183
000040 b7 67 e1 bc 15 1b e8 3f 5d a3 a2 bf 75 94 28 3f
       -0.027515275 1.8133265 -1.2706105 0.6585153
000050 df 4f 37 3e f6 36 53 3f a9 b5 07 3e 6b bc 84 bf
       0.17901562 0.8250574 0.13252892 -1.0370001
000060 fe a9 52 3e 33 2a 06 bf e0 fd 80 3f de 44 e8 3e
       0.2057266 -0.5240814 1.0077477 0.45365041
000070 dc be dc 3e 05 53 52 3e b8 8b e5 3d 90 7a 5b be
       0.43114364 0.20539482 0.1120829 -0.21433473
000080 ea f9 0a be 3d 8f 56 bf 9d 08 82 3f 09 e8 f7 be
       -0.13571897 -0.83812314 1.0158879 -0.48419216
000090 e6 b5 6b be 7d 1d 4f bf 14 eb 35 bf 5f 67 cf 3e
       -0.23018607 -0.8090437 -0.71061826 0.40508553
0000a0 37 02 81 bf 04 b7 ce 3e 91 05 af be c0 4a 23 bf
       -1.0078801 0.40374005 -0.34183934 -0.63785934
0000b0 ee c5 d6 be e7 e4 2f bf 04 18 3f 3f f9 01 82 be
       -0.41947883 -0.6870865 0.7464602 -0.2539213
0000c0 5d 5b 9a 3d 2d b6 c2 be 11 d2 61 bf c3 41 4b 3f
       0.075369574 -0.38029614 -0.8821116 0.7939722
0000d0 fb fb f5 3e 61 22 ac be 12 b4 7e 3f 6e cd 71 3d
       0.48043808 -0.3361998 0.99493515 0.059033804
0000e0 2d 38 02 3f be bb a1 bf 4d a4 25 bf 6c b9 7e 3f
       0.5086697 -1.2635419 -0.6470383 0.9950168
0000f0 8e 7c 79 be 7c 67 40 3f fe ff 80 be b5 d8 54 3c
       -0.2436392 0.75157905 -0.25195307 0.01299112
000100 fe a4 f0 bf f2 7a 10 c0 eb 91 42 40 82 43 07 c0
       -1.8800352 -2.257504 3.0401561 -2.1134953
000110 89 5c af 3f 67 80 dc 3f 2d cc 1c 40 3b eb 92 3f
       1.3700114 1.7226685 2.449962 1.1478037
000120 21 e2 88 bf 40 47 35 3f 73 f3 94 bf e3 e8 05 c0
       -1.0694009 0.70811844 -1.1636795 -2.0923393
000130 9f 0e e6 3f 3b 58 12 c0 97 08 0e 40 1f 2b 20 40
       1.7973212 -2.2866352 2.2192743 2.502632
000140 0e 64 05 bf 7d 0e f1 bd 61 15 ba be 45 0e 36 be
       -0.52105796 -0.117703415 -0.36344436 -0.17778881
000150 3c 2a 5a 3f c5 7f f6 3f 66 ed 0b 3f fb a9 50 bf
       0.85220695 1.9257742 0.54659116 -0.8150937
000160 84 5b 3a be 98 fc ca bd 93 03 ec 3f b1 78 ed be
       -0.18198973 -0.0991146 1.8438591 -0.46381143
000170 53 ce 8d 3f 20 7c 57 3e 72 40 bb 3e d8 b9 9d 3f
       1.107859 0.21043444 0.36572605 1.232234
000180 47 49 84 bf ea 7f 79 bf 7d c2 5f 3f 0f 72 66 bf
       -1.0334862 -0.97460806 0.8740614 -0.9001779
000190 32 2a 2d 3f d9 1d a0 3f ed 70 ba 3f a3 d0 3e bb
       0.6764251 1.2509109 1.4565712 -0.0029116056
0001a0 34 81 92 bf 91 cc 17 3f c1 76 09 bf 9b b3 69 3d
       -1.144568 0.5929652 -0.5369683 0.05705605
0001b0 dd c6 01 40 7a 58 3a bf e6 8e cf 3f fa 3b 4f 3f
       2.0277627 -0.72791255 1.6215484 0.8095089
0001c0 ad d9 e0 bf 17 a7 f7 bd 99 74 4a 3f b1 4f b9 bf
       -1.7566429 -0.12092417 0.79084164 -1.4477445
0001d0 45 f0 66 be 91 5f 75 3d 0e de d1 be 44 ab fe 3f
       -0.22552593 0.059905592 -0.40989727 1.9896016
0001e0 fc e6 1b bf e2 04 8e 3f bc b7 59 bd 80 6f b5 bf
       -0.6089933 1.109524 -0.05315374 -1.4174652
0001f0 66 54 41 be dd 72 5d bf de 60 9a be a3 c7 bf 3f
       -0.18879852 -0.8650339 -0.3015203 1.4982799
000200 fe 86 9d 3e 07 dd 32 3e d1 02 2d bf e9 23 1b 3f
       0.30767053 0.17467128 -0.6758242 0.6060167
000210 b7 89 cf be d8 ea f8 bd b9 c1 02 3f 15 49 35 bf
       -0.40534756 -0.12154168 0.5107685 -0.7081464
000220 7e ab ab 3e 1c 1d a0 3e 45 f9 db 3d 6c 5a e7 be
       0.33529276 0.3127221 0.10740904 -0.45186174
000230 fb f1 ea 3e 41 f8 dd 3c 2e 48 ac 3d b3 07 90 3e
       0.4588774 0.027095916 0.08412205 0.28130874
000240 a4 87 6f 3e b4 c0 24 bf 9e 42 93 3d 77 cc 07 3b
       0.23391587 -0.6435654 0.071904406 0.0020721236
000250 c1 e0 a7 3e 79 60 e5 3d ff b9 fa bd 9a 25 8c bc
       0.3278866 0.11200041 -0.12242507 -0.017107774
000260 4e 90 be bf 5f 1d b1 3f 98 1b ae 3d 72 57 7c be
       -1.4887788 1.3837088 0.08501357 -0.24642733
000270 2c 83 93 3e 29 8c 51 3e ac cc be 3e 15 5a de be
       0.28811014 0.20463623 0.37265527 -0.43428102
000280 27 64 84 3f a7 9a 2e bf 75 39 1a 3f 69 db 00 3f
       1.0343064 -0.6820473 0.6024392 0.50334793
000290 3e 92 cd bd b2 62 88 be 31 4e 57 3f f5 ff da bf
       -0.10037659 -0.266378 0.84103686 -1.7109362
0002a0 da 53 e3 3f e4 61 98 be 3d 54 49 3f 4f cf c6 3d
       1.7759964 -0.29762185 0.7864416 0.0970751
0002b0 d5 d4 97 3e 21 22 33 bf 23 f4 69 3f 14 09 b9 be
       0.29654565 -0.6997395 0.9138815 -0.3613974
0002c0 79 53 23 bf 63 bf 3d 3e da b2 6f bf a6 22 bd 3e
       -0.63799244 0.1853004 -0.9363228 0.36940497
0002d0 b1 8a 5d be 75 57 47 be 1d e8 09 bf 53 7e 93 3e
       -0.21634938 -0.19466956 -0.538698 0.28807315
0002e0 3a 7a 29 3f 09 d4 0b c0 b2 0a 97 bf 64 a2 e7 3e
       0.6620213 -2.1848166 -1.1800139 0.45241082
0002f0 09 47 11 bf e2 ab 20 3f f0 3b 23 3c f0 56 28 bf
       -0.56749016 0.6276227 0.009963021 -0.65757656
000300 21 7a c8 be 8f ad 3f bf f4 66 2d 3f 3d 0a f6 be
       -0.39155677 -0.74874204 0.6773522 -0.48054686
000310 72 b4 41 3f 39 ae fd bd c3 4b 82 3f 19 ee d1 bc
       0.7566596 -0.12386746 1.0179371 -0.02562623
000320 14 57 87 be 37 dc 43 3f a1 4f 89 3e 67 f0 3a bf
       -0.26433623 0.76507896 0.26818565 -0.73023075
000330 e9 71 04 40 44 96 36 bf 82 99 94 3f 98 f3 3a 3f
       2.0694525 -0.7132304 1.1609347 0.73027945
000340 5f cb 82 3f 87 4a 00 40 fa 18 d2 bf 30 2b 98 3f
       1.0218314 2.0045488 -1.6413872 1.188818
000350 69 8e 80 bf c0 12 09 be 29 39 3d bf 20 c2 29 bf
       -1.004346 -0.13386059 -0.73915344 -0.66311836
000360 4d 20 d5 3f c5 d2 0a c0 e6 5a b1 3f 23 00 cd 3f
       1.6650482 -2.1691144 1.3855865 1.6015667
000370 94 cb 73 bf 07 b1 2c 40 8f fb d3 bf 1a 88 73 bf
       -0.9523251 2.698305 -1.6561145 -0.9512955
000380 ba 12 23 bf 3e 36 2d bf 5a 3e a2 3e ac 71 51 bf
       -0.6370045 -0.6766089 0.31688195 -0.81814075
000390 69 8f 7e bf 83 ae a3 be 2a 2a 70 be 33 4e 01 3f
       -0.99437577 -0.3196908 -0.23453584 0.5050995
0003a0 3a e1 20 3f 83 85 9d be 92 ef 8d be e1 72 65 bf
       0.6284367 -0.30765924 -0.2772184 -0.89628416
0003b0 1e aa 81 bf f6 e0 50 bd 08 39 9a 3f f6 a4 c5 3d
       -1.0130041 -0.05099579 1.2048655 0.096506044
0003c0 17 da 29 bf d6 92 d7 bf d8 d9 c3 3f cb c9 23 bf
       -0.66348404 -1.6841686 1.5300856 -0.63979787
0003d0 b4 d3 97 3f d5 34 80 3f 6c 42 da 3f ca 0b 7c be
       1.1861482 1.0016123 1.705152 -0.24613872
0003e0 3a 45 54 bf 3e aa 82 3f ef be 4f be 76 d6 25 be
       -0.8291813 1.0208204 -0.20287679 -0.16195092
0003f0 dd 90 aa 3f be d1 ac bf 5b 69 93 3e 5b e8 f0 3f
       1.3325459 -1.3501508 0.28791317 1.8820909
