SMNIST/Models/rnn_L1_H16_tanh_drop0.1_sgd_lr0.002_normal_0.01_insize28_e9.ckpt (torch, 5539 bytes, 3 tensors)

fc.weight f4 [10, 16]
-0.22001325 -0.18084452 0.5247993 0.3596482 -0.41873598 -0.15992787 -0.2268746 -0.15079673
-0.15863828 0.11768994 -0.07032265 0.0042464514 -0.38234735 0.118453704 0.0077457884 -0.0046986
-0.21824954 0.11813593 -0.166466 -0.2999974 -0.01856786 -0.07660409 0.008723396 0.21302173
-0.45930916 0.2762637 -0.09979109 -0.15662841 -0.5298933 0.06721796 0.13073912 -0.090194725
-0.14601125 0.09802404 0.19237816 -0.5214772 -0.18539332 -0.062764905 0.17458448 -0.07981893
0.06615238 0.09530482 -0.6023453 -0.061441325 -0.35679471 -0.18933268 -0.15103719 -0.059149176
0.064104326 -0.17937326 0.53636783 0.41530773 -0.25022915 -0.29565316 -0.1626941 -0.045916807
-0.08291552 0.049350444 0.1118085 0.14903182 -0.19467065 0.18714108 0.15348428 0.16270444
0.09961398 0.13767748 -0.4248017 -0.54861736 0.09974366 -0.2534462 0.13988982 0.044434622
0.0012615813 0.1872632 0.14247389 -0.16635236 -0.10634719 0.28956568 0.20558713 0.013640884
0.01454503 -0.20904875 0.5015784 0.16210862 0.031333227 -0.2562494 0.08942104 -0.06555379
-0.080614105 0.02791747 0.025865566 0.13360031 -0.12534912 0.10652966 0.046890352 0.19548772
-0.50089675 -0.25332803 0.24857678 -0.34183186 0.5820863 0.12535577 0.09504217 -0.112789094
0.18489146 0.16574763 -0.46735835 0.049348183 -0.16176741 -0.30680004 -0.29206675 -0.2959602
0.3638629 0.21226938 -0.48738414 0.39003927 0.5891316 0.7606967 -0.06185294 0.019681178
0.44179118 -0.10632158 0.55717176 0.04551617 0.8654283 0.051967833 0.34024584 -0.14211713
0.15409411 -0.09283447 0.345422 0.38228512 -0.17264976 -0.23690648 -0.24575347 -0.093413465
-0.22099355 0.035257977 0.2796488 0.19419952 -0.22712196 0.42553258 0.03317696 -0.011143774
0.21995115 0.0033838945 -0.3367391 -0.020443328 0.38293302 0.25761962 -0.06824869 0.10819079
0.41560304 0.041771248 0.5713588 -0.038329676 0.93566954 0.25896838 0.17713726 0.20106156
00000000: 274b 61be 4e2f 39be 3f59 063f cf23 b83e
00000010: 9064 d6be 22c4 23be d151 68be 756a 1abe
00000020: 1372 22be 6c07 f13d 5205 90bd d125 8b3b
00000030: 08c3 c3be db97 f23d 62d0 fd3b b7f6 99bb
00000040: cf7c 5fbe 40f1 f13d 1076 2abe 4299 99be
00000050: a01b 98bc 9be2 9cbd 93ec 0e3c 5e22 5a3e
00000060: 922a ebbe 7072 8d3e 455f ccbd 3363 20be
00000070: 16a7 07bf 92a9 893d 7ae0 053e 03b8 b8bd
00000080: f983 15be d4c0 c83d c8fe 443e 887f 05bf
00000090: bfd7 3dbe e38a 80bd 46c6 323e 1b78 a3bd
000000a0: e67a 873d 2c2f c33d 4d33 1abf e6a9 7bbd
000000b0: ccad b6be 6de0 41be 7ea9 1abe 6846 72bd
000000c0: 2149 833d a0ad 37be 674f 093f 37a3 d43e
000000d0: 091e 80be da5f 97be 4899 26be 4313 3cbd
000000e0: 9dcf a9bd b123 4a3d dbfb e43d cc9b 183e
000000f0: be57 47be e9a1 3f3e fc2a 1d3e fe9b 263e
00000100: 6a02 cc3d 53fb 0c3e 9c7f d9be 3072 0cbf
00000110: 6746 cc3d b3c3 81be 473f 0f3e 1401 363d
00000120: a55b a53a edc1 3f3e ade4 113e 4658 2abe
00000130: 8ecc d9bd f441 943e 6f85 523e 047e 5f3c
00000140: 474e 6e3c e010 56be 7167 003f cdff 253e
00000150: 4557 003d 1f33 83be 6122 b73d 1141 86bd
00000160: 0219 a5bd 2eb3 e43c 06e4 d33c 85ce 083e
00000170: 855b 00be 392c da3d 1910 403d ef2d 483e
00000180: c53a 00bf 36b4 81be e98a 7e3e 9604 afbe
00000190: 9c03 153f 435d 003e 78a5 c23d f8fd e6bd
000001a0: 3054 3d3e bfb9 293e 9849 efbe 5221 4a3d
000001b0: 5ba6 25be e514 9dbe c689 95be 1888 97be
000001c0: 3d4c ba3e 255d 593e 6a8a f9be 3ab3 c73e
000001d0: 54d1 163f 05bd 423f 8259 7dbd 6c3a a13c
000001e0: 7432 e23e 21bf d9bd cfa2 0e3f 2a6f 3a3d
000001f0: b68c 5d3f 39dc 543d b434 ae3e 2787 11be
00000200: d9ca 1d3e 0020 bebd 27db b03e e0ba c33e
00000210: 19cb 30be 9d97 72be cca6 7bbe 8f4f bfbd
00000220: 224c 62be ab6a 103d 212e 8f3e 3ddc 463e
00000230: a992 68be 68df d93e 90e4 073d 6094 36bc
00000240: e03a 613e 54c4 5d3b 1169 acbe c478 a7bc
00000250: cc0f c43e b8e6 833e f8c5 8bbd 2293 dd3d
00000260: ecc9 d43e 5418 2b3d 9244 123f 94ff 1cbd
00000270: 0a88 6f3f 8197 843e 7863 353e 15e3 4d3e

rnn_layer.weight_ih_l0 f4 [16, 28]
0.2193117 0.21982734 0.21477257 0.278747 0.27677828 0.36568367 0.2289089 0.4018916
0.20488155 0.27552712 0.49557534 0.77816427 0.7712403 0.26190078 -0.27035484 -0.20493326
0.36227614 0.31347767 0.2159531 -0.0058051925 -0.16554815 -0.05090269 0.29318136 0.41131145
0.38871613 0.34529594 0.274182 0.2177263 1.30091 1.3175082 1.2862338 1.3960831
1.5102879 1.718664 1.8319325 1.8873156 1.8747773 1.974363 2.0665083 2.0642955
2.2268057 -1.3639163 -11.143531 -6.9260592 -1.8913115 2.4851205 2.4669085 2.3838513
2.2706046 1.9418663 1.8535862 1.7680305 1.5867943 1.4202373 1.3258938 1.3019985
0.02509555 0.05691876 0.048474442 0.070832364 0.22142203 0.12574959 0.086495146 0.06670117
-0.091501705 -0.36929095 -0.5859882 -0.51873624 -0.55892384 -0.6811132 -0.84174514 -0.450421
0.105281696 0.034382634 -0.06867807 -0.08912406 0.101823166 -0.06044923 -0.17006066 -0.18535504
-0.1109074 0.00031247234 0.03939157 0.04200007 -0.17753564 -0.1725552 -0.19060612 -0.28409803
-0.2108951 -0.14272352 -0.1802335 -0.1155895 0.35245678 0.49182805 0.333291 -0.15172127
0.4055126 0.44599327 -0.56257904 -0.044961404 0.122188605 0.6113375 0.19912156 -0.09556743
-0.01197773 0.054697443 0.12993097 0.11803584 -0.012280794 -0.13195518 -0.1645519 -0.18647118
0.16259392 0.14653721 0.13678788 -0.11556546 -0.37403557 -0.62869936 -0.7064571 -0.3578159
-0.20573284 -0.59434736 -0.797503 -0.44573554 0.2993935 0.55858374 0.39511704 -0.929095
-0.3965951 -0.534973 -0.78995913 -0.59533805 -0.51793927 -0.51749724 -0.3504888 -0.20353472
-0.004554176 0.12725532 0.14528921 0.15071383 -0.3257501 -0.31803998 -0.3132676 -0.2587705
-0.16398142 0.024835251 0.068232514 0.18834619 0.12725721 0.16884154 0.5212774 0.8460516
0.7241716 0.0147944745 0.076568514 0.096593864 1.18007 0.95417035 0.27919286 -0.010044219
0.11452321 0.08399344 0.12796128 -0.008313983 -0.21897751 -0.29294446 -0.32327977 -0.3368097
-1.6222332 -1.6109085 -1.6051397 -1.5603443 -1.159499 -0.7576829 -0.6143927 -0.6443479
-0.55387396 -0.808433 -1.1064738 -1.4498112 -1.2696066 -1.6193022 -3.0586905 -2.343591
-1.2152914 -0.8494686 -1.3924589 -1.676386 -1.4013809 -1.3514398 -1.3857051 -1.3204945
-1.45455 -1.554782 -1.6192011 -1.6132278 0.6371534 0.6267147 0.66292256 0.772107
0.82907045 0.8932167 0.84066623 0.6122256 0.53291154 1.125697 1.0132443 0.4620416
0.33752695 -0.44536045 -3.3786006 -2.0021732 -1.235658 0.5327505 0.5127595 0.50571525
0.0465684 0.17502953 0.36111373 0.5031362 0.6607514 0.70686036 0.6577532 0.63338476
0.93105567 0.9456621 0.91360784 0.95354307 0.7974186 0.64697784 0.5220079 0.45786625
0.5292079 0.5941608 0.47483358 1.1471171 1.3713244 1.4327915 -0.07522443 0.7743818
0.84015256 0.93232185 0.9412344 1.385911 1.314268 1.1953765 1.0880977 0.97795415
1.0936905 0.9909008 0.9555881 0.93107986 -0.6921164 -0.6924116 -0.7045319 -0.59729373
00000000: 3f93 603e 6b1a 613e 57ed 5b3e edb7 8e3e
00000010: e2b5 8d3e e43a bb3e 1867 6a3e bcc4 cd3e
00000020: 78cc 513e e411 8d3e 0dbc fd3e c635 473f
00000030: 0170 453f dc17 863e f36b 8abe 06da 51be
00000040: 427c b93e 2580 a03e cf22 5d3e 7c39 bebb
00000050: 7485 29be 577f 50bd de1b 963e 6a97 d23e
00000060: cd05 c73e a1ca b03e 9561 8c3e a5f3 5e3e
00000070: 3884 a63f 1ca4 a83f 4fa3 a43f dab2 b23f
00000080: 1d51 c13f 2ffd db3f c47c ea3f 8f93 f13f
00000090: b4f8 ef3f edb7 fc3f ac41 0440 6b1d 0440
000000a0: fc83 0e40 cf94 aebf e74b 32c1 47a2 ddc0
000000b0: 7f16 f2bf 370c 1f40 d4e1 1d40 0591 1840
000000c0: 9651 1140 138f f83f 5042 ed3f d34e e23f
000000d0: 131c cb3f 56ca b53f e3b6 a93f e3a7 a63f
000000e0: 2f95 cd3c a523 693d 238d 463d 8f10 913d
000000f0: 75bc 623e 80c4 003e 5e24 b13d 9f9a 883d
00000100: 3f65 bbbd b413 bdbe 5303 16bf e6cb 04bf
00000110: a215 0fbf 6f5d 2ebf 9c7c 57bf 959d e6be
00000120: ee9d d73d ced4 0c3d 17a7 8cbd ad86 b6bd
00000130: aa88 d03d 9d99 77bd 6224 2ebe b6cd 3dbe
00000140: 6b23 e3bd 54d3 a339 0e59 213d 4408 2c3d
00000150: e7cb 35be 4fb2 30be 402e 43be 4c75 91be
00000160: e3f4 57be 1d26 12be 218f 38be 30ba ecbd
00000170: 3775 b43e e3d0 fb3e 1ea5 aa3e d25c 1bbe
00000180: 599f cf3e 3b59 e43e 2e05 10bf 7329 38bd
00000190: 053e fa3d 9d80 1c3f 86e6 4b3e dbb8 c3bd
000001a0: 3e3e 44bc 6d0a 603d a00c 053e c6bc f13d
000001b0: 6235 49bc 421f 07be 4b80 28be 4df2 3ebe
000001c0: 057f 263e da0d 163e 1f12 0c3e 95ad ecbd
000001d0: 9781 bfbe 71f2 20bf 5fda 34bf a533 b7be
000001e0: a1ab 52be 2627 18bf 2829 4cbf 7337 e4be
000001f0: 1b4a 993e 58ff 0e3f c84c ca3e 2bd9 6dbf
00000200: 830e cbbe fef3 08bf c33a 4abf 1368 18bf
00000210: ab97 04bf b37a 04bf 4573 b3be 686b 50be
00000220: 323b 95bb 384f 023e b2c6 143e ba54 1a3e
00000230: b8c8 a6be 23d6 a2be 9c64 a0be 917d 84be
00000240: bfea 27be 4c73 cb3c 7dbd 8b3d d3dd 403e
00000250: b74f 023e cce4 2c3e 7072 053f d696 583f
00000260: 4f63 393f 8664 723c f4cf 9c3d 01d3 c53d
00000270: 890c 973f 8244 743f 5ef2 8e3e 8290 24bc
00000280: 258b ea3d c104 ac3d 4808 033e 5f37 08bc
00000290: a43b 60be d1fc 95be ed84 a5be 5272 acbe
000002a0: 56a5 cfbf 4032 cebf 3875 cdbf 5db9 c7bf
000002b0: 776a 94bf 82f7 41bf d748 1dbf fcf3 24bf
000002c0: afca 0dbf 77f5 4ebf efa0 8dbf 6a93 b9bf
000002d0: 7882 a2bf 4b45 cfbf 96c1 43c0 65fd 15c0
000002e0: ab8e 9bbf c676 59bf 183c b2bf d193 d6bf
000002f0: 7360 b3bf fbfb acbf c95e b1bf f705 a9bf
00000300: b22e babf 1903 c7bf fb41 cfbf 407e cebf
00000310: 7c1c 233f 6070 203f 4bb5 293f cea8 453f
00000320: f63d 543f daa9 643f e735 573f d1ba 1c3f
00000330: e46c 083f d716 903f fdb1 813f b790 ec3e
00000340: 55d0 ac3e 4906 e4be fe3a 58c0 9b23 00c0
00000350: 0b2a 9ebf 5662 083f 3544 033f 8e76 013f
00000360: 82be 3e3d f13a 333e e6e3 b83e 89cd 003f
00000370: 0127 293f cdf4 343f 8462 283f 8125 223f
00000380: aa59 6e3f e916 723f 34e2 693f 661b 743f
00000390: a023 4c3f 57a0 253f 4fa2 053f 726d ea3e
000003a0: 2b7a 073f ec1a 183f 631d f33e bcd4 923f
000003b0: 8f87 af3f b665 b73f 440f 9abd e33d 463f
000003c0: 3d14 573f a5ac 6e3f bdf4 703f 8865 b13f
000003d0: ef39 a83f 1902 993f c946 8b3f 345b 7a3f
000003e0: 0dfe 8b3f adab 7d3f 6ca1 743f 405b 6e3f
000003f0: 8a2e 31bf e341 31bf 345c 34bf 3ee8 18bf

rnn_layer.weight_hh_l0 f4 [16, 16]
0.034268513 0.86389476 -1.0520073 2.1458964 1.6357532 1.6653005 0.44010186 -1.4798237
0.9213946 -0.78797615 1.8279643 0.74555224 2.1294072 1.5490241 1.3686312 -1.6476632
5.2430615 3.725877 -4.8854938 1.2122623 -5.026315 4.4938235 -1.9461527 1.3138448
0.1468057 -3.6120903 4.058643 -3.8908122 5.2980742 4.065186 5.311155 -5.8330717
-1.2186893 0.3390158 0.8592163 0.4698419 0.37952584 -0.06525968 0.22390704 -1.8676319
-0.2570779 -0.594257 -0.5889464 0.5667336 -0.37031528 -0.2484668 0.58455026 0.9337879
0.7323265 0.51671183 -0.1032798 2.5356834 1.0862311 1.3493133 0.08041445 -1.917863
-1.4072506 -0.24510872 0.47592038 0.83648306 0.9294472 0.6213694 1.3409278 -1.109519
-0.8338774 -0.2907673 -0.55007756 0.766706 1.1735725 1.7129653 1.2202027 -0.74819386
0.26580584 0.9770686 -1.4028847 1.4205911 0.10766855 -2.9405253 -0.3843698 -0.8421577
-0.3774473 0.2872975 0.089726254 0.5518241 -0.560448 0.9548737 -0.13060321 -0.1988707
0.30709285 0.06987051 -0.20750324 0.7302367 0.66878915 0.0037415377 0.14603679 -1.9609953
4.5479035 -3.1655476 1.5427291 -5.290463 -3.8919356 -3.901373 -3.3280535 6.2050667
-2.9795754 -4.694358 -1.8743742 -5.508466 -3.735768 -3.637614 -2.7423208 3.6912374
2.7420416 1.5435216 -1.7230357 0.28720036 -0.43876493 0.702382 -2.0412877 0.26170546
0.6482727 -1.9901232 2.0556846 -2.3880637 0.90204406 1.6391314 1.0346533 -2.1264262
-0.06158146 2.074794 -0.78268576 1.7034187 -0.6226251 3.0872993 0.67900383 -2.180207
2.443506 0.4796578 1.2837819 1.6869371 2.6470997 1.43848 1.9971423 -2.8285267
-1.0555668 -2.7295296 2.339722 -2.6785312 1.119724 -2.606116 -0.27523723 2.0126944
-0.22482249 -2.199645 -1.7001886 -1.7272328 -2.9540224 -2.2299428 -2.6946 3.065211
0.0173296 0.20465457 -0.22498271 1.6527909 1.5114386 0.97872096 0.14041255 -1.141226
1.1226919 -0.29504132 0.3975548 0.94280607 1.5038531 0.31017837 0.39578643 -0.909498
-1.656771 -2.0459101 1.3277366 -2.141417 2.5149994 -1.5906931 0.84667844 1.6651651
-0.7525114 -0.9342915 -2.5546439 -1.0328444 -1.7756265 -2.1458108 -2.1320531 1.3536761
0.07017875 0.31590283 -0.21598618 0.26626402 -0.20443593 1.6546898 -0.37760323 -0.047671985
0.027774354 -0.0297017 0.13197154 0.4064881 0.55721 -0.34876716 0.33248308 -1.0087667
0.8458002 0.61448747 0.09119668 0.35242283 0.8269543 -0.05437158 0.01001095 -0.6299695
-1.0445697 -0.12249737 2.1351206 -0.47075596 1.1368177 -0.3779139 0.8474114 0.06975272
1.114782 1.601683 -1.4169642 0.103471905 -0.63014865 1.6533701 -0.0077531375 0.5275591
-0.14834191 -1.4852006 1.5947481 -0.5878601 1.8712906 1.0776633 1.5436028 -1.7951533
-0.6258814 -0.05334138 -0.014435275 -0.48304802 0.1927022 -0.8623142 -0.02248041 0.28891477
0.4584193 -0.10918317 -0.65696806 -0.14619832 -0.89495915 0.20599483 -0.2902453 0.9576469
00000000: 245d 0c3d 3528 5d3f 2da8 86bf 5e56 0940
00000010: 5c60 d13f 9128 d53f 0855 e13e dd6a bdbf
00000020: 84e0 6b3f ceb8 49bf bcfa e93f 83dc 3e3f
00000030: 3548 0840 6c46 c63f 4f2f af3f a1e6 d2bf
00000040: 29c7 a740 c574 6e40 f755 9cc0 692b 9b3f
00000050: 93d7 a0c0 67cd 8f40 881b f9bf 112c a83f
00000060: 3c54 163e 7d2c 67c0 67e0 8140 1103 79c0
00000070: d389 a940 0116 8240 fbf4 a940 86a8 bac0
00000080: 03fe 9bbf 7b93 ad3e 99f5 5b3f 1e8f f03e
00000090: 3651 c23e dea6 85bd e347 653e 900e efbf
000000a0: b79f 83be 3a21 18bf 31c5 16bf 7415 113f
000000b0: f799 bdbe 156e 7ebe 16a5 153f b90c 6f3f
000000c0: c079 3b3f 3a47 043f 5c84 d3bd a348 2240
000000d0: 9f09 8b3f 4cb6 ac3f 55b0 a43d 897c f5bf
000000e0: ca20 b4bf c8fd 7abe d6ab f33e c123 563f
000000f0: 40f0 6d3f 1112 1f3f 86a3 ab3f b804 8ebf
00000100: fd78 55bf 74df 94be e2d1 0cbf d846 443f
00000110: a037 963f 7242 db3f 9a2f 9c3f a289 3fbf
00000120: b417 883e 2b21 7a3f ba91 b3bf eed5 b53f
00000130: 5481 dc3d 9131 3cc0 1ecc c4be a697 57bf
00000140: c640 c1be a818 933e 66c2 b73d 5844 0d3f
00000150: 8579 0fbf 9a72 743f d9bc 05be c3a4 4bbe
00000160: 463b 9d3e 4518 8f3d bb7b 54be cbf0 3a3f
00000170: c435 2b3f 9634 753b ab8a 153e e501 fbbf
00000180: 6d88 9140 5598 4ac0 2678 c53f 794b a9c0
00000190: 7915 79c0 18b0 79c0 d4fe 54c0 e88f c640
000001a0: 5db1 3ec0 2e38 96c0 7eeb efbf 5a45 b0c0
000001b0: d316 6fc0 abce 68c0 2f82 2fc0 3c3d 6c40
000001c0: 9c7d 2f40 1e92 c53f 6f8c dcbf ed0b 933e
000001d0: cca5 e0be 4fcf 333f 75a4 02c0 42fe 853e
000001e0: 33f5 253f 5bbc febf 5690 0340 09d6 18c0
000001f0: 5cec 663f 0fcf d13f 856f 843f 5e17 08c0
00000200: d73c 7cbd 6dc9 0440 185e 48bf a009 da3f
00000210: 5c64 1fbf 5096 4540 32d3 2d3f 8388 0bc0
00000220: 6762 1c40 b595 f53e f752 a43f 8eed d73f
00000230: 156a 2940 1d20 b83f 5ca2 ff3f 9506 35c0
00000240: d01c 87bf 9db0 2ec0 01be 1540 0e6d 2bc0
00000250: 1e53 8f3f 9bca 26c0 e5eb 8cbe fccf 0040
00000260: de37 66be fcc6 0cc0 c89f d9bf f715 ddbf
00000270: b40e 3dc0 62b7 0ec0 5474 2cc0 6b2c 4440
00000280: cef6 8d3c f890 513e de61 66be a78e d33f
00000290: d276 c13f 758d 7a3f 4fc8 0f3e b213 92bf
000002a0: 5eb4 8f3f a80f 97be 4e8c cb3e bd5b 713f
000002b0: 427e c03f b3cf 9e3e 85a4 ca3e dcd4 68bf
000002c0: 1211 d4bf 31f0 02c0 46f3 a93f fa0c 09c0
000002d0: c0f5 2040 d59b cbbf ebbf 583f 2124 d53f
000002e0: 96a4 40bf ba2d 6fbf 497f 23c0 3f34 84bf
000002f0: bb47 e3bf f754 09c0 8f73 08c0 4245 ad3f
00000300: e0b9 8f3d 04be a13e 7b2b 5dbe c253 883e
00000310: a757 51be e0cc d33f 3655 c1be b343 43bd
00000320: 0b87 e33c fb50 f3bc 8c23 073e 351f d03e
00000330: 51a5 0e3f 9c91 b2be 393b aa3e 441f 81bf
00000340: 5d86 583f 0d4f 1d3f 53c5 ba3d c470 b43e
00000350: 47b3 533f bcb4 5ebd f804 243c ae45 21bf
00000360: 76b4 85bf e7df fabd d1a5 0840 ed06 f1be
00000370: 3e83 913f ee7d c1be f4ef 583f 84da 8e3d
00000380: 2db1 8e3f f303 cd3f 155f b5bf 14e9 d33d
00000390: 6c51 21bf a2a1 d33f 080e febb 1d0e 073f
000003a0: f1e6 17be 0e1b bebf b520 cc3f 007e 16bf
000003b0: 7386 ef3f dff0 893f c794 c53f 95c7 e5bf
000003c0: c339 20bf 7e7c 5abd ef81 6cbc 1252 f7be
000003d0: ba53 453e a0c0 5cbf d628 b8bc a3ec 933e
000003e0: efb5 ea3e 6d9b dfbd 0f2f 28bf 03b5 15be
000003f0: 0b1c 65bf 4ff0 523e 089b 94be 5928 753f
