SMNIST/Models/rnn_L1_H16_tanh_drop0.1_sgd_lr0.002_normal_0.025_insize28_e6.ckpt (torch, 5475 bytes, 3 tensors)

fc.weight f4 [10, 16]
00000000: c863 7e3e f757 a63e 26ca 98bb a1e0 0ebf
00000010: 17af b2be 848f 3ebd 49f6 86bd 3718 cbbe
00000020: eec1 efbd 2932 563e 4186 a6be dc41 2f3e
00000030: 4507 0ebe ad47 90be c92b 79be 2b89 043e
00000040: feb2 8ebf bc60 133f 3571 e13d 5aa2 123f
00000050: c770 6c3f b479 7cbe e26e 6bbe f0c9 87be
00000060: d3ec 98bd d89d 91be 8b4a c83e 8042 a6bb
00000070: 8c82 753e c819 ca3e a704 113c fb4a ef3c
00000080: a6d7 1bbd ae42 9e3d ce36 483e 0866 88be
00000090: e6a8 f8bd 100a 45be 7ec9 31be 2501 963d
000000a0: b03f a23e 194f f03c 508e 5ebe a4b4 27be
000000b0: 78f6 0cbe af87 f1be 8ca9 7c3e 0d25 173f
000000c0: b0a7 cf3e ae01 d73d 2dac 083e cee1 c3be
000000d0: 9d6f a3be 6203 26be 1524 203d 1ec1 84be
000000e0: 304d ebbb 10cf 743e 6bc1 dbbe b6b5 a43e
000000f0: 1320 b1bd d427 4d3e b9d2 dabd eea4 8bbe
00000100: 2347 a93d 0031 64bf 9631 eb3e 10ec 1f3f
00000110: 6db6 0b3f b509 bbbd b35b c3be 221c 093f
00000120: 4ab6 0bbe c129 a4be 5b6d b13e a829 7cbe
00000130: 44e3 313e 294d 2d3e 80f1 a63d a0c9 c8be
00000140: ac93 db3e 7a91 953b ba52 483e 3e16 e4be
00000150: 37b0 c4be e60b 6bbe d3b2 dcbb 1008 f4bb
00000160: 1214 e7bd e8fd 0c3e 43f3 c0be e014 20bd
00000170: f7e7 00be 0dd5 62bc 9cf3 383e f76e 13be
00000180: 6072 e8bc 5262 9f3d cd2e ea3d e8f8 803e
00000190: d51e 37be 5d9d 10be 94f5 0bbe b6d6 18bf
000001a0: f9f7 303e a33e 48bf db6c 85be bdf8 51bf
000001b0: 1253 df3e a70b 33bf dc24 fb3d 2e9f b33e
000001c0: f71c 18be 0395 16bf decd 25bf 2bf2 2c3f
000001d0: c0f7 013f 6984 083f f2ec 4e3f a8b3 023f
000001e0: 1a00 f73e f430 793e 16a4 273f 640b 8d3e
000001f0: 8b26 253e c325 003f ff5b 9ebe 5d24 5bbe
00000200: 8f47 10be 8189 0b3e 0a98 da3d 2dbc adbe
00000210: 590b dfbe ef5a 93be 117e b73c f3b3 c3bc
00000220: 1ece 67be ecb4 af3e a7d9 323e 15f0 4d3e
00000230: f2fc 48be a408 8b3e 50f7 7ebe c47e c2be
00000240: 80bf c43e 52bf ebbe 920b b5bd a21e b33e
00000250: 7f4f b23e c415 2d3f 474b 493f 6f6f c93e
00000260: 1e95 85bd 7c0f 5b3e 0805 be3e 434b b23d
00000270: b5d1 51be c8ba 9e3e e248 133e 870f 20bf
0.24842751 0.32488987 -0.00466277 -0.55811507 -0.34899208 -0.046523586 -0.06589944 -0.39666912
-0.11706911 0.20917572 -0.32524303 0.17114967 -0.1386996 -0.28179684 -0.24333109 0.1294295
-1.1148374 0.5756948 0.11007921 0.5727898 0.92359585 -0.24655801 -0.22991517 -0.26521254
-0.07467046 -0.28440738 0.39119372 -0.0050738454 0.23975581 0.39472795 0.008851207 0.029210558
-0.038047455 0.07727562 0.19552156 -0.26640344 -0.1214159 -0.1924212 -0.1736202 0.07324437
0.31689215 0.029334592 -0.21733975 -0.16377503 -0.13765895 -0.4717383 0.24674052 0.5904091
0.40557623 0.10498367 0.1334693 -0.38258213 -0.31921092 -0.16212228 0.03909691 -0.25928587
-0.0071808323 0.23907113 -0.42921004 0.32169884 -0.08648696 0.20034724 -0.106847234 -0.2727427
0.082655214 -0.8913727 0.4593627 0.6246958 0.54575235 -0.09132711 -0.38155898 0.5355855
-0.13643757 -0.32063106 0.34653744 -0.24625266 0.17371851 0.16923966 0.08151531 -0.39216328
0.42886102 0.0045644613 0.19562808 -0.4454822 -0.3841569 -0.22953758 -0.0067351847 -0.00744725
-0.11283125 0.13768733 -0.37685594 -0.039082408 -0.12588488 -0.013844741 0.1806168 -0.14397798
-0.02837485 0.07782425 0.11434708 0.251899 -0.17882855 -0.1412253 -0.136679 -0.5970262
0.17282094 -0.78220576 -0.26059613 -0.8202017 0.43618065 -0.69939655 0.1226289 0.35082382
-0.14854799 -0.58821124 -0.64767253 0.6755702 0.5076866 0.5332704 0.808303 0.51055384
0.48242265 0.2433508 0.6548475 0.27547753 0.16127984 0.5005762 -0.30929562 -0.2140059
-0.14089797 0.13626672 0.106735304 -0.3393263 -0.43563345 -0.28780314 0.02239898 -0.023889517
-0.22637221 0.3431772 0.1746584 0.20111115 -0.19627741 0.2715503 -0.2489903 -0.3798734
0.38427353 -0.46044403 -0.088400975 0.34984308 0.34826276 0.67611337 0.7863049 0.3934283
-0.065225825 0.21392626 0.37113214 0.08705761 -0.20490153 0.31001878 0.14383271 -0.6252369

rnn_layer.weight_ih_l0 f4 [16, 28]
00000000: f593 ad3c 9397 8d3c f238 c1bd 7d82 06be
00000010: e6c9 9bbe 8f7f a4be 23bd 94be b47e ccbe
00000020: a91e 4bbe 33ee a8be 05ea b8be 43d0 fdbe
00000030: 88f7 c8be 5c5b 80be 03d2 24be 2bc6 90be
00000040: 1e5f 84be ac4b eabe 0dfd 6fbe 1057 01be
00000050: f410 5ebe 340b a8be 7bba 18be 660d 3bbd
00000060: 2f52 64bc 016b 13ba f3f9 afbc 223d 91bd
00000070: f76b b53d 43ae cc3d 186d 373e c1a7 973e
00000080: 9dd0 aa3e e055 cc3e 4a1c a73e df7a 703e
00000090: 013e fc3d 413a 173e c952 1f3e 3cb5 4a3e
000000a0: 3268 5a3e c448 e83c 5877 d9bd d5eb 0ebe
000000b0: bbe3 42be 235b e5bd 3824 eabd 797d 1dbe
000000c0: 5d77 27be d2d9 51be 7a86 12be b76a 84ba
000000d0: 09c5 1f3e f4e9 313e cd2d 033e 1c6e f33d
000000e0: 8457 aa3e c507 b63e 7eae ab3e 10fa 913e
000000f0: b051 823d a78d 8dbb 0764 e63c 412c 9dbd
00000100: 553e 9ebc d5b9 f6bd 1a65 05be 771b bfbc
00000110: d8cf 9fbd c311 84be ca03 d4be d0d2 64be
00000120: 49e7 a7be 4916 b8be 0de7 99be d210 bdbe
00000130: 92db d9be 6294 d0be ac0f 45be 2412 ba3d
00000140: 99a8 9d3e a6ac b23e fdb7 9b3e 35f9 ab3e
00000150: 6ddb f6bd bdf3 ecbd 111c fbbd c608 29be
00000160: be12 40be 6995 2cbe 2752 76bd b9e6 d03c
00000170: 0c2e 233e f47b ae3d 28ec 2c3e 5eec c73c
00000180: 7b2e 843d 54d3 323e 7c8d 0d3e 5ff2 9ebd
00000190: 7c9e 22be fee9 d6bd 72da f83d 8bff 133e
000001a0: 477d 673e 1116 733e b0e2 583d c4b5 17bd
000001b0: 5f11 d9bd 9e5e 00be bd56 1cbe 24e0 cbbd
000001c0: 1a37 acbe 6043 a2be 34d9 b6be f0cb 95be
000001d0: 8457 0fbe c081 80bd 2740 79bd e43f bd3d
000001e0: 88c0 893e 759c cc3e 6c8d e13e f7a1 af3e
000001f0: 6573 873e 7ef3 ec3e 3999 313f c653 cc3e
00000200: a217 a93e 12d0 9c3e 073b a43e abd7 9a3e
00000210: c72a fc3e c9cb f93e 3299 c13d 05c1 19bc
00000220: 6581 79be 5a27 afbe e265 9abe c249 87be
00000230: 82cc 92be a457 86be 9b2f 93be 5f59 9fbe
00000240: 9135 01be 5c74 c7bd 119b c4bd c050 d23c
00000250: fc06 923d 4773 123e 71c3 073e b9f0 ea3d
00000260: 6674 093e bb75 db3e 0697 1d3f 7c2d cf3e
00000270: 2ab6 d93e 75f3 9c3e 0e6e a63e 4f15 ac3e
00000280: 507c de3e 504b d53e e298 843e 71a8 9a3c
00000290: e090 33be c9c5 58be 7239 84be 4107 96be
000002a0: 81d2 76bd 7453 59bd 0155 adbd 2c19 dabd
000002b0: 6d13 27bd f2c6 063d 7b04 813a 39c6 c33d
000002c0: 1c8b 513d 3645 153e 6257 fb3d 41d4 a53d
000002d0: d17f 213e a96a ad3e 5ea6 cb3e bf93 8c3e
000002e0: 249b 803e e80a 683e 717f 713e 83c2 5a3e
000002f0: 43ba 2e3e 68c5 8e3e 2b25 3c3e 6127 673d
00000300: 1960 a3bd a570 cdbd c06f abbd b50c abbd
00000310: 1966 9f3d 5d3f e73d 2739 5dbc abc8 5abe
00000320: 6fef b5be edbe 6bbe 1bbc 7ebe 17b3 3cbe
00000330: 2473 c5be f1b7 ffbe 67b6 3abe e2ae cebe
00000340: cba4 62bf fe27 f5be 0b2b 7b3d 07d9 fbbd
00000350: f01d bdbe 8bae 1fbe 01d4 4cbe c8bd 46be
00000360: d159 efbc edc9 a7bd 058e a6be 8592 9dbe
00000370: fd17 31be 3d36 8f3c 81db e33d 99c6 c43d
00000380: 22e5 113e 0c07 103e 72ac aa3d 7da0 e93b
00000390: 6dca 65be 4302 07bf 6541 26bf 4688 1dbf
000003a0: 8ea5 ebbe 4407 77be dff5 b2be fb23 9cbe
000003b0: 2755 c43e 14f8 113f e68c 93bd 5350 3cbe
000003c0: 4d78 b1bd d8aa 273e 468a 28be a3a0 2fbe
000003d0: 9c64 51be 547a a5be b68e d5be f516 3dbe
000003e0: 9243 08bd 191c 7e3d 808c e03d 7144 123e
000003f0: 3c42 d03e 8c74 d53e dafc c03e 451a 8b3e
0.021188715 0.01728419 -0.094346896 -0.13135715 -0.30427474 -0.3212857 -0.2905055 -0.39940417
-0.19835915 -0.32994232 -0.36116043 -0.49572954 -0.3925135 -0.25069702 -0.16095738 -0.2827619
-0.2585382 -0.45760858 -0.23436375 -0.12630868 -0.21686155 -0.32821047 -0.14914887 -0.045667075
-0.01393561 -0.000562355 -0.02148149 -0.07091738 0.08858483 0.09994175 0.1791271 0.29620174
0.33362284 0.39909267 0.3263877 0.23484372 0.12316514 0.14768316 0.15558924 0.19795698
0.2132881 0.02835501 -0.10618466 -0.1395715 -0.19032185 -0.111990236 -0.114326894 -0.15379895
-0.16354127 -0.20493248 -0.14309111 -0.0010102604 0.15602507 0.17374402 0.1281044 0.11886236
0.33269894 0.35552803 0.33531564 0.28511095 0.06363237 -0.004319865 0.028123869 -0.076744564
-0.019316832 -0.120471634 -0.13026848 -0.023328526 -0.07803315 -0.257948 -0.4140914 -0.22346044
-0.32793644 -0.35954502 -0.3005909 -0.36926895 -0.4255033 -0.40738207 -0.1924426 0.09085491
0.30792692 0.34897345 0.3041381 0.33588567 -0.12053571 -0.11569927 -0.122612126 -0.16507253
-0.1875715 -0.1685387 -0.06013694 0.025500642 0.15935534 0.08519736 0.16886961 0.0244047
0.06454178 0.17463428 0.13823503 -0.07761072 -0.1588077 -0.10493849 0.1215104 0.1445295
0.22606383 0.23738886 0.05295056 -0.03703858 -0.105990164 -0.12536094 -0.15267463 -0.09954861
-0.3363579 -0.31692028 -0.35712588 -0.29257154 -0.13998228 -0.06274748 -0.060852196 0.09240702
0.26904702 0.39963117 0.4405321 0.34303257 0.26455227 0.4627952 0.69374424 0.39907664
0.33025843 0.30627495 0.32076284 0.30242667 0.49251387 0.48788288 0.09453048 -0.009384398
-0.24365766 -0.3420971 -0.30155855 -0.2642346 -0.28671652 -0.2623874 -0.28747258 -0.31122872
-0.1261809 -0.09738991 -0.09599889 0.02567327 0.071302384 0.14301787 0.13258149 0.114716955
0.13423309 0.4286326 0.6155857 0.4046439 0.42521793 0.30654493 0.3250584 0.33610007
0.43454218 0.4165902 0.2589789 0.018879147 -0.17535734 -0.21169199 -0.25825077 -0.2930241
-0.060259346 -0.053058103 -0.08463479 -0.106493324 -0.04079001 0.032904573 0.0009843254 0.09559292
0.051158056 0.14577183 0.12272526 0.08097125 0.15771414 0.33870438 0.39775366 0.2745647
0.25118363 0.2266041 0.23583771 0.21363263 0.1706324 0.27884984 0.18373553 0.05643404
-0.079773135 -0.10031251 -0.08370924 -0.08352033 0.077831455 0.112913825 -0.013502396 -0.21365611
-0.35534236 -0.23022051 -0.24876444 -0.18427692 -0.38564408 -0.49945024 -0.18233643 -0.403678
-0.88532704 -0.47882074 0.061320346 -0.12297254 -0.36936903 -0.15593927 -0.20002748 -0.19408333
-0.029217632 -0.08192811 -0.32530227 -0.30775848 -0.17294307 0.017481918 0.111258514 0.09608192
0.14247563 0.14065188 0.083336726 0.0071297274 -0.224405 -0.52737826 -0.64943534 -0.6153606
-0.46024746 -0.24123865 -0.3495321 -0.304962 0.38346216 0.5701916 -0.072046086 -0.18390016
-0.08665524 0.16373765 -0.16458997 -0.17151122 -0.20448536 -0.3231989 -0.41710442 -0.18465789
-0.033267565 0.062038515 0.10964298 0.14283921 0.40675533 0.4169048 0.3769291 0.2716848

rnn_layer.weight_hh_l0 f4 [16, 16]
00000000: da36 2a3f 318f 0cbe 73f3 14bf b9a5 e3bd
00000010: 7724 f8be 5758 f0bc a4bd 05be 335e 193e
00000020: 31d9 72be 8ddb 7abf b2b0 48bf 64fd afbe
00000030: d8de 563f 414d 56be 45e5 f7bd 2360 643e
00000040: 7ad3 dfbd d9ec 143f 30cc 243f 753f 6bbe
00000050: 544e 13bf 45d7 40bf 891a 74bd a0c5 95bd
00000060: 8fff 8dbe 7cef 813f b100 953d 5378 9bbc
00000070: 5b59 8cbe f784 613e ac72 bb3e ae4e 34bf
00000080: 3ba3 2b3f f062 0c3e 1242 003f c995 e43c
00000090: 34e2 0abe b5a4 fbbd 0c44 66be 9d68 eabd
000000a0: 7534 2d3e 934d 343f ec1a 2ebe 833d 263e
000000b0: 2118 dabe efdb 233e 84cb 953f e312 943e
000000c0: 1edb 19bf e490 9cbd eef7 dd3d edf1 483f
000000d0: f074 0e3f 18bb ea3d 4ee7 c4bd 8c61 84be
000000e0: 3838 eabe 3a9b acbe aff9 4e3f b304 8f3e
000000f0: d966 05bf 6848 1bbd 4e9d 453e 2b39 363e
00000100: cf2b 2ebf 9301 9cbe 9fbc 85bd d8b9 f63e
00000110: 49c8 653f 3059 b13e 206f 703e e112 323e
00000120: 5fa8 a23b dd3b 8cbd 7b8c 403f a41e c33e
00000130: f787 a6be 5182 dd3e bf8e 1fbf 7c06 fbbe
00000140: c385 11bf 6779 debd 34cc 16bf f991 50be
00000150: f7e9 353e ea6b e93e 11a3 393e 5270 bebd
00000160: ba4b 9abd a1b7 00bf e348 053f 96ac bd3e
00000170: 7918 dabd 7176 a73d 5d25 52bf b23e fbbd
00000180: 1981 dfbe 01b5 69bd 03e6 7abf 9464 0d3d
00000190: b79b 033f ff0a e63e 14c6 b63e 01c8 ddbd
000001a0: 319b 5d3e c340 7e3d 73ee 583e 991f 7b3e
000001b0: 9b9e 123d 17f2 3d3d 2a76 d0be 0bf4 883d
000001c0: 4c10 4dbe 2a31 46bf fcab 29bf 1773 993e
000001d0: c7a2 4d3f 9ea5 523f 7daa 063f dd38 c53d
000001e0: efcb bd3f 9234 4d3d cd47 123e 51ff abbe
000001f0: bc4a ef3d 7a4c c7bd 3152 babc 0fcb 8b3f
00000200: bc37 8f3d 2f35 a93e bdd4 12bf 91f1 5ebe
00000210: 6b8c ac3e 80a1 d93d e1f6 99be 3779 c7bd
00000220: b82c ad3f 0b26 143d d523 98be 3baf 3ebf
00000230: 185f 573f ffd8 cfbd e862 10bf 29c2 b93f
00000240: 1586 553f 8514 a0be c33f 79be d4e5 78bf
00000250: 9bf0 0dbe b3aa cdbd 3ee2 a13e 32a5 943e
00000260: a7dd a43e 3e1f 803f 0591 05be 7ecc 86be
00000270: 3c76 153f b274 d73d bf34 42bf dcf0 ecbe
00000280: 3c44 403e 18e5 05be 4f3a c3bd be6c 213e
00000290: 0547 c83e aa6a a63e 1454 613e ed27 573f
000002a0: be02 0dbe a060 043f b632 233f ca3b a03f
000002b0: ef77 72bf ac39 563f f324 613e 38ee ad3e
000002c0: 2e80 7a3e 9986 743c c00e 8bbe d368 4dbe
000002d0: 16a8 6dbd 8c6e 283e b5cc 843e 5d27 923f
000002e0: 422c 893e c5ed 8d3f 2753 013e d7be f83e
000002f0: 5f16 dbbe bb5d 803f 33ed a9be 040b a9be
00000300: 7561 1f3e 758a b5bd b129 8abe 454f 4a3d
00000310: 2a76 dabe 2d1d 71be fb4e 993d 51d0 f8bd
00000320: 3a33 e4bd c0ba a5bf 9e58 cdbd 52f0 69bf
00000330: e193 623f 58f4 d1be 9bc2 b3be 69a4 743a
00000340: ccfa 343e acee 4abf 7d68 eebe dc66 083f
00000350: e13e ee3e 17fc c93e 4b28 c93e a39f b13f
00000360: 0ea3 a63e beb4 863e f499 ffbd 8091 7d3d
00000370: 0550 eebd d769 623f 96b4 f83d 7f95 40be
00000380: c567 62bd 9cd0 893e 52fa cd3d bbba 5d3e
00000390: 8c41 d93e 6131 9f3e cf3b 693e b6a9 1dbf
000003a0: 1452 57be b6f9 893e eb43 2c3d 0b56 e5be
000003b0: 08c2 eebe 552d 1cbf c851 cbbd 686e 0e3e
000003c0: ab53 28bf 2dfa 3e3f 980b 953e f27e 053c
000003d0: 94c6 47bd 06dd 76bd c881 32bf 79b9 853c
000003e0: 5a39 d83d 369f 21bc 9100 8a3e ef73 9c3c
000003f0: 71b0 59be 8cbc 2bbe 0aa8 5ebe 8327 dc3e
0.66489947 -0.13726498 -0.58183974 -0.111155935 -0.4846532 -0.029338999 -0.13060623 0.1497734
-0.23715664 -0.9799126 -0.78394616 -0.3437301 0.8393378 -0.20927908 -0.121042766 0.22302298
-0.10929008 0.581739 0.64374065 -0.22973426 -0.57541394 -0.75328475 -0.05959562 -0.073130846
-0.27734038 1.015121 0.072755225 -0.018978273 -0.27411923 0.22023378 0.36610925 -0.70432556
0.67045945 0.13709617 0.50100815 0.027903454 -0.13562852 -0.12287275 -0.22486895 -0.11445735
0.16914542 0.7043087 -0.17002457 0.16234402 -0.42596534 0.16001867 1.1702733 0.2892066
-0.6009997 -0.07644823 0.108383045 0.7849415 0.5564718 0.114614666 -0.0961443 -0.25855672
-0.45746017 -0.33712178 0.80849737 0.27933273 -0.5211006 -0.03791085 0.19298288 0.17795245
-0.68035597 -0.3046995 -0.06530117 0.48188663 0.89758736 0.34638357 0.23479891 0.17390014
0.004963919 -0.068473555 0.75214356 0.38109314 -0.32525608 0.43263486 -0.6232719 -0.49028385
-0.5684473 -0.108629994 -0.5890534 -0.20368184 0.17765032 0.45590144 0.18128611 -0.09298767
-0.07533975 -0.50280195 0.5206434 0.37045735 -0.10649199 0.08176888 -0.8208826 -0.122678176
-0.4365318 -0.057057384 -0.9800722 0.034519747 0.51409477 0.44930264 0.35697997 -0.10829163
0.21641232 0.06207348 0.21184711 0.24523772 0.03579579 0.046373453 -0.40715152 0.066871725
-0.20025748 -0.7741877 -0.6627805 0.2997062 0.80326504 0.8228396 0.52603894 0.096299864
1.482786 0.050098963 0.14285202 -0.33593228 0.11684176 -0.097313836 -0.02274427 1.0921344
0.06993052 0.33048388 -0.5735586 -0.21771838 0.3370088 0.10626507 -0.30071166 -0.09739917
1.3529272 0.036169093 -0.29714838 -0.7448613 0.84129477 -0.101488106 -0.5640092 1.4512378
0.8340772 -0.31265655 -0.2434073 -0.9722569 -0.13861315 -0.10042324 0.31617922 0.29032284
0.32200357 1.0009534 -0.13043602 -0.2632789 0.58383536 0.10520305 -0.75861734 -0.4627751
0.1877603 -0.13075674 -0.09532606 0.15764138 0.39116684 0.32503253 0.2200473 0.84045297
-0.13770577 0.5170994 0.63749254 1.2518246 -0.94714254 0.8368175 0.21986751 0.3397081
0.24462959 0.014924669 -0.2715969 -0.20059519 -0.058021627 0.1644842 0.2593743 1.1418263
0.2679158 1.1088187 0.12629376 0.485831 -0.42790505 1.0028604 -0.3318878 -0.33016217
0.1556452 -0.08864299 -0.26984933 0.049392004 -0.42668277 -0.23546286 0.074857675 -0.12149108
-0.11142583 -1.2947617 -0.10026668 -0.91382325 0.88506895 -0.41006732 -0.3510941 0.00093323604
0.17673796 -0.79270434 -0.46564093 0.5328195 0.46532348 0.39450142 0.39288554 1.3876842
0.32546276 0.2630977 -0.12480536 0.061906338 -0.11636356 0.8844275 0.12143819 -0.18807028
-0.055274744 0.2691697 0.100575104 0.21653263 0.4243282 0.3109236 0.22776721 -0.61587083
-0.21027404 0.26948327 0.04205696 -0.44792208 -0.4663241 -0.6100667 -0.09927708 0.13909304
-0.6575267 0.7460049 0.29110408 0.008147942 -0.048773363 -0.060269378 -0.6972928 0.016323792
0.10557814 -0.009864619 0.26953557 0.01909825 -0.21258713 -0.16771144 -0.2174379 0.42998895
