SMNIST/Models/rnn_L1_H16_tanh_drop0.1_sgd_lr0.002_normal_0.025_insize28_e1_iter225.ckpt (torch, 5159 bytes, 3 tensors)

fc.weight f4 [10, 16]
00000000: d286 253d 9a97 163e 5b4f 1e3e 3efa abbe
00000010: 63fa 853d 0b08 00be e13a 93bd 186a 87be
00000020: 04a9 59be 435e 4d3d 7852 2bbe 9bb1 003e
00000030: 16aa 2e3d 27d5 1b3c d6af 24be 286d 91bd
00000040: 5ac0 c6bd 992e ac3e f41c 2c3e ffd0 2b3d
00000050: c38f 293d c44d d4bd 81ff bebe 616b d9bd
00000060: 0165 25be 272b fd3d ddc3 4e3e 5d5f 603e
00000070: a103 9f3d 4c32 723e 1dc4 abbc b082 cc3c
00000080: faed aabd 2682 b43d c861 d33d ada4 10be
00000090: ec95 583d ba29 83be 12c4 16be 7027 16bd
000000a0: 05df 1e3c ff83 cdbe 48e3 b23d 71c0 d7be
000000b0: e70d 42bd 7472 00bf 8ed8 b93d b652 133e
000000c0: 9f2c bf3d 4469 2bbe 1f14 4f3e ecc1 7dbe
000000d0: b25d 0ebd 9ecd d53b 01d8 40be dfd4 213e
000000e0: b4b0 d43d 5fdd c83d 0ee3 3a3e 5498 713e
000000f0: 6929 eabd 11a4 473e 56ca 64bc 717e bd3b
00000100: 1cc8 17bd 9eb9 1abe 6741 783e 0080 143e
00000110: d109 0dbe be3a 96bd 32c5 6c3d bf1c 293e
00000120: 2207 2abe b655 743d 38ca 4bbd a7d2 85bd
00000130: dac2 97be c54a 1c3e f74c 2a3c 1290 a2be
00000140: 39f5 8b3e 7a40 09bd 3b62 293e 4341 75bd
00000150: af98 203d 7f8b 49be b182 de3d 2747 983d
00000160: b3db 81be 67a7 65b8 d81e ce3d b0cf 4dbe
00000170: 65a7 eb3d 7736 a43c 5196 2f3d 8d08 0abe
00000180: f239 9dbe 21e5 4b3e e8f4 9cbd 22e1 a7bd
00000190: 4396 193d 5a59 06be 08c0 973d 34fb cabe
000001a0: da0e 1b3e 0312 24bf 7d0e 81be ad00 f6be
000001b0: 1ba0 f83e a638 34bf 6683 e0bd 0c29 b73e
000001c0: 40b3 2e3c 4587 21bf 4ede debe 411a 013f
000001d0: 8722 c53e e1d3 003f 1575 e53e 82ae 5a3e
000001e0: d1e8 ed3e caab cf3d cbe7 8a3e 0ad0 943e
000001f0: 4c92 ca3d 6ea7 c23e 121c 6d3d ffe4 bdbe
00000200: a907 41bd c660 4b3e 437b 323e 63b1 fe3d
00000210: dc4b e8bd 5c93 b7bd e10e 033e 013f 943d
00000220: 72ae 033e c28a aa3e 3b73 8c3b 818b 0b3e
00000230: ebf1 13be 4c43 663e 206a 91bd 4390 39be
00000240: 61ae 6e3e a1f1 1fbf 2ad1 fdbd feb7 083f
00000250: 4e62 4e3e b355 8e3e 4b20 203f f619 ab3d
00000260: 93e4 2b3e 9915 9c3e 3ecc 4bbd 5fe2 6abd
00000270: 9315 c5bd 26c0 bb3e 8fa8 4d3d 4727 c5be
0.040411778 0.14706269 0.15459959 -0.33589357 0.06541898 -0.12503068 -0.07188965 -0.2644813
-0.2125588 0.050138723 -0.16730678 0.12567751 0.042642675 0.009511269 -0.16082701 -0.07100898
-0.09704657 0.336293 0.1680792 0.04194736 0.041396867 -0.10366395 -0.3730431 -0.10616184
-0.16151811 0.12361746 0.20191903 0.21911378 0.07764364 0.23651999 -0.020967538 0.02496466
-0.08346172 0.08813886 0.10321385 -0.14125319 0.05287735 -0.25617772 -0.14723232 -0.036658704
0.009696727 -0.40139768 0.08734757 -0.4213901 -0.04737654 -0.5017464 0.09074508 0.1438702
0.09334683 -0.16739374 0.2022252 -0.24781007 -0.034757324 0.0065247556 -0.18832399 0.1580386
0.10385266 0.09807848 0.18250677 0.23593265 -0.114336796 0.1949618 -0.013964256 0.0057828953
-0.037056074 -0.1510987 0.24243699 0.14501953 -0.13773276 -0.07335423 0.057805248 0.16514872
-0.16604283 0.059652053 -0.049753398 -0.06534319 -0.29640847 0.15262897 0.010394326 -0.31750542
0.27335528 -0.033508755 0.16541378 -0.05987669 0.03920811 -0.1968212 0.10864771 0.07435446
-0.2536293 -5.475376e-05 0.10064477 -0.20098758 0.11506537 0.020045502 0.042867962 -0.13479824
-0.3070827 0.19911624 -0.076639 -0.081972376 0.037496816 -0.13120022 0.07409674 -0.39644778
0.15142384 -0.64089984 -0.25206366 -0.4804739 0.4855965 -0.7039894 -0.10962562 0.35773504
0.010662854 -0.6309703 -0.4352898 0.50430685 0.38502905 0.503233 0.4481589 0.21355632
0.46466687 0.10140188 0.2712997 0.2906497 0.09891185 0.38018364 0.057888098 -0.37088773
-0.047126446 0.19861135 0.17429833 0.124361776 -0.11342594 -0.089636534 0.12798645 0.072385795
0.12859514 0.3330899 0.0042861975 0.13627435 -0.14447753 0.22486609 -0.0710032 -0.18121438
0.23308708 -0.6247807 -0.123934105 0.5340575 0.20154688 0.27799758 0.62549275 0.08354561
0.16786413 0.30485228 -0.049755327 -0.05734479 -0.096232556 0.36670035 0.050209578 -0.3850653

rnn_layer.weight_ih_l0 f4 [16, 28]
00000000: dd36 013e 9c12 f13d e915 5b3c 2458 323d
00000010: 4b22 6b3d 8850 283d 8ae2 2cbd faf1 01be
00000020: b647 38be 9dcb 43be 4bb0 3ebe 8b69 6fbe
00000030: e230 76be 32b0 5ebe 672d 8ebe fc34 8dbe
00000040: 039d 61be f99e 6cbe 12e7 12be 85d3 cbbd
00000050: aaf2 0ebd d515 a23b f537 e73d 7243 d93d
00000060: 15fd 783d 7974 873d 5907 973d 51be 0e3d
00000070: 8652 78bc 42a1 9bbb a2bd 563c 7af5 293d
00000080: ce5a 523c 382f 453d 74ec 62bd 1c16 e73b
00000090: 4975 47bd ea96 95bc 0212 58bb a21c 28bd
000000a0: 91c7 ccbc 1c84 89bd c053 eabd e383 90bd
000000b0: 3bc6 94bd ec8c bcbd 1afe 8abd 2e09 96bd
000000c0: e375 91bd 2e4f e9bc 636b a83b 210f 443c
000000d0: 8f9d 423c ada8 343d 2378 953c 7859 693c
000000e0: 3b83 3a3d 2ff4 8b3d 0a95 4b3d a778 c63c
000000f0: 19bd 5abc 99f9 d2bc 1c01 d2bc 05fd dcbd
00000100: 0790 4ebd 8699 07be 338f ecbd 00fb 97bd
00000110: 3a2e e9bd 1895 13be abba 5abe 42a3 54be
00000120: 9f87 fcbd 4369 21be 0778 fdbd fc9b 2bbe
00000130: 9235 18be a3cb 6ebd 602d cfbc cbab 573d
00000140: 3563 cf3c de9f 3b3d f753 863c 61a6 473d
00000150: 668a fcbc f8f5 d9bc 4eb5 b1bc 27f1 16bd
00000160: 4c9a 36bd 0015 fbbc f521 bd3c 66e2 bdbc
00000170: 7794 4a3d 5ef0 babc a957 b43d ac91 183d
00000180: 86c5 053d 39d0 263d ad80 ab3d 5976 803d
00000190: d62c aa3d f368 d33c b380 a33d 2edd 1d3d
000001a0: 5c3a 0e3d 211a 4c3d c581 0abd cedf 02bd
000001b0: d0b7 46bc 801d b6bc ef7c 71bd 2278 21bc
000001c0: 23a8 d2bd b8b8 a9bd 4ea1 e3bd b5fb a9bd
000001d0: 3f5d 80bd 217a 2d3d b615 d13d 67c9 183e
000001e0: 3325 1b3e fbe6 573e 36f6 2c3e ee5b 443e
000001f0: 9f5b 783e 0969 7c3e a06e da3e b67e b13e
00000200: 9dcf 7a3e ddd0 823e 53bb 7c3e 3449 963e
00000210: 343a 743e d5af c13d 91b9 6dbd 4b4d 09bd
00000220: c8df fcbd d0bf aebd 3275 87bd 3d62 fdbc
00000230: 5fef a3bd c6bd 62bd 6d95 57bd 8b28 c0bd
00000240: d06c 98bc ea28 c73b b1cb 1d3c 3b13 613d
00000250: c107 943d 6410 d43d c76c ac3d c504 063e
00000260: a7b0 ad3d ea58 143e 061a 833e 1f75 373e
00000270: 7426 0b3e dc29 ed3d eb04 033e 6ddf 223e
00000280: 5c2c de3d bab3 993c a479 443d f986 58bd
00000290: 31a7 83bd abe5 703c bdf2 4fbd 8c00 b1bd
000002a0: 19ea 3c3c 42d5 993c 04f4 cbbb 013f 04bd
000002b0: a439 2dbd 46da 2e3b 6114 3fbc 726f 8a3d
000002c0: 7edb bb3c 1534 c63d 5801 813d e81b 5f3d
000002d0: f6e2 953d 7737 d83d 0969 1e3e 5a54 033e
000002e0: 2cf4 983d a663 bd3d 19d5 ec3d f165 f63d
000002f0: 0632 0e3d e6de 1f3d 5406 d53b 2928 0f39
00000300: 5b60 c7bc 2c98 a9bc b60d 40bc 5eac 41bc
00000310: 6c46 d0bc da91 193c 10c4 45bd a00e 50bd
00000320: 9494 a8bc 5659 debc a403 13bd 75fd 48bd
00000330: b13e 35bd 8b0c 55bd 61da b0bc ad06 39bd
00000340: 7333 03bd bd76 d7bc 7175 6abd 1654 29bc
00000350: e1f2 03bb b09a 303c 4d54 9b3c c10b 60bb
00000360: 7c64 df3c aa64 f6bb a27c 37bc 4084 a3bc
00000370: 3c3f 0ebd 7ae2 5bbc 42e7 043d 1110 bdbb
00000380: 080f 0b3c dceb 173c 78ce babc 1428 bf3b
00000390: a566 483d 84ef 50bc f010 403d 7ffe 263b
000003a0: 0480 11bd 3951 0a3c b28f 02bd d2fd fabc
000003b0: e59b 2b3c 3c13 afba 6eef b53c e5b7 503c
000003c0: 5a75 ffbb 6d7d 7abc 9f50 e1bb e73d 8cbb
000003d0: 1cf6 9ebc 3e15 a53c 01d2 3c3c a85b 163c
000003e0: 77c6 26bb c628 a03c 56e1 22bc a114 343c
000003f0: 772a f73d c01c 073e ddc4 003e 1aad 1e3e
0.12618585 0.117711276 0.013371923 0.04354109 0.05740575 0.041092426 -0.042208232 -0.12689963
-0.17996106 -0.19120641 -0.18621938 -0.23380105 -0.24042085 -0.217469 -0.27769014 -0.27579486
-0.22032551 -0.23107518 -0.14345959 -0.099524535 -0.03489939 0.0049464502 0.1128997 0.10608567
0.060788233 0.06614012 0.07374448 0.03484947 -0.015156394 -0.004749448 0.013106735 0.04149387
0.012839032 0.048140734 -0.05540128 0.007052196 -0.048695836 -0.018260438 -0.0032969718 -0.04104293
-0.024997504 -0.06714651 -0.11441755 -0.070564054 -0.07264372 -0.09206566 -0.06786747 -0.0732597
-0.07102563 -0.028480139 0.0051397546 0.011966498 0.011878385 0.044106174 0.018245762 0.014242522
0.045535307 0.06833684 0.04970268 0.024227453 -0.013350748 -0.025753783 -0.025635295 -0.10790447
-0.050430324 -0.13242158 -0.115507506 -0.07420921 -0.1138577 -0.14412344 -0.2136027 -0.20765403
-0.12330555 -0.1576281 -0.12376409 -0.16758722 -0.14864185 -0.05829967 -0.025290191 0.05265407
0.02531586 0.045806758 0.01639746 0.048742656 -0.030827712 -0.026606545 -0.021692898 -0.036851075
-0.044580743 -0.030649662 0.023087481 -0.023179244 0.049457993 -0.022819694 0.08805782 0.0372483
0.032659076 0.04072592 0.08374152 0.06272573 0.08309333 0.02580688 0.07983532 0.03854101
0.034723625 0.049829606 -0.033815164 -0.031951718 -0.012128785 -0.022230864 -0.058957037 -0.009855302
-0.10285976 -0.082871854 -0.11114751 -0.082999624 -0.06267785 0.0423528 0.10209219 0.14920579
0.15150909 0.21084206 0.16890797 0.19175693 0.242537 0.24649443 0.42662525 0.34666985
0.2449326 0.25549975 0.24680834 0.29352725 0.23850328 0.094573654 -0.058038298 -0.033520978
-0.123473704 -0.08532679 -0.0661415 -0.030930633 -0.08004641 -0.055356763 -0.052632738 -0.09382733
-0.018606573 0.0060778754 0.009631083 0.05494998 0.072280414 0.10354689 0.08419185 0.13087757
0.084809594 0.14487043 0.25605792 0.17915772 0.13588887 0.1158025 0.12794845 0.15905543
0.10848305 0.018762458 0.047967568 -0.052863095 -0.064283736 0.014703195 -0.050768603 -0.086426824
0.011530423 0.018778447 -0.0062241573 -0.032286648 -0.0422913 0.0026680394 -0.011662574 0.06759538
0.02293181 0.096779026 0.062990844 0.054469973 0.0731868 0.10557454 0.15469755 0.12825146
0.07468447 0.09247522 0.11564083 0.120311625 0.034715675 0.039030932 0.0065009985 0.00013652504
-0.024337938 -0.020702444 -0.011722019 -0.011820881 -0.025424205 0.009373153 -0.048282683 -0.050795197
-0.02057866 -0.027142208 -0.035892144 -0.04906984 -0.04424924 -0.052013915 -0.021588506 -0.045172382
-0.032031488 -0.026301736 -0.057240907 -0.010334989 -0.002013378 0.010779068 0.018961096 -0.0034186693
0.027269594 -0.0075193243 -0.011199148 -0.019960523 -0.034728274 -0.013420695 0.032447107 -0.0057697375
0.00848747 0.009272542 -0.02280353 0.005833635 0.048926014 -0.0127524175 0.046891153 0.0025481281
-0.035522476 0.008442217 -0.03187532 -0.03063861 0.01047418 -0.0013357173 0.022208896 0.012739156
-0.007795972 -0.015288693 -0.006876066 -0.0042798403 -0.019404463 0.02015173 0.011524678 0.009177126
-0.0025447884 0.019550692 -0.00994142 0.010991246 0.120686464 0.13194561 0.12575097 0.1549572

rnn_layer.weight_hh_l0 f4 [16, 16]
00000000: cf94 1f3b d13e 93bd a456 9c3c 8551 3e3d
00000010: 65e5 35bd 22ba c53c 1b7b afbc fe6e 3e3d
00000020: 85fa ae3d 1be1 543c 8bb3 44bc 27c5 81bd
00000030: 8b58 7b3d 1434 be3b a374 323e 753e 0c3d
00000040: 6496 243e b864 5a3e f233 b63e 9e9d 35be
00000050: 6763 0cbf 77b5 acbe 4569 57be c669 4e3c
00000060: aba5 febd 08b5 5b3e 25f7 f4bd b890 d4bb
00000070: dea2 97bd 3b38 1c3c f9ec 813e 4954 063e
00000080: 1a51 923e c433 6d3d b4b1 133e c598 24bd
00000090: bac1 b2be 2441 56be 9b8e ffbd d81a 99bb
000000a0: 0553 8e3c f812 933e 37d1 61be 18bd fb3c
000000b0: 2272 523d 43bd 233d cfe6 053f 4f2f 773d
000000c0: 852d efbd 7245 52be 254b 8fbe 4c14 103e
000000d0: 993e cf3e ddd4 813e 1946 593e 29ca 013d
000000e0: c189 b93d 0995 04be da7e 0d3e 0ee7 053d
000000f0: 451d 453c 4d30 023d 043c 69be 8093 c8bd
00000100: 54ec b4be 3dbc f7bd d5c3 02be a459 983d
00000110: 3386 db3e 513f 5b3e 42ab 233e 1788 38bc
00000120: 33bc 01be 76f2 80be 031e 733e f181 943c
00000130: 8146 90bd d68a 1e3d 4710 29bf e4ba 03be
00000140: 85a5 63be 6f39 dfbd 2a5e 68be ee46 fb3d
00000150: f655 ca3e b571 953e 1711 323e bd90 a93c
00000160: f723 be3c d001 8bbe 613d f63d d80e fe3c
00000170: 1209 27bd a9cc 293c bdfb d4be ee8d 02be
00000180: d9a9 26be 6445 52be fe24 9fbe 0356 393e
00000190: ea8c f03e 5f41 a83e 32c0 463e 1844 613d
000001a0: f88f f73d 7d62 fbbd 4bc7 dd3d 6845 683c
000001b0: 6511 5d3c 9076 8e3d 7407 83be 7494 18be
000001c0: 03c8 ee3b 4acd 82be 9ad4 b1bd 0870 0c3e
000001d0: b775 1c3e c4dd 323e 5a5e 073e c25d cc3d
000001e0: cd2b cc3d d8c6 003d 14a3 d53c a557 243d
000001f0: c0cb 5d3c 47fa 833d 5825 94bb 62b4 b4bd
00000200: 012e 26be 7a3b 25bd a204 a2bd dcc1 fb3c
00000210: 70b2 793e 07b9 833d c937 693d bb4d 82bd
00000220: 928b 483c 66a7 44be 7107 633d f5db acbd
00000230: af6d 663c 4cec 7fbd 2279 23be e052 393d
00000240: 9a4d 873d d9ae 7ebe 3d67 81bd 22fd 303e
00000250: 2c0d e2bb 6458 013e a15a f13d 185b a83d
00000260: f35d f43d d85b 3d3e 7a77 f8bc 8407 9f3d
00000270: b00a a9bc 1e91 333e a58e c53d 4128 33be
00000280: 4454 77bc ec79 cabc d8bd fbbc 1a0a 903c
00000290: c35b 4c3d 239c 003d 1b09 423d 149f 943c
000002a0: d81c 93bd 5f81 bb3d 3cd2 293d eefc 7d3c
000002b0: 3074 7ebd 2b89 0a3e c751 13be 61d2 dabd
000002c0: 5930 cb3d dd0a 30be e541 afbc c30d 173e
000002d0: 0132 df3c 0dbe bf3d dd78 fe3d 746e 2e3e
000002e0: 9d0a 5e3d 60e2 453e a6bc 383d 35ea 103e
000002f0: 89e0 c7bd a221 4f3e cd25 b6bb a96c 5ebe
00000300: 7f92 ebbd e6bf 2f3e 1e7c 453d b4d4 a2bd
00000310: 01c3 233d f374 f7bc acc9 dfbd f4f3 98bd
00000320: 1c59 4a3c 03f6 60be 7be1 803d 57d4 00be
00000330: 1f0b 5b3d 26a5 31be 56c6 bebd b08d 9f3d
00000340: bdf8 fb3c d3ee 9ebe dfa9 2abe 9e3f 7e3e
00000350: e859 373e 7649 493e 4fef 663e eaab 303e
00000360: dca3 cf3d 8f19 e73d adbc 613d 43b7 173e
00000370: b9fe 65bd 0a5c 963e d5c9 c9bc c978 86be
00000380: 3aae 5abd 5155 853d 0f09 403d f4f1 86bd
00000390: 3b36 22be af0b abbd 6e09 a0bd ef4a 06bd
000003a0: a96e 0d3e 4c85 30be 7a0d dcbd 30ff 0bbe
000003b0: 4c98 9d3d 2596 bebd fe07 3e3e 4766 bc3d
000003c0: f32f b03c f8cf 8f3e 6725 313e d79c 5abe
000003d0: 25f4 64be 2a58 83be cec6 55be 9d02 00be
000003e0: af19 7bbd 17e9 d3bb 7c16 97bc 3146 e2bd
000003f0: e55a 8c3c e176 19be 1b6e be3d 6757 2c3e
0.0024350171 -0.07189716 0.019084282 0.04646446 -0.04440822 0.024136607 -0.021421006 0.04649257
0.085438766 0.012993122 -0.012005697 -0.06336432 0.061363738 0.005804548 0.17427306 0.03423925
0.16072994 0.21327484 0.35586506 -0.17735907 -0.54839176 -0.33732197 -0.21036251 0.012598461
-0.124339424 0.21455777 -0.119612016 -0.0064869784 -0.07404111 0.009534891 0.25376108 0.1311809
0.285775 0.057910696 0.14423257 -0.040184755 -0.34913427 -0.20923287 -0.12478372 -0.0046723895
0.017373571 0.2872541 -0.22052465 0.030729815 0.051378377 0.039975416 0.5230531 0.06034785
-0.11678604 -0.20534304 -0.27987018 0.14070243 0.40477446 0.25357714 0.21218146 0.031686936
0.090594776 -0.12947477 0.13817921 0.032691054 0.012030904 0.031784344 -0.227768 -0.097937584
-0.35336554 -0.120964505 -0.12770016 0.074389726 0.42875823 0.21410872 0.15983298 -0.011262915
-0.12669449 -0.25184983 0.23741917 0.018128367 -0.070446976 0.038706623 -0.6604046 -0.12864262
-0.2223111 -0.108996265 -0.2269217 0.12269388 0.39518708 0.29188314 0.17389332 0.0206989
0.023210509 -0.2714982 0.12023426 0.031012937 -0.040780134 0.010363736 -0.4159831 -0.12749454
-0.16275729 -0.20534283 -0.3108291 0.18099217 0.4698251 0.32862374 0.19409254 0.05499658
0.12088007 -0.122746445 0.10829028 0.014176704 0.013492917 0.06956208 -0.25591624 -0.1490038
0.007287027 -0.25547248 -0.08683129 0.13714612 0.1527928 0.1746741 0.13219586 0.099788204
0.09969292 0.031439632 0.026078738 0.040122647 0.013537347 0.06444221 -0.0045210533 -0.08823468
-0.16228487 -0.040339924 -0.0791104 0.030732088 0.24384475 0.064317755 0.056937966 -0.06362482
0.012240307 -0.19204482 0.05542702 -0.08440391 0.014064237 -0.06248121 -0.15964177 0.04524505
0.06606598 -0.24871387 -0.06318519 0.17284063 -0.006898543 0.12631375 0.11784864 0.082205
0.11931982 0.18492067 -0.030330408 0.07765105 -0.020634979 0.17535827 0.09646348 -0.17495824
-0.015095774 -0.02471634 -0.030730173 0.017582942 0.0498922 0.031398904 0.047371965 0.01814226
-0.07183236 0.09155535 0.04146026 0.015502198 -0.062122524 0.13528888 -0.14386664 -0.10684658
0.09921331 -0.17191644 -0.021393726 0.14751343 0.027245523 0.09362421 0.124253966 0.17034322
0.05420934 0.19324636 0.045101784 0.14151843 -0.097596236 0.20227674 -0.0055587054 -0.21721138
-0.11502551 0.17163047 0.04821407 -0.07950726 0.039980892 -0.030207133 -0.10927138 -0.07468405
0.012350347 -0.21968846 0.06293007 -0.12581001 0.053477403 -0.17348155 -0.09315173 0.077906966
0.030758256 -0.31041583 -0.16666363 0.24828956 0.1790539 0.1965693 0.22552226 0.1725308
0.101386756 0.11284172 0.055111576 0.14816003 -0.056151126 0.29367095 -0.024632374 -0.26264027
-0.05338881 0.065104134 0.04688364 -0.06589118 -0.15841 -0.08351838 -0.078142986 -0.032786306
0.13811745 -0.17238349 -0.10744758 -0.13671565 0.07695064 -0.093059815 0.18557736 0.09199195
0.021507239 0.28088355 0.17299424 -0.21348892 -0.22358759 -0.256532 -0.20876619 -0.12500997
-0.06130379 -0.0064669955 -0.018443339 -0.11048544 0.017133186 -0.14986755 0.09298345 0.16830216
