SMNIST/Models/rnn_L1_H3_tanh_drop0.1_sgd_lr0.002_normal_0.025_insize28_e3.ckpt (torch, 2467 bytes, 3 tensors)

fc.weight f4 [10, 3]
000000 79 9b 0b bf 62 83 08 be 29 66 e0 3e 70 65 db be
       -0.5453411 -0.13331369 0.43827942 -0.42850828
000010 d3 c8 11 bf 3a b7 92 3e 78 ce 6f bf 39 76 65 3f
       -0.5694706 0.28655416 -0.9367442 0.8963352
000020 f4 95 ba 3e ca b5 86 bc 5d 5d b4 be dd cc e8 3e
       0.3644253 -0.016444106 -0.3522748 0.45468798
000030 01 41 01 3f 12 b3 f0 be e0 a5 ae 3e 6f 2c 26 3d
       0.50489813 -0.4701162 0.34110928 0.04056972
000040 af e3 d3 3d ec 4d 19 3f 98 e0 52 bf bb 09 07 40
       0.103461616 0.59884524 -0.8237395 2.109969
000050 10 06 94 3c aa 5a da 3f d3 97 c1 3c 88 13 18 c0
       0.018069297 1.7058918 0.023631966 -2.376192
000060 13 5a df 3e 1b 4e f8 be 20 73 d8 3e e7 9d cb 3f
       0.4362341 -0.4849709 0.42275333 1.5907563
000070 73 e1 05 bf f7 30 c3 bf
       -0.52297133 -1.5249318

rnn_layer.weight_ih_l0 f4 [3, 28]
000000 3e fc d0 bd 83 57 a2 bd bb da cd bd de 7d f6 bd
       -0.102043614 -0.07926848 -0.10051485 -0.12035726
000010 a3 14 92 bd d4 55 54 b9 1a da 6a 3d 57 15 ad 3d
       -0.071328424 -0.00020249869 0.057336904 0.08451336
000020 a8 a8 12 3d a7 a2 4b 3d f6 55 b9 3d 4f 7c be 3d
       0.035805374 0.049715664 0.09049599 0.09301054
000030 3d 58 9a 3d 63 9b f9 3d 4a 6c 40 3e c5 38 10 3e
       0.07536361 0.12187841 0.18791309 0.14084156
000040 33 74 8b 3d 65 92 ec 3b eb 10 55 3d e3 ff ac 3d
       0.068092726 0.0072196 0.052018087 0.08447244
000050 87 c6 d2 3d bd eb f5 3d ac 33 83 3d d6 8f 10 3c
       0.10291772 0.12007854 0.0640634 0.008823356
000060 bd 90 8f bd b1 be af bd 50 1b b4 bd 36 06 d2 bd
       -0.070100285 -0.085812934 -0.08794272 -0.10255091
000070 0d 6f 49 bf fd 96 5b bf e0 26 48 bf 90 cd 43 bf
       -0.78685075 -0.85777265 -0.7818432 -0.7648554
000080 a9 e4 e5 be 28 10 cf 3b d4 1c 04 3f 7b e2 fd 3e
       -0.44901016 0.0063190646 0.5160649 0.49586853
000090 18 5e ed 3e 3c a3 f6 3e 71 06 fa 3e c6 75 15 3f
       0.4636085 0.48171413 0.4883304 0.58382833
0000a0 91 91 04 3f a9 4d 03 3f b0 a7 08 3f 9b 1b 20 3f
       0.51784617 0.51290375 0.5338087 0.6254212
0000b0 47 de 1c 3f 70 b3 17 3f a1 e3 08 3f ef 91 02 3f
       0.6127667 0.59258175 0.53472334 0.51003927
0000c0 dc c0 1d 3f e6 08 04 3f 61 37 a1 be 5b 72 47 bf
       0.61622405 0.5157608 -0.31487563 -0.7790887
0000d0 60 a5 54 bf aa fd 53 bf 8a 17 4b bf a2 fe 58 bf
       -0.8306484 -0.82808936 -0.7933279 -0.8476354
0000e0 88 14 01 3e aa 2e 4f 3e dc 71 2f 3e 56 ce 0b 3e
       0.12605488 0.20232645 0.17133278 0.1365293
0000f0 d1 58 cc bd 3b 35 86 be 46 9d 5b be b2 f4 2d be
       -0.09977878 -0.26212487 -0.21446714 -0.16987875
000100 69 54 0c be 83 19 2c be 62 f0 2b be 39 8f 2a be
       -0.13704075 -0.16806607 -0.16790918 -0.16656198
000110 14 dd 63 be 2f 67 96 be 36 8d a6 be 6f cb 87 be
       -0.22252303 -0.29375598 -0.3252961 -0.26522395
000120 5e cd 52 be 22 73 34 be b0 34 3a be b0 d9 61 be
       -0.20586154 -0.17622045 -0.18184161 -0.22055697
000130 3e e8 a7 be 3a 5d 1f bf 5f 73 dc be 92 11 62 be
       -0.32794374 -0.6225163 -0.4305677 -0.22077015
000140 c6 3a 06 3d 61 ac 55 3e da 25 17 3e 38 ac 2d 3e
       0.032770894 0.20866539 0.14760533 0.16960227

rnn_layer.weight_hh_l0 f4 [3, 3]
000000 6f 9f 72 3f 07 0a 03 3f 63 b0 a5 bf db 2e 9d bf
       0.94774526 0.51187176 -1.2944454 -1.2279924
000010 aa 4e 31 3f 56 7c 9b 3e 31 26 40 bf 56 dc cf bf
       0.69260657 0.30368298 -0.75058275 -1.6239116
000020 1d 51 15 40
       2.3330758
