SMNIST/Models/rnn_L1_H3_tanh_drop0.1_sgd_lr0.002_normal_0.01_insize28_e1_iter375.ckpt (torch, 2087 bytes, 3 tensors)

fc.weight f4 [10, 3]
000000 aa 3c 2a bc e3 23 cd 3e 28 c5 35 3f 6b 22 42 3e
       -0.01039044 0.40066442 0.7100396 0.18958442
000010 d6 bd cb 3e 26 3c 13 3f 87 b6 b0 bd f5 4e a9 3f
       0.3979327 0.57513654 -0.08628564 1.3227221
000020 b7 99 f7 3e 9c 03 81 bd 62 08 e4 bd f9 99 2c 3f
       0.48359463 -0.062995166 -0.111344114 0.67422444
000030 35 a2 8c 3e b5 af b8 be 38 09 e9 3d 11 1e 76 bc
       0.27467504 -0.36071554 0.113787115 -0.015021817
000040 9c 8c 18 3e fe a5 05 3f 7b 6b e6 bd 05 93 f1 3f
       0.14897388 0.5220641 -0.11250969 1.8872992
000050 81 00 1d 3e e3 28 19 bf 65 25 b9 bf 0b 59 e2 bf
       0.15332223 -0.59828013 -1.4464537 -1.7683424
000060 96 55 5e 3e d5 00 c8 be 60 a4 3f 3e 42 05 71 3d
       0.21712336 -0.39063135 0.18715048 0.058842905
000070 98 2d 9c bf b4 69 a6 bf
       -1.2201414 -1.3001008

rnn_layer.weight_ih_l0 f4 [3, 28]
000000 5d 13 09 3e 1c 96 fc 3d ff 88 06 3e 1a 22 fd 3d
       0.13386293 0.123333186 0.13138197 0.1236002
000010 3d f4 2e 3b 42 c6 27 be 40 d5 8f be ac 15 a8 be
       0.002669587 -0.16384223 -0.28092384 -0.32829034
000020 b7 b1 b1 be fd 65 ce be 8a ac d9 be 20 80 d8 be
       -0.34705898 -0.40312186 -0.4251445 -0.42285252
000030 fd 8e df be d8 25 e5 be ad 7b d9 be b6 c8 f5 be
       -0.4366378 -0.44755435 -0.4247717 -0.48004693
000040 b9 43 f2 be f0 e4 e6 be 8c af d3 be cd 23 c0 be
       -0.47317293 -0.4509654 -0.4134487 -0.37527314
000050 45 61 ad be 6f bf a0 be a5 d6 33 be 07 3d 4a bd
       -0.33863273 -0.31396052 -0.17562349 -0.049374606
000060 b4 ec 02 3e 08 21 eb 3d 1b eb 0e 3e d4 19 e4 3d
       0.12785608 0.114809096 0.13956873 0.11137739
000070 4a 4e 09 3e 9f f8 28 3e b5 d0 16 3e 3d 3c 1a 3e
       0.13408771 0.16501091 0.14728053 0.15062042
000080 07 dd c5 3d 65 06 88 3b c6 f8 0a bd ec 4d 74 bd
       0.09661298 0.004151153 -0.033928655 -0.059644625
000090 c6 cc 89 bd 00 ae a5 bd 51 bf c8 bd 2a fc cf bd
       -0.067285106 -0.080898285 -0.09802116 -0.10155518
0000a0 07 99 c8 bd 7e 20 af bd 86 e3 e8 bd d8 e3 c5 bd
       -0.09794813 -0.08551119 -0.11371522 -0.09662598
0000b0 d3 0a c8 bd 85 3a 01 be e3 c2 02 be c8 ee 0a be
       -0.097676896 -0.1261998 -0.12769656 -0.1356765
0000c0 b7 b2 ab bc 96 78 12 bc fc 7f 2e 3d 51 47 d6 3d
       -0.020959241 -0.008939883 0.042602524 0.10462821
0000d0 52 b2 19 3e 2d 71 0e 3e 35 06 15 3e 31 38 10 3e
       0.1500943 0.1391036 0.14553149 0.14083935
0000e0 30 c4 59 3d 1b d3 50 3d f0 f9 57 3d 75 49 47 3d
       0.053165615 0.050982576 0.052728593 0.04865404
0000f0 0a 35 86 bc 7d 5f a2 bd 07 7e 21 be 3a fa 19 be
       -0.016382713 -0.07928369 -0.15770732 -0.1503686
000100 6c 26 35 be 0f 1f 49 be 38 46 58 be bb ad 55 be
       -0.17690438 -0.19640754 -0.21120536 -0.20867054
000110 67 2e 5f be 16 74 68 be 79 5f 84 be ad c2 74 be
       -0.21795045 -0.22700533 -0.2585409 -0.23902388
000120 05 2b 58 be c4 5f 65 be bd 73 64 be e6 aa 76 be
       -0.2111016 -0.22399813 -0.22309776 -0.2408863
000130 69 ae 25 be b7 d2 05 be e6 eb b6 bd f1 c7 f9 bc
       -0.16179813 -0.13068663 -0.08931713 -0.030490847
000140 5b c4 4d 3d 9c 71 12 3d 94 dd 5d 3d 53 ed 2e 3d
       0.050236087 0.035752878 0.05416639 0.0427068

rnn_layer.weight_hh_l0 f4 [3, 3]
000000 4f 0e 8a 3f 86 cb f0 3e 84 f8 f0 3e 06 3e 13 3f
       1.0785617 0.47030276 0.47064602 0.57516515
000010 cf d5 a9 3f 1d 5b 7f 3f 14 51 b0 3f 99 79 4d 3f
       1.3268374 0.997484 1.3774743 0.8026367
000020 ed 2c 9d 3f
       1.2279335
