SMNIST/Models/rnn_L1_H3_tanh_drop0.1_sgd_lr0.002_normal_0.005_insize28_e5.ckpt (torch, 2467 bytes, 3 tensors)

fc.weight f4 [10, 3]
-0.2133398 0.48451132 0.7794777 -0.68287367 0.3481473 0.6665151 0.96188974 0.5554619
0.929739 -0.5014361 0.5450083 0.19882776 -0.63793147 0.45407954 -0.3584253 0.019976307
0.75288415 0.07607705 2.1898298 0.090335354 0.8634246 -0.2753327 -2.231725 -1.6147343
-0.65821666 0.5015759 -0.26353514 -0.7710021 -1.3315694 -1.5648627
00000000: c075 5abe de11 f83e da8b 473f cfd0 2ebf
00000010: 5d40 b23e bca0 2a3f 683e 763f c032 0e3f
00000020: 6003 6e3f 1e5e 00bf aa85 0b3f 8199 4b3e
00000030: 7a4f 23bf 1d7d e83e 8583 b7be 5aa5 a33c
00000040: 04bd 403f 49ce 9b3d 2c26 0c40 be01 b93d
00000050: 6509 5d3f 68f8 8cbe 95d4 0ec0 9daf cebf
00000060: e380 28bf 4767 003f 14ee 86be 6560 45bf
00000070: de70 aabf 6c4d c8bf

rnn_layer.weight_ih_l0 f4 [3, 28]
-0.8512283 -0.84924006 -0.8231999 -0.7703912 -0.4072244 0.21402825 0.55774117 0.48458716
0.46939856 0.5320369 0.483856 0.6485501 0.57358336 0.6282709 0.6075372 0.71793514
0.66952956 0.7073822 0.5284775 0.7196691 0.8450075 0.12828252 -0.6770294 -0.95703614
-0.9093833 -0.85412997 -0.85426223 -0.8494692 0.12768982 0.122061156 0.12539148 0.078036316
-0.118778765 -0.23996271 -0.17595431 -0.12866342 -0.16437617 -0.19315602 -0.18968016 -0.1634758
-0.15751322 -0.1726483 -0.2778465 -0.21700872 -0.17112139 -0.18239799 -0.22841921 -0.31124818
-0.51782465 -0.6776985 -0.5834799 -0.27705756 0.07439756 0.13018973 0.11842538 0.12457361
0.25920185 0.26730427 0.26274222 0.22523199 0.112401724 -0.037677083 -0.05719062 -0.020602753
-0.04846401 -0.06780934 -0.10731301 -0.07366592 -0.02730954 -0.028447317 -0.07423349 -0.027663745
-0.04346165 -0.0627985 -0.093573965 -0.20840335 -0.2548031 -0.26394925 -0.17446703 0.0011033406
0.22809213 0.27509925 0.26889777 0.2660977
00000000: 19ea 59bf cc67 59bf 3bbd 52bf 5c38 45bf
00000010: b77f d0be 392a 5b3e 20c8 0e3f cf1b f83e
00000020: 0255 f03e 9233 083f f9bb f73e 6107 263f
00000030: 5cd6 123f 5dd6 203f 8f87 1b3f 99ca 373f
00000040: 4a66 2b3f 0017 353f 4d4a 073f 3c3c 383f
00000050: 6952 583f 7e5c 033e cc51 2dbf 5200 75bf
00000060: 58cd 68bf 43a8 5abf eeb0 5abf d076 59bf
00000070: 1fc1 023e 33fb f93d a066 003e 81d1 9f3d
00000080: 4842 f3bd c9b8 75be 5e2d 34be 58c0 03be
00000090: 3a52 28be b1ca 45be 843b 42be 3366 27be
000000a0: 254b 21be b7ca 30be e541 8ebe 8937 5ebe
000000b0: 723a 2fbe 8ac6 3abe bae6 69be ec5b 9fbe
000000c0: 2890 04bf a67d 2dbf f05e 15bf 7dda 8dbe
000000d0: bf5d 983d 7550 053e 0189 f23d 7320 ff3d
000000e0: 1bb6 843e 1bdc 883e 2686 863e 37a3 663e
000000f0: e032 e63d 4953 1abd b640 6abd 1bc7 a8bc
00000100: 3382 46bd a0df 8abd ecc6 dbbd 28de 96bd
00000110: 42b8 dfbc 590a e9bc ba07 98bd 149f e2bc
00000120: d804 32bd 809c 80bd b5a3 bfbd b067 55be
00000130: 8d75 82be 5b24 87be 7ca7 32be f89d 903a
00000140: fc90 693e cfd9 8c3e f8ac 893e f53d 883e

rnn_layer.weight_hh_l0 f4 [3, 3]
0.8063109 0.6079958 1.0829982 -1.681359 2.172811 1.0787954 -1.1941036 1.1900117
1.0365247
00000000: 646a 4e3f 9da5 1b3f af9f 8a3f c636 d7bf
00000010: 560f 0b40 f815 8a3f 63d8 98bf 4e52 983f
00000020: d7ac 843f
