SMNIST/Models/rnn_L1_H3_tanh_drop0.1_sgd_lr0.002_normal_0.02_insize28_e2_iter75.ckpt (torch, 2151 bytes, 3 tensors)

fc.weight f4 [10, 3]
0	0xbd9b7c9e	-0.07592128
1	0x3e55f152	0.20892838
2	0xbf38a9a6	-0.7213386
3	0x3d1a6775	0.03769632
4	0xbd213d83	-0.039365303
5	0xbf3280fb	-0.6972806
6	0x3cda8236	0.026673418
7	0x3f8409ac	1.0315452
8	0xbf0db846	-0.55359304
9	0x3e3e485f	0.18582295
10	0xbe93455e	-0.2876386
11	0xbe9255ae	-0.28580993
12	0x3ec89f18	0.3918388
13	0xbeb33a56	-0.35005444
14	0x3d42d928	0.047570378
15	0x3ebe2925	0.37140766
16	0x3e3fb27e	0.18720433
17	0xbd871ce7	-0.065973096
18	0xbe6d777a	-0.23190108
19	0x3fe2b180	1.7710419
20	0xbee4d92d	-0.44696942
21	0xbe6e8f32	-0.23296812
22	0xbfa07e19	-1.2538482
23	0x3fe56b80	1.7923431
24	0x3e02d88f	0.12777923
25	0xbf1a38f4	-0.60243154
26	0xbe8b3023	-0.27185163
27	0x3dab82b5	0.0837454
28	0xbfa95f71	-1.3232251
29	0x3f91f720	1.1403542

rnn_layer.weight_ih_l0 f4 [3, 28]
0	0x3d4593c0	0.04823661
1	0x3d383360	0.04497087
2	0x3ccf3d90	0.02529791
3	0x3d29bb67	0.041438486
4	0xbd74377c	-0.059623227
5	0xbe7d7afd	-0.24753948
6	0xbed6f47e	-0.41983408
7	0xbf02d97e	-0.51113117
8	0xbf099da2	-0.53756154
9	0xbf176bf8	-0.5914912
10	0xbf236f7e	-0.63842
11	0xbf3e704d	-0.7439011
12	0xbf40d26c	-0.7532108
13	0xbf3e329a	-0.7429596
14	0xbf4a04d5	-0.78913623
15	0xbf352316	-0.7075666
16	0xbf477d59	-0.7792564
17	0xbf7b1e24	-0.98092866
18	0xbf14a563	-0.5806486
19	0xbf143143	-0.5788767
20	0xbf034fb6	-0.51293504
21	0xbeafb474	-0.34317362
22	0xbdf0882f	-0.11744725
23	0x38724c16	5.7768157e-05
24	0x3a2e9401	0.00066596275
25	0x3cf8ddc1	0.030379178
26	0x3d49cae8	0.049265772
27	0x3d78be40	0.06072831
28	0x3ddce46b	0.10785755
29	0x3dec66e3	0.115430616
30	0x3de97ced	0.11400781
31	0x3ddc0fef	0.107452266
32	0x3d8f1640	0.06986666
33	0x3cabb5a0	0.020960629
34	0x3d59a7d5	0.053138573
35	0x3d4495c4	0.04799439
36	0x3d3233fb	0.043506604
37	0x3cfbc10b	0.030731698
38	0x3c902e24	0.017600127
39	0xbb204c7a	-0.0024459646
40	0xba9b3f0c	-0.0011844351
41	0x3a8fb73e	0.0010964645
42	0xbcdd3a93	-0.02700547
43	0xbc442399	-0.011971378
44	0x3c9cc677	0.019137604
45	0xbc91ef9c	-0.01781445
46	0xbcaf0f86	-0.021369707
47	0x3d39aabd	0.045328844
48	0x3cfcdc1f	0.03086668
49	0x3d6b2ebf	0.057417627
50	0x3db49fd1	0.08819545
51	0x3dba61f4	0.09100714
52	0x3dcb6d36	0.0993294
53	0x3da37ab8	0.07982391
54	0x3db640b6	0.088990614
55	0x3db143ef	0.086555354
56	0xbe326335	-0.17420657
57	0xbe293953	-0.16525774
58	0xbe28bafa	-0.16477576
59	0xbe283565	-0.16426618
60	0xbded4e0e	-0.115871534
61	0xbd0729e8	-0.03299895
62	0x3d39b2b4	0.04533644
63	0x3d346b66	0.044047736
64	0x3d8b596b	0.068041645
65	0x3e053513	0.13008527
66	0x3e1a57e6	0.15072593
67	0x3e4bba28	0.19895232
68	0x3e6fb4bd	0.2340879
69	0x3e6dc479	0.2321948
70	0x3e7f7c3d	0.24949737
71	0x3e68b4e9	0.22725262
72	0x3e3b0ac8	0.18265831
73	0x3e8ffd9a	0.2812317
74	0x3e3d1f25	0.18468912
75	0x3e02aac4	0.12760454
76	0x3d8b3f2b	0.06799158
77	0xbcb5159c	-0.02210503
78	0xbdbd039f	-0.09229206
79	0xbdbeec84	-0.093224555
80	0xbe21b3b4	-0.15791208
81	0xbe1da16a	-0.15393606
82	0xbe4f4490	-0.20240998
83	0xbe2fb466	-0.1715866

rnn_layer.weight_hh_l0 f4 [3, 3]
0	0x3f330760	0.6993313
1	0xbe14bd83	-0.14525418
2	0xbdd8aeee	-0.1058024
3	0x3ef59235	0.4796311
4	0x3f87b336	1.0601566
5	0xbf8fa810	-1.1223164
6	0xbf9279c9	-1.1443416
7	0xbf0acf04	-0.5422213
8	0x3fc22b93	1.5169548
