SMNIST/Models/rnn_L1_H3_tanh_drop0.1_sgd_lr0.002_normal_0.02_insize28_e1_iter300.ckpt (torch, 2087 bytes, 3 tensors)

fc.weight f4 [10, 3]
0	0xbe745244	-0.23859507
1	0x3ecf91de	0.40540975
2	0xbf107a0f	-0.56436247
3	0x3e2edc77	0.17076288
4	0xbe40d992	-0.18832996
5	0xbf1b678d	-0.6070488
6	0x3d5b368b	0.053518813
7	0x3ec1d066	0.37854308
8	0xbed45e92	-0.414784
9	0x3e190df1	0.14946724
10	0xbcfc4787	-0.030795826
11	0xbe5a8281	-0.21338846
12	0x3e949fb7	0.29028103
13	0x3e516ea1	0.20452358
14	0x3e4ec602	0.20192721
15	0x3e82963a	0.2550524
16	0x3ebebdf4	0.37254298
17	0x3e0d716b	0.13812797
18	0xbe4582e5	-0.19288214
19	0x3f6be3d0	0.9214449
20	0xbeda99b0	-0.4269538
21	0xbdf9ce5e	-0.121975645
22	0xbf82f030	-1.022955
23	0x3fb8415f	1.439495
24	0x3e792e4d	0.24334069
25	0xbeec0a00	-0.4610138
26	0xbdfe3940	-0.12413263
27	0x3d9a0423	0.0752032
28	0xbf9e5cff	-1.237213
29	0x3f0231b8	0.50857115

rnn_layer.weight_ih_l0 f4 [3, 28]
0	0x3db97412	0.09055342
1	0x3db2c3e1	0.08728767
2	0x3d8b0b87	0.06789308
3	0x3db64f5f	0.089018576
4	0x3d197ef9	0.037474606
5	0xbcfca3d0	-0.03083983
6	0xbe0424a5	-0.12904604
7	0xbe516b31	-0.20451047
8	0xbe62d5cb	-0.22151868
9	0xbe80eb05	-0.25179306
10	0xbe861dd9	-0.26194647
11	0xbe94f9c3	-0.29096803
12	0xbe89e341	-0.26931193
13	0xbe973f37	-0.29540417
14	0xbe8cf96a	-0.27534038
15	0xbe8dd54f	-0.27701804
16	0xbe939165	-0.28821865
17	0xbe7f0151	-0.24902846
18	0xbe8b5584	-0.2721368
19	0xbe738e85	-0.23784836
20	0xbe20ca4a	-0.15702167
21	0xbd8b0dbf	-0.06789731
22	0x3d410ba5	0.047130246
23	0x3d8770f1	0.06613339
24	0x3d2bf359	0.04198012
25	0x3d9b076f	0.07569777
26	0x3dba96c9	0.09110791
27	0x3dd30952	0.10304512
28	0x3d81bec0	0.06335211
29	0x3d914141	0.07092524
30	0x3d8ec240	0.06970644
31	0x3d8150f5	0.063142695
32	0x3cdaa84a	0.026691575
33	0xbca25869	-0.019817548
34	0x3c37297a	0.011179322
35	0x3ba1a919	0.004933488
36	0xba601d37	-0.0008549275
37	0xbc7488d4	-0.0149252005
38	0xbc837d8a	-0.016051073
39	0xbc6b72bf	-0.014370619
40	0xbcba3e8c	-0.022734903
41	0xbd0ef2be	-0.034899466
42	0xbd1c9ccb	-0.038235467
43	0xbd1bc0f6	-0.03802582
44	0xbb7b6962	-0.0038362374
45	0xbd174993	-0.0369354
46	0xbd7b01cd	-0.061281014
47	0x3bb62a44	0.0055592377
48	0xbb2e54c1	-0.002660081
49	0x3ca97681	0.02068639
50	0x3d46ffe9	0.0485839
51	0x3d397549	0.045277867
52	0x3d544691	0.05182511
53	0x3d0c5f29	0.03427044
54	0x3d36383b	0.04448722
55	0x3d2c3c85	0.042049903
56	0xbdd28a2f	-0.10280263
57	0xbdc0366b	-0.093853794
58	0xbdbf46f5	-0.09339706
59	0xbdbf3889	-0.09336955
60	0xbd714499	-0.05890331
61	0x3c017246	0.00790078
62	0x3db2997a	0.087206796
63	0x3da7b97f	0.081896774
64	0x3ddda066	0.10821609
65	0x3e2f4785	0.17117126
66	0x3e2c0360	0.16798162
67	0x3e3499a4	0.17636734
68	0x3e502df6	0.20330033
69	0x3e45ae76	0.19304833
70	0x3e3c6027	0.18396054
71	0x3e552fd6	0.20819029
72	0x3e41ec46	0.18937787
73	0x3e56ddd6	0.20983061
74	0x3e5d72a9	0.2162577
75	0x3e02319e	0.1271424
76	0x3d551ce9	0.052029524
77	0xbce0756c	-0.027399741
78	0xbd9d7ef3	-0.07690229
79	0xbd2a2d9f	-0.041547414
80	0xbdb21792	-0.08695902
81	0xbda92a0b	-0.08259972
82	0xbe062399	-0.13099517
83	0xbdcd2c8f	-0.100182645

rnn_layer.weight_hh_l0 f4 [3, 3]
0	0x3edc27d1	0.42999128
1	0x3d9c0b08	0.076192915
2	0xbe9c4a85	-0.30525604
3	0x3efee1d8	0.4978168
4	0x3eeaf9f6	0.4589383
5	0xbf734233	-0.95022887
6	0xbf5df8ac	-0.8670757
7	0xbec4f0ac	-0.38464868
8	0x3f8a62f6	1.081145
