SMNIST/Models/rnn_L1_H3_tanh_drop0.1_sgd_lr0.002_normal_0.005_insize28_e2_iter375.ckpt (torch, 2151 bytes, 3 tensors)

fc.weight f4 [10, 3]
-0.11350886 0.49875432 0.6348352 -0.5808563 0.35388592 0.63316745 1.0884298 0.51481354
0.66867036 -0.47837722 0.45293698 0.2048895 -0.5693566 0.44815463 -0.25234827 -0.05864931
0.5232305 0.17794544 2.085176 0.2343893 0.5286687 -0.32239336 -2.0078487 -1.4652133
-0.65835214 0.45629954 -0.2239906 -0.9605473 -1.3059068 -1.1941228
00000000: 5577 e8bd ba5c ff3e 8f84 223f 00b3 14bf
00000010: 8930 b53e 4317 223f ab51 8b3f d2ca 033f
00000020: fb2d 2b3f dced f4be 5be7 e73e 8ece 513e
00000030: 5bc1 11bf 8674 e53e cb33 81be 423a 70bd
00000040: 6ff2 053f 5437 363e 8673 0540 c003 703e
00000050: d556 073f be10 a5be 9880 00c0 1c8c bbbf
00000060: c489 28bf 18a0 e93e cb5d 65be 6ee6 75bf
00000070: f427 a7bf 04d9 98bf

rnn_layer.weight_ih_l0 f4 [3, 28]
-0.5474439 -0.5454381 -0.54197776 -0.52443576 -0.39052275 -0.021521512 0.3079814 0.40741384
0.387382 0.4096251 0.42236355 0.43123484 0.4446848 0.46713945 0.46513075 0.54160666
0.4845778 0.49296808 0.41383916 0.59288186 0.33425114 -0.26171023 -0.5360058 -0.5687175
-0.5535021 -0.5459304 -0.5478382 -0.5456848 0.09571035 0.09007245 0.09459961 0.07989252
1.0059146e-05 -0.12353207 -0.15812835 -0.14424503 -0.16169445 -0.18982813 -0.2020246 -0.17772117
-0.17070305 -0.1843298 -0.26241446 -0.21207142 -0.20144887 -0.20659989 -0.25973344 -0.35603753
-0.4940577 -0.4404593 -0.1465682 0.019963978 0.08734623 0.091982126 0.08800459 0.09259425
0.19910558 0.2071972 0.20378596 0.18926014 0.12616768 -0.0028921517 -0.05876024 -0.060223408
-0.076225586 -0.08466388 -0.10176998 -0.09353598 -0.07568155 -0.083755836 -0.12557276 -0.0821389
-0.10567629 -0.1253207 -0.1534491 -0.2679456 -0.2860896 -0.1804079 0.025284525 0.13895084
0.18893954 0.20243493 0.21047403 0.20600113
00000000: 4925 0cbf d5a1 0bbf 0ebf 0abf 6c41 06bf
00000010: 99f2 c7be e24d b0bc bdaf 9d3e 8c98 d03e
00000020: ef56 c63e 62ba d13e 0940 d83e d0ca dc3e
00000030: baad e33e e72c ef3e 9e25 ee3e bca6 0a3f
00000040: 951a f83e 5066 fc3e bae2 d33e 1bc7 173f
00000050: f722 ab3e e2fe 85be ad37 09bf 7897 11bf
00000060: 50b2 0dbf 18c2 0bbf 203f 0cbf 00b2 0bbf
00000070: ca03 c43d e877 b83d 71bd c13d b19e a33d
00000080: b4c3 2837 62fe fcbd 66ec 21be f8b4 13be
00000090: 3b93 25be 4e62 42be 89df 4ebe 8afc 35be
000000a0: c8cc 2ebe f3c0 3cbe 305b 86be 4029 59be
000000b0: 9d48 4ebe ec8e 53be c8fb 84be 8d4a b6be
000000c0: 21f5 fcbe e283 e1be f915 16be 7f8b a33c
000000d0: 95e2 b23d 2061 bc3d c03b b43d 0ea2 bd3d
000000e0: 55e2 4b3e 812b 543e 44ad 503e 69cd 413e
000000f0: 1a32 013e 418a 3dbb 94ae 70bd d2ac 76bd
00000100: 291c 9cbd 4264 adbd c76c d0bd cb8f bfbd
00000110: eefe 9abd 2e88 abbd 2596 00be 7138 a8bd
00000120: d06c d8bd 1254 00be c321 1dbe 2a30 89be
00000130: 567a 92be d9bc 38be 7e21 cf3c 2149 0e3e
00000140: 5e79 413e 1a4b 4f3e 8186 573e f6f1 523e

rnn_layer.weight_hh_l0 f4 [3, 3]
0.87684435 0.6953286 0.7971453 -1.351691 1.4128337 0.9897165 -0.8576071 1.0686411
0.9319982
00000000: df78 603f 0e01 323f b711 4c3f 3604 adbf
00000010: bcd7 b43f 0f5e 7d3f 248c 5bbf 3bc9 883f
00000020: 6f97 6e3f
