SMNIST/Models/rnn_L1_H16_tanh_drop0.1_sgd_lr0.002_normal_0.015_insize28_e2_iter225.ckpt (torch, 5223 bytes, 3 tensors)

fc.weight f4 [10, 16]
000000 c4 05 ca be 4d 60 d6 be cc f2 07 3e 71 b2 89 be
       -0.39457524 -0.41870347 0.13276213 -0.26893952
000010 ba 5f df 3e 9e f3 d8 bd 1f 15 1c bd e7 c5 77 3d
       0.4362772 -0.10593341 -0.03810608 0.06049147
000020 4d 97 73 be 4a 58 17 be e6 ae e4 bc 39 8b b5 be
       -0.23788185 -0.14779773 -0.02791543 -0.3545778
000030 5f 36 ef 3e 1f 8d 83 be df 39 be 3d 69 2d 3c be
       0.4672117 -0.25693604 0.09288382 -0.18376698
000040 df 1f 22 3e 0c 87 2c 3e ed 6c 0a 3f 84 17 a6 be
       0.1583247 0.16848391 0.5407246 -0.32439816
000050 d3 2e ed bd 56 dc 6d bc 04 e8 c9 be 5c 07 9b bb
       -0.11581197 -0.014517864 -0.39434826 -0.004731102
000060 bf 2a 7b bc ad 53 17 be a8 55 3a be 57 e7 47 3f
       -0.015330016 -0.14778014 -0.18196738 0.7808737
000070 18 f1 4c 3e 38 11 bb be df d0 a2 be 6b bd 9a 3e
       0.20013845 -0.36536574 -0.3179998 0.3022264
000080 02 9b 17 bf 10 b4 aa 3e ab b5 bf be 08 06 c1 be
       -0.592209 0.33340502 -0.3744329 -0.37699914
000090 5b 21 34 3e 7d a7 5a be 3f 1e 56 3d d6 46 1d 3d
       0.17590849 -0.21352954 0.05227494 0.038397633
0000a0 38 02 68 be 85 51 23 3d 1a 57 af bd a1 10 48 be
       -0.22657096 0.039872665 -0.08561535 -0.19537593
0000b0 7f 64 ae 3d 43 f7 70 be 07 8a ce b9 a7 93 7f bd
       0.08515262 -0.23531823 -0.0003939422 -0.06239667
0000c0 39 75 4f be 44 5d d5 be 03 51 51 3e 70 56 f2 3d
       -0.2025956 -0.4167272 0.2044106 0.11832893
0000d0 21 b7 26 3e a9 da 1b bd 15 db 18 3e 58 8b 68 bd
       0.16280796 -0.038050327 0.14927323 -0.056773514
0000e0 0c be 2b be 35 ac a8 be 03 18 44 3e 6c 3f ec be
       -0.16771716 -0.32943884 0.19149785 -0.46142137
0000f0 26 b2 0a 3e 58 c6 1a be ce be 71 3e 00 f0 94 be
       0.1354452 -0.15114725 0.23607942 -0.29089355
000100 ec b0 b2 3e 76 cc 11 3e e0 7a 16 3e 8d 77 7b 3e
       0.34900606 0.14238152 0.1469531 0.24557324
000110 7b 4c 0a bf 8e a8 a1 bd a7 72 36 3d 3f af 1d bd
       -0.5402295 -0.078934774 0.044542935 -0.038497206
000120 48 54 cd bd 59 fd d5 bd 7b f7 1c be 6b 96 fb 3e
       -0.10025841 -0.10448713 -0.15328781 0.49138197
000130 3c 5d da be 8f e4 76 be ee bb 9a be 88 37 82 3e
       -0.42649257 -0.24110626 -0.30221504 0.25432992
000140 f4 11 9e bd dd 0e 5a be 10 c0 53 be f4 54 b3 3d
       -0.07718268 -0.21294732 -0.20678735 0.08756438
000150 52 cb 78 3e 0e e6 38 be 11 de f7 3e 3f c5 25 3d
       0.2429631 -0.18056509 0.4841161 0.04047131
000160 e9 60 7f be 8d 0a 37 be 2f 0c 8f 3d c4 8c e9 be
       -0.24939312 -0.17875119 0.06984746 -0.45615208
000170 17 86 42 bd 8e 9e b3 bd e7 06 b0 3c 34 7c c1 be
       -0.04749116 -0.08770476 0.021487666 -0.37790072
000180 20 1c d9 be 27 dd 26 3f 63 be 5a bf 37 91 9c be
       -0.4240427 0.651812 -0.8544676 -0.3057954
000190 3b 48 5f 3e cf f3 c6 bd b5 c4 35 be 3a ed a1 3e
       0.21804897 -0.097144715 -0.17750819 0.31626302
0001a0 58 b5 38 bf e8 58 23 3d 22 0f 0f bf b3 55 9d be
       -0.7215171 0.03987971 -0.55882466 -0.30729446
0001b0 15 85 ef 3e 15 21 13 bd 9b a6 2c 3e 66 99 ba 3e
       0.4678122 -0.03592022 0.1686043 0.3644516
0001c0 cd e5 03 3f 5c 3e 1b bd 22 d7 bd 3d 05 05 f6 3e
       0.51522523 -0.037901267 0.09269549 0.48050705
0001d0 f9 e3 24 bf 16 b6 3f 3f 6d 19 ec bd c1 a0 c5 3d
       -0.6441036 0.74887216 -0.11528287 0.09649802
0001e0 cb c1 85 3e bf 0e 16 3f dd b9 bc bd 29 a9 05 3f
       0.26124415 0.5861625 -0.09215138 0.5221124
0001f0 b2 70 1d bf 7c 3f 42 3f e2 d5 d4 3e 44 d9 88 bd
       -0.61500084 0.7587812 0.4156943 -0.06682065
000200 6c da f2 3d 1d bd f8 be 5e 97 a6 3e e7 80 7e 3e
       0.11858067 -0.48581782 0.3253736 0.2485386
000210 e3 b1 22 3e f2 11 1c be 00 ac 81 3d 68 87 1a bd
       0.15888171 -0.1524122 0.063316345 -0.03772679
000220 57 91 ed bb 45 39 7e be 52 60 11 3d cf 1c c6 be
       -0.007249992 -0.24826534 0.03549225 -0.38693854
000230 0a a4 1d 3e 15 2a 45 bd c7 f2 a4 3c f7 14 5f be
       0.15394607 -0.048135836 0.020135297 -0.21785341
000240 c1 38 a0 3e 41 fd 24 3e 82 75 3d 3e a7 e0 d2 3e
       0.312933 0.16112234 0.18501857 0.4118702
000250 6e a5 23 bf 2d 82 cc 3e 9e e8 8d bd ad f6 b3 bd
       -0.639243 0.39943066 -0.06929134 -0.08787284
000260 9c 6d 13 3c ab 02 85 3e 8e 06 25 3e e0 56 76 3e
       0.008998301 0.25978598 0.16115782 0.24056578
000270 d8 3c 23 bf 96 2d 2c 3f fa ff a5 3e 30 f6 9c 3c
       -0.63764715 0.6725706 0.32421857 0.01916036

rnn_layer.weight_ih_l0 f4 [16, 28]
000000 29 54 e2 bb a2 3d e2 bc 48 1a 52 bd f0 77 8b bc
       -0.0069070053 -0.02761728 -0.051294595 -0.017024964
000010 93 c8 2f bc 0d 01 22 bd ff 2f 9b bc 70 c9 42 bc
       -0.010728973 -0.039551783 -0.018943785 -0.011888847
000020 f7 6a f5 bc 49 be 70 bc ab 90 93 bc b8 41 b0 ba
       -0.029958231 -0.014693805 -0.018013319 -0.001344732
000030 cc ae b3 3d 19 37 20 3e 50 f6 0c 3e b1 3e 48 3d
       0.08773574 0.15646018 0.13765836 0.048887912
000040 17 5d b7 3c 0d 72 0e bd 9d 2c 50 bd b5 b7 3d bd
       0.022383256 -0.034776736 -0.050823797 -0.046317775
000050 08 7b c0 bc 52 ea 33 bd dd 62 76 bc df 3a 01 bd
       -0.023496166 -0.043924637 -0.015038219 -0.031550284
000060 94 c0 30 bd 94 fd 64 bd 33 c1 ff bc 87 89 04 bd
       -0.043152407 -0.055905893 -0.031220054 -0.03235772
000070 a8 95 b2 be 94 6d bf be ad d0 a5 be 28 11 99 be
       -0.34879804 -0.3738829 -0.3238577 -0.29895902
000080 4a 3b 66 be 4d c2 0a be 0d 24 85 3d ac c2 73 3e
       -0.22483554 -0.13550682 0.06501017 0.2380473
000090 59 d5 87 3e d1 c6 4f 3e 67 85 41 3e 1d 5f 79 3e
       0.2652996 0.20290686 0.18898545 0.24352689
0000a0 87 29 56 3e da 93 6d 3e 01 21 60 3e 1c 70 97 3e
       0.20914279 0.23200932 0.2188759 0.2957772
0000b0 13 77 a6 3e 23 f1 76 3e f3 ca 0d 3e a8 a2 e6 3d
       0.3251272 0.24115424 0.1384695 0.11261493
0000c0 21 8f 73 3d 2e c4 e6 3c 7d fa 13 3d eb 3b 4f be
       0.05946267 0.028169718 0.036127556 -0.202377
0000d0 10 fc b3 be 2d 92 a6 be fe af b7 be c6 10 af be
       -0.35153246 -0.32533398 -0.3587646 -0.34192485
0000e0 68 1e d2 3d f6 77 07 3e 6f c9 c7 3d 20 bd ae 3d
       0.10259706 0.13229355 0.09755217 0.085321665
0000f0 84 77 84 3c 68 05 8f bc b7 0a 8e bd 0b 55 bf bc
       0.01617027 -0.017458633 -0.069356374 -0.023355981
000100 de b9 74 bd 80 d3 6f bd cf f0 64 bd 54 be 01 bc
       -0.05974757 -0.05855131 -0.055893715 -0.007918913
000110 42 96 ba bd 8c f6 9c bd 70 26 95 bd 61 9e 2b 3d
       -0.09110691 -0.076642126 -0.07282722 0.04189909
000120 53 23 3a bb 42 6d be bd d4 ac c2 bd bb 9b 97 bd
       -0.0028402403 -0.09298183 -0.095056206 -0.0740275
000130 bc 09 a2 bd 32 85 dd 3c 7c 20 8c 3d 27 ec bd 3d
       -0.07912013 0.027041052 0.068421334 0.09273558
000140 58 68 cd 3d f8 aa 13 3e 0b 43 e2 3d d4 db c7 3d
       0.100296676 0.14420688 0.11047944 0.09758726
000150 91 93 62 bd b8 76 8d bd 0c 8b 9f bd fd 11 81 bd
       -0.05531651 -0.069074094 -0.07790193 -0.06302259
000160 54 a9 42 bd ed c2 ab ba 02 dc 38 bc 40 88 84 3c
       -0.047524765 -0.0013104357 -0.011282923 0.01617825
000170 95 99 0f 3d 5a 0e 90 3d 3a 65 92 3d e6 69 94 3d
       0.035058577 0.07033987 0.07148214 0.07246761
000180 c3 e2 41 3e 21 fc a6 3e ae d8 a7 3e b8 b2 ea 3d
       0.18934159 0.32614234 0.327825 0.11459869
000190 6c 08 89 3d f2 93 94 3c 0b b6 13 3d 0e b4 4a 3d
       0.066910595 0.018136952 0.03606228 0.04948812
0001a0 da 88 e3 3c a4 ce f3 3b 0a a5 a7 3c 2c 70 e4 bc
       0.027775217 0.007440405 0.020464439 -0.027885519
0001b0 f3 0c 4e bd af bb 62 bd e1 d3 9c bd 41 7a ad bd
       -0.050305318 -0.05535477 -0.076576 -0.08470584
0001c0 97 af d5 3d c5 78 e4 3d 2c f7 0d 3e e5 c6 c2 3d
       0.10433882 0.111558475 0.1386382 0.09510592
0001d0 9a 54 84 3d 71 2f da 3c 1c e0 bd 3b 07 ec 0c 3c
       0.06461449 0.02663395 0.005794538 0.008601195
0001e0 a2 4b ab bc 70 3e e3 bc 85 a6 4e bd 26 c6 8c bd
       -0.020910088 -0.027739733 -0.050451774 -0.06873731
0001f0 81 18 52 be 41 fa ca be 44 46 a4 be d4 b8 a3 bd
       -0.2051716 -0.39644054 -0.32084858 -0.079942375
000200 1c 42 13 bc 97 7b 2d ba 3b f2 48 bc a4 95 28 bd
       -0.00898793 -0.00066178426 -0.0122647835 -0.041158333
000210 ec bf 2f bd 33 c0 16 bd 5a cb aa bc ec 26 1f 3c
       -0.04290764 -0.03680439 -0.020848919 0.00971387
000220 8d 32 d7 3d 57 41 eb 3d 2d a4 e7 3d 6c bd b1 3d
       0.10507689 0.11487072 0.11310611 0.086787075
000230 d3 8d 14 3e 0e 1e 00 3e 5f b1 17 3e 50 6d f0 3d
       0.14507227 0.12511465 0.14813755 0.117396
000240 58 19 11 3e d2 11 01 3e b4 a4 99 3c d9 7a 90 3c
       0.14169824 0.12604454 0.018755294 0.017636703
000250 af 55 20 3d 31 02 9e 3d 38 64 70 3d a1 fb 8d ba
       0.039144214 0.07715262 0.058689326 -0.0010832438
000260 43 e6 96 3d 41 9c ab 3d 05 5d 99 3c 15 4a 44 bd
       0.07368138 0.083794124 0.018721113 -0.047922213
000270 f6 25 9c bd 9c d0 72 bd ab 44 4e bd 87 e3 b6 bd
       -0.07624428 -0.059280977 -0.050358456 -0.08930116
000280 cd 42 6c bd c2 63 93 bd 94 4f 39 bc 4d 86 ff 3d
       -0.057680894 -0.07196762 -0.011310477 0.12476788
000290 3d 3a f5 3d b1 da 03 3e c3 4d a8 3d 51 a3 f8 3d
       0.11973999 0.12876393 0.08217957 0.12140525
0002a0 21 92 9c 3e 7e 18 a7 3e 63 a0 90 3e 90 74 8b 3e
       0.30580238 0.32635874 0.28247365 0.27237368
0002b0 fb 0a 10 3e ba d8 85 bd 2b d0 8d be f4 2b c5 be
       0.14066689 -0.06535478 -0.27697882 -0.38510096
0002c0 e7 a2 9c be 20 8e 98 be a0 b6 94 be ba cd af be
       -0.30593035 -0.29795933 -0.29045582 -0.34336644
0002d0 e6 71 ef be 1c 8d 7e bf 4e 9f 71 bf 75 1d df be
       -0.46766585 -0.99434066 -0.94383705 -0.4357716
0002e0 06 22 d1 be 3c 89 ba be b7 7f 9e be 26 2e a7 be
       -0.4084627 -0.36432827 -0.30956814 -0.32652396
0002f0 39 cc 8f be 1d a9 ad be 9e a5 2f be e5 5b 07 3e
       -0.28085497 -0.33918086 -0.17153022 0.13218649
000300 14 8d 9c 3e 3b df a0 3e 7f 60 9b 3e 16 63 a0 3e
       0.30576384 0.3142031 0.30347058 0.31325597
000310 72 78 39 be 9a c1 53 be 5b 7c 3a be 5d 4c 14 be
       -0.18112352 -0.20679322 -0.182115 -0.14482255
000320 ab 68 c1 bd aa 72 04 3d 6f d1 1d 3e 08 66 48 3e
       -0.09443792 0.032335915 0.15411924 0.19570172
000330 97 a3 e8 3d 2b 1c 6f 3d 64 ca c0 3d 9e d8 f9 3d
       0.11359327 0.058376472 0.09413603 0.121995196
000340 2b 03 9d 3e 35 0a 84 3f 2e cb 8a 3f ea f0 91 3e
       0.3066648 1.0315615 1.0843256 0.28504115
000350 62 69 ad 3c 3b 11 b7 3c c9 f1 10 3d cc 6f e2 3d
       0.021168415 0.022347083 0.035386834 0.1105648
000360 0d fb ba 3d 35 be 81 3d 7e e7 9e bd c3 a2 1f be
       0.091299154 0.06335107 -0.077589974 -0.15589432
000370 25 c1 2f be a9 c3 41 be ce 5b 35 be a0 45 2f be
       -0.17163523 -0.18922295 -0.17710802 -0.17116404
000380 00 0d f1 bc 59 09 79 bc d0 57 38 bb e7 2b 5e bd
       -0.029425144 -0.015199983 -0.0028128512 -0.054241087
000390 44 ab 07 be 6a 4c 31 be 2d 8e 89 be 59 1b a7 be
       -0.13248926 -0.17314306 -0.26866284 -0.32638052
0003a0 a2 01 42 be d5 1f 06 be 4b af 5b be 65 ed 78 be
       -0.18945935 -0.1309808 -0.21453588 -0.24309309
0003b0 04 59 8b be 0a da 8b be 87 f0 75 be f7 7b 5e be
       -0.2721635 -0.27314788 -0.24017535 -0.21726976
0003c0 6c 47 73 be de da 79 be a1 dc 1d be 26 22 f1 bd
       -0.23757714 -0.24399897 -0.15416194 -0.117740914
0003d0 03 7a 17 be ae bc 1b be d0 58 26 bd ee a0 76 bc
       -0.14792638 -0.15208694 -0.040612042 -0.015053017
0003e0 4c 29 92 bc 89 81 e3 ba 75 70 6a bc f0 06 a5 bc
       -0.017841958 -0.001735733 -0.014309038 -0.02014491
0003f0 48 01 87 be 88 24 87 be fa ed 87 be 48 4b 80 be
       -0.26368165 -0.2639506 -0.2654875 -0.25057435

rnn_layer.weight_hh_l0 f4 [16, 16]
000000 1f a9 a8 3e 55 63 4a 3e 37 3a c3 3d 12 c4 ab 3e
       0.3294153 0.19764455 0.09532588 0.33548027
000010 b1 3d ff be cd 13 4e 3e e9 68 47 be e3 5d 6b 3c
       -0.49851754 0.20124741 -0.19473614 0.014365646
000020 14 c0 b0 3d 3b d5 25 3e a2 9f 57 3d 16 b1 76 3e
       0.08630386 0.16194622 0.052642472 0.2409099
000030 c8 b8 62 be 60 1e 8a 3e 70 86 cc 3d 22 f2 3f 3e
       -0.22140801 0.269763 0.099865794 0.1874471
000040 24 0f 04 bf d9 b2 85 3f 8a 91 91 3f 84 41 06 bf
       -0.515856 1.0445205 1.137254 -0.5244372
000050 69 d8 1c bd 86 ee f9 be 2b 0c 67 be c5 54 ca be
       -0.038292322 -0.4881479 -0.22563235 -0.395178
000060 ec 34 e4 3e a5 f7 be 3e 8d 07 91 3d be a1 02 3f
       0.44571626 0.37298313 0.07081518 0.5102805
000070 fa 64 e1 3c 17 a2 a8 be 1d 54 81 bb ce de 70 3e
       0.02751397 -0.32936165 -0.0039467947 0.23522493
000080 21 8c da 3e 85 9a d8 be 29 ba 01 3f 59 37 f6 3e
       0.42685035 -0.4230539 0.5067468 0.48089102
000090 94 48 8e be 64 d0 1d 3e c8 83 a2 3c cc 62 c0 be
       -0.27789748 0.15411526 0.019838229 -0.37575376
0000a0 f0 e0 41 3f 8b 98 88 3c 1e a1 60 3e 78 a8 86 3b
       0.7573385 0.0166743 0.21936461 0.0041094385
0000b0 07 eb 13 bf d0 94 6a 3e cc 7d 09 3f 4d b2 15 bf
       -0.577805 0.2290833 0.53707576 -0.5847519
0000c0 17 bb 4f 3e b0 28 7c 3c 42 5d 95 bd fb 08 8a 3e
       0.20286213 0.01539056 -0.07293178 0.26959977
0000d0 d1 00 f7 be 6b c2 ac 3e a9 35 2d be 5b 13 72 3d
       -0.4824281 0.3374208 -0.16915001 0.05910049
0000e0 0a f8 db 3a 6f cb 9f 3e e6 ff 5a 3c e2 48 79 3c
       0.0016782295 0.31209895 0.013366675 0.0152151305
0000f0 1c 8b 64 be 52 69 e7 3e b9 0f 84 3e ef 21 c7 3c
       -0.22318691 0.4519754 0.25793245 0.024308173
000100 81 5f 27 be c8 14 f5 be c8 f6 05 3d 4b 5c 5e be
       -0.16345026 -0.47867417 0.032706052 -0.21714894
000110 c3 ff ad 3e c5 52 96 bd 43 d6 a2 3e 40 1c 21 be
       0.33984193 -0.07340006 0.31804094 -0.15733433
000120 9f 7a 87 3c 92 f3 2d bf 45 81 ba 3d cb b9 be be
       0.016537962 -0.67949784 0.091066875 -0.37251124
000130 87 16 f7 3d 72 dc 72 bd b2 59 10 be a1 46 d0 be
       0.120648436 -0.059292264 -0.14096716 -0.40678886
000140 76 92 ba 3d c9 88 df bd 43 34 6e be 9b f2 5c 3e
       0.091099665 -0.109147616 -0.23262124 0.21576922
000150 bb 9f f1 bd 03 a4 b7 3e ca f2 ba be 34 5f 84 3e
       -0.11798044 0.3586732 -0.36513358 0.25853884
000160 3a f0 2f be b1 24 c2 3e 13 e9 85 be f7 4a 5d bd
       -0.17181483 0.37918618 -0.26154384 -0.05402657
000170 c3 81 2a 3d 1e e3 6d 3e c9 a7 91 3d 94 69 af 3d
       0.041627657 0.2323117 0.071120806 0.08565059
000180 b9 02 e9 bd 53 70 8f be 69 47 81 be 09 a3 3c be
       -0.113774724 -0.28015384 -0.25249794 -0.18421568
000190 5f 16 49 3e 8c b1 6c 3e 3c 2e 78 3e 3f 83 74 3d
       0.1963744 0.23114604 0.24236387 0.05969548
0001a0 46 a5 fe 3d 9d b3 a5 bd 66 80 c8 3c 32 7e 24 be
       0.12433867 -0.08090899 0.024475288 -0.16063765
0001b0 b2 5f 04 be cd 1e 77 3e 8f e2 8b bd b9 c8 36 be
       -0.1292713 0.24132843 -0.06830322 -0.17850007
0001c0 bd de 3e be c4 00 62 3e cb 1b 82 be b4 36 ed bd
       -0.18639655 0.22070605 -0.2541183 -0.115826994
0001d0 bf f2 5e 3e 0e d8 0c be 12 3b bc 3a c0 d8 4a 3e
       0.21772288 -0.13754293 0.0014360866 0.19809246
0001e0 1b a8 f2 be ad c7 18 be 09 e0 57 bd a0 73 7c bd
       -0.4739388 -0.1491992 -0.05270389 -0.061633706
0001f0 bc bf d4 3e 64 8d 4e be de c9 9b 3d b2 c4 71 3e
       0.41552532 -0.20171124 0.076068625 0.2361019
000200 be 78 c0 3e fa 0f 38 3d 28 bf f6 3b 5b d6 c0 3e
       0.3759212 0.04493711 0.007530112 0.3766354
000210 b0 9b 58 be a4 6e 26 3e 90 47 75 be 21 87 e2 3d
       -0.2115314 0.16253144 -0.2395308 0.1106093
000220 9c f6 84 3e a1 85 3a 3e 3e 11 18 be 8b eb 43 3e
       0.25969398 0.18215038 -0.14850327 0.19132821
000230 82 35 c8 be f1 24 06 3e e8 69 31 3e 5a 6e 68 be
       -0.39103323 0.1310003 0.17325556 -0.22698346
000240 65 dd 90 bc 98 00 2b 3f 9c 25 a1 be f7 e9 b5 3d
       -0.017683694 0.6679778 -0.31474006 0.08882516
000250 66 43 19 be 35 fe 76 bd 6c fe 3b bf 4b 62 f1 3e
       -0.14967117 -0.060301024 -0.7343509 0.47145304
000260 95 38 b9 be ce 04 cd 3e 72 0a 2b bf 49 a2 40 3e
       -0.3617598 0.40042728 -0.66812813 0.18811907
000270 7f 30 f3 3d 98 ab 16 be 36 21 79 bd f0 63 0a 3f
       0.11874484 -0.14713895 -0.060822688 0.5405874
000280 a8 60 c9 3d f9 0f b6 be e1 d9 72 3e 12 26 94 3d
       0.09832889 -0.3555906 0.23715927 0.07233824
000290 a4 d7 6e 3c b6 1a 4b 3e 2f d5 20 3d 67 1b 7e bd
       0.01457778 0.19834408 0.039265808 -0.06203785
0002a0 07 de ab 3e 89 b5 a0 3d 74 82 db 3d da 0c 1c be
       0.3356783 0.07847125 0.10718241 -0.15239277
0002b0 e6 f6 59 be 25 ae 6a 3e 1d 10 e0 bd 2b 75 9e be
       -0.2128559 0.22917993 -0.10940573 -0.30948767
0002c0 27 37 70 3e 79 5c 42 3f b6 a5 f1 3e 44 88 82 3e
       0.23458539 0.7592235 0.4719674 0.25494587
0002d0 5b 28 40 be 97 51 a5 be 63 24 d9 be 51 6c 40 3d
       -0.18765394 -0.3228881 -0.42410573 0.0469783
0002e0 63 61 0f be 78 09 9e 3d 53 b1 87 bd 8c b4 e9 3e
       -0.14001994 0.0771665 -0.06625619 0.4564556
0002f0 8a 6d ff bc 09 10 6f be 27 31 93 bd 7b 1f 1d 3f
       -0.031180162 -0.2334596 -0.071871094 0.6137616
000300 07 83 1e 3c 7d d2 57 be c5 c2 8b 3e 05 9b 42 39
       0.009674794 -0.21076389 0.27297035 0.00018559031
000310 82 a2 35 3e 25 5c 7d be 2b 52 7b 3e bb 27 92 be
       0.17737773 -0.24742182 0.24543063 -0.28545937
000320 63 8f 99 3c c8 72 20 bf 02 3d 72 3e a4 b2 69 be
       0.01874513 -0.6267514 0.23656085 -0.22822052
000330 ec 91 23 3e a4 1f 11 be 77 66 96 bd 82 1a dd 3d
       0.15973634 -0.14172226 -0.07343762 0.107960716
000340 a0 70 cd 3d 09 f2 43 bd bb db 9a bd e7 a6 26 3e
       0.10031247 -0.047838245 -0.075614415 0.16274606
000350 b6 49 68 be 70 4b c6 3e ee cb b7 be e8 84 19 3e
       -0.22684368 0.3872943 -0.35897774 0.14992106
000360 d7 5e ae bc 06 1a 2a 3f 5f ac 1f be d9 63 aa bc
       -0.021285458 0.6644596 -0.15593098 -0.020799564
000370 27 56 81 bd e3 25 a0 3e c2 6c 40 3e cb 54 2c 3c
       -0.063152604 0.31278905 0.18791488 0.010518263
000380 f3 12 90 3d bc 86 81 bd 4d 5f 4e bc a8 73 df 3d
       0.07034864 -0.06324527 -0.012595964 0.109107316
000390 5b 98 08 be 35 a8 c9 3e 3a f7 d8 be d4 47 2b 3e
       -0.13339369 0.39386144 -0.4237612 0.16726619
0003a0 83 a9 b4 3d 99 5b c2 3e fe 93 66 be d6 c0 18 be
       0.08821394 0.37960508 -0.22517392 -0.14917311
0003b0 90 53 0b be 66 40 ae 3e b5 35 f4 3d 8c 2d 78 be
       -0.13606095 0.34033507 0.11924306 -0.24236125
0003c0 22 16 3b be fb 81 24 3f ff e7 11 3f e0 26 56 be
       -0.18270162 0.64260834 0.5699462 -0.20913267
0003d0 6f dd 0d be ea 8f bd be 4e 5f 4a be de 0b 85 be
       -0.13854001 -0.3702386 -0.19762918 -0.25985616
0003e0 23 f0 f7 3d 6b 9a b6 3c 18 07 22 3e 8d 74 7f 3e
       0.12106349 0.02229043 0.15823019 0.24946804
0003f0 31 95 32 3c 19 cc 7f be 84 cc 11 bd 64 52 70 3e
       0.010899828 -0.24980201 -0.035595432 0.2346893
