SMNIST/Models/rnn_L1_H3_tanh_drop0.1_sgd_lr0.002_normal_0.015_insize28_e5.ckpt (torch, 2467 bytes, 3 tensors)

fc.weight f4 [10, 3]
0.66981816 -0.2875335 0.0644709 0.7066291 0.106229454 -0.016230091 0.49719423 -1.4840531
-0.030209938 0.36203423 0.2586564 0.13981596 -0.048579264 0.726333 0.1784726 0.20322628
-0.11239519 0.2526261 0.065826036 -2.7367406 -0.43043715 -2.601546 1.8525969 -0.7834902
0.25884268 0.7806532 -0.08206225 -1.881511 1.7115694 -0.18257038
00000000: 3479 2b3f 9737 93be 5209 843d a5e5 343f
00000010: d48e d93d f8f4 84bc 3e90 fe3e 74f5 bdbf
00000020: d57a f7bc 8d5c b93e 9d6e 843e ea2b 0f3e
00000030: 0dfb 46bd f6f0 393f 85c1 363e 8d1a 503e
00000040: 732f e6bd 3558 813e cdcf 863d c226 2fc0
00000050: 4262 dcbe bb7f 26c0 e521 ed3f d092 48bf
00000060: 0787 843e e3d8 473f 4110 a8bd 5ad5 f0bf
00000070: b514 db3f bbf3 3abe

rnn_layer.weight_ih_l0 f4 [3, 28]
0.25877368 0.28487086 0.27145386 0.29195154 0.20740438 -0.021196388 -0.09286725 -0.074300714
-0.13059881 -0.07669444 -0.019263528 -0.0038121205 -0.5612138 -0.36942452 -0.6034998 -0.72628343
-0.54908466 -0.026778672 0.033682395 0.1155544 0.0146125145 0.030155515 0.091167375 0.07525888
0.224776 0.2934217 0.25204882 0.27899876 -0.11052452 -0.111648664 -0.10484448 -0.022047352
-0.07091606 -0.18422675 -0.19993143 -0.20202412 -0.22577272 -0.25045243 -0.22732556 -0.21372807
0.2472989 0.24924089 0.47973952 0.5045344 0.38741413 -0.05198499 -0.25438452 -0.26618296
-0.22104384 -0.22625609 -0.16127916 -0.14792442 -0.14660066 -0.14755116 -0.105580255 -0.110734865
0.35955828 0.34115252 0.34388635 0.30693117 -0.024045784 -0.5101663 -0.65902245 -0.6539315
-0.73978704 -0.8507083 -0.8954719 -0.7955657 -1.4419727 -0.9274214 -1.0453213 -1.422841
-1.4586197 -0.84498733 -1.0029846 -0.81118625 -0.7248117 -0.8590612 -0.61175543 -0.22268535
0.21313892 0.37079328 0.37089533 0.3492138
00000000: fc7d 843e 98da 913e 00fc 8a3e ac7a 953e
00000010: d061 543e 0ca4 adbc 2f31 bebd f92a 98bd
00000020: b2bb 05be f911 9dbd 8cce 9dbc c5d4 79bb
00000030: b5ab 0fbf 3625 bdbe f77e 1abf b6ed 39bf
00000040: d090 0cbf f25e dbbc 8df6 093d c9a7 ec3d
00000050: 5469 6f3c b308 f73c f6b5 ba3d 5421 9a3d
00000060: ae2b 663e 5e3b 963e 8b0c 813e edd8 8e3e
00000070: ae5a e2bd 0ea8 e4bd b4b8 d6bd a69c b4bc
00000080: 703c 91bd f0a5 3cbe d3ba 4cbe 69df 4ebe
00000090: f730 67be 4d3b 80be 08c8 68be 88db 5abe
000000a0: ec3b 7d3e 0139 7f3e 6ba0 f53e 2b29 013f
000000b0: 255b c63e 36ee 54bd b03e 82be 2249 88be
000000c0: 5159 62be adaf 67be 5d26 25be 8079 17be
000000d0: 7c1e 16be a717 17be 763a d8bd f6c8 e2bd
000000e0: 0618 b83e 8bab ae3e df11 b03e 1526 9d3e
000000f0: aafb c4bc 429a 02bf b2b5 28bf 0e68 27bf
00000100: af62 3dbf 05c8 59bf a53d 65bf 32aa 4bbf
00000110: 9092 b8bf 7d6b 6dbf 17cd 85bf a71f b6bf
00000120: 0db4 babf 1751 58bf cd61 80bf e7a9 4fbf
00000130: 428d 39bf 6feb 5bbf 019c 1cbf a107 64be
00000140: 1741 5a3e 9ed8 bd3e fee5 bd3e 27cc b23e

rnn_layer.weight_hh_l0 f4 [3, 3]
2.2304356 -0.34141868 2.6414766 -1.6111244 1.3847499 -0.78721356 0.54423374 -0.67010236
3.2258744
00000000: 75bf 0e40 6ece aebe f40d 2940 5339 cebf
00000010: 7c3f b13f d486 49bf e752 0b3f d48b 2bbf
00000020: ba74 4e40
