SMNIST/Models/rnn_L1_H3_tanh_drop0.1_sgd_lr0.002_normal_0.005_insize28_e10.ckpt (torch, 2531 bytes, 3 tensors)

fc.weight f4 [10, 3]
-0.23427427 0.53007084 0.74492395 -0.70806605 0.37068027 0.6108728 0.84835064 0.5288584
1.043577 -0.50127614 0.53712344 0.20535505 -0.6739891 0.40848988 -0.4073592 -0.011453932
0.7381288 0.1025859 2.1239326 0.17103712 0.91531605 -0.1252939 -2.2783039 -1.6301703
-0.61182815 0.5414672 -0.32600778 -0.6745376 -1.3788376 -1.5465894
00000000: 98e5 6fbe b9b2 073f 56b3 3e3f d143 35bf
00000010: cec9 bd3e 2962 1c3f 822d 593f 4463 073f
00000020: ee93 853f a253 00bf ec80 093f 9848 523e
00000030: 8d8a 2cbf 9625 d13e 6391 d0be 46a9 3bbc
00000040: 02f6 3c3f 8e18 d23d 83ee 0740 5b24 2f3e
00000050: 2752 6a3f 0b4d 00be bbcf 11c0 6ca9 d0bf
00000060: c5a0 1cbf 989d 0a3f 7eea a6be 7fae 2cbf
00000070: c07d b0bf a4f6 c5bf

rnn_layer.weight_ih_l0 f4 [3, 28]
-1.1266398 -1.1247965 -1.0914496 -0.94729024 -0.3189596 0.4960959 0.69202626 0.4688318
0.5582643 0.68842465 0.6097246 0.7734259 0.6237656 0.6519112 0.5545986 0.84652805
0.7479682 0.8177413 0.6647175 0.67177737 1.008298 0.68989766 -0.4532117 -1.1609566
-1.1715888 -1.1319877 -1.1321563 -1.1248807 0.14771314 0.14331096 0.14755212 0.076272346
-0.12938283 -0.24804856 -0.1799244 -0.13856933 -0.21107616 -0.23631498 -0.18448937 -0.14556888
-0.18264696 -0.17406963 -0.2712998 -0.24053864 -0.1547598 -0.16483986 -0.17526802 -0.25470784
-0.5052944 -0.7118635 -0.75306165 -0.48425767 -0.0008294686 0.15455726 0.13629878 0.14459692
0.2900899 0.29873198 0.29380178 0.24308226 0.12268012 -0.113729954 -0.12936132 -0.0184302
-0.03418952 -0.066369794 -0.143661 -0.08749969 -0.00693964 -0.00047742168 -0.055029087 -0.009629889
-0.016357094 -0.037496805 -0.068965144 -0.17908268 -0.22884119 -0.26375934 -0.2630866 -0.10205189
0.22173667 0.33073285 0.29809493 0.29698578
00000000: bc35 90bf 55f9 8fbf 9fb4 8bbf 9d81 72bf
00000010: ac4e a3be 4800 fe3e a228 313f b90a f03e
00000020: 69ea 0e3f 993c 303f e916 1c3f 3dff 453f
00000030: 1aaf 1f3f a7e3 263f 2dfa 0d3f 10b6 583f
00000040: d87a 3f3f 7e57 513f ed2a 2a3f 9af9 2b3f
00000050: e90f 813f 229d 303f 5d0b e8be 3a9a 94bf
00000060: 9ff6 95bf f9e4 90bf 7fea 90bf 17fc 8fbf
00000070: 1d42 173e 1cc0 123e e717 173e ad34 9c3d
00000080: ef7c 04be 7100 7ebe 1a3e 38be 1ee5 0dbe
00000090: 5924 58be 8efc 71be c8ea 3cbe 0210 15be
000000a0: ce07 3bbe 4f3f 32be cfe7 8abe c34f 76be
000000b0: 5a79 1ebe c8cb 28be 7679 33be 1169 82be
000000c0: f95a 01bf b03c 36bf a6c8 40bf 9ff0 f7be
000000d0: b270 59ba 4244 1e3e e891 0b3e 3711 143e
000000e0: aa86 943e 66f3 983e 306d 963e 8eea 783e
000000f0: b73f fb3d 40eb e8bd 4b77 04be eefa 96bc
00000100: 4f0a 0cbd e3ec 87bd df1b 13be 0a33 b3bd
00000110: eb65 e3bb 744e fab9 2e66 61bd afc6 1dbc
00000120: 50ff 85bc 4096 19bd 993d 8dbd 7361 37be
00000130: 5855 6abe 770b 87be 49b3 86be 9500 d1bd
00000140: f00e 633e d155 a93e e69f 983e 850e 983e

rnn_layer.weight_hh_l0 f4 [3, 3]
0.7236897 0.29213914 1.3321565 -1.8727231 2.5640702 1.1285803 -1.2053448 1.170847
1.1256975
00000000: ba43 393f 4393 953e 1b84 aa3f 64b5 efbf
00000010: ba19 2440 5275 903f bd48 9abf 51de 953f
00000020: db16 903f
