SMNIST/Models/rnn_L1_H16_tanh_drop0.1_sgd_lr0.002_normal_0.02_insize28_e9.ckpt (torch, 5539 bytes, 3 tensors)

fc.weight f4 [10, 16]
000000 a5 18 df bd df 6c a5 bc bd 15 29 3f 05 48 f8 be
       -0.108933724 -0.020193515 0.66048795 -0.48492447
000010 4e f2 e2 3e d6 f7 52 bd fb 3a 5b be f2 62 80 3e
       0.4432549 -0.051505886 -0.21409218 0.2507549
000020 a0 78 8f bd 48 36 a9 3d 9a 20 16 3d e3 f4 be be
       -0.07005429 0.082623065 0.036652185 -0.3729621
000030 fc 92 a9 bd f4 e6 df be d4 98 20 be c2 5d 84 3d
       -0.08279988 -0.4373089 -0.156833 0.064631954
000040 bc cc 49 bd 8f 2b 93 3e db d6 06 bf 7a ca 38 3d
       -0.049267516 0.2874417 -0.52671593 0.04511497
000050 8d 93 3b bf 58 ff aa bd 08 a5 a5 bc b9 0b 0f be
       -0.7327202 -0.08349484 -0.020220295 -0.13969316
000060 13 b9 8a 3f 39 5c 93 3e 2a 24 97 3e b5 d0 08 bf
       1.083773 0.28781298 0.29519778 -0.5344346
000070 98 71 f1 3d 62 48 a5 3e 20 90 cb be 4f 6c e4 bc
       0.117892444 0.32281786 -0.39758396 -0.027883677
000080 f7 51 9c be a9 32 81 be 16 33 c0 3e 10 20 ed be
       -0.30531284 -0.25233963 0.37538975 -0.46313524
000090 90 35 57 be b9 df 4e 3d 3a f2 88 bd ca 0b fd 3e
       -0.21016526 0.050506327 -0.06686826 0.49423057
0000a0 53 e1 f1 bd 0b 9f 0b 3e 5a e3 02 be 38 b6 80 be
       -0.11810555 0.13634889 -0.1278204 -0.25139022
0000b0 e6 da 19 3e 53 8d 47 be 38 c7 88 3e d1 7d 97 3d
       0.1502491 -0.19487505 0.26714492 0.073970445
0000c0 d2 f7 06 3d 66 8c 28 bf 90 b5 1d 3f 9d 9f 8d 3d
       0.032951184 -0.6583923 0.6160517 0.069152094
0000d0 ca a0 27 3f e8 26 21 bc b4 93 2b bd 16 79 79 be
       0.6547972 -0.009835936 -0.041888908 -0.24362597
0000e0 d8 c5 06 be a6 90 d3 3d c2 a3 89 3e 09 86 00 be
       -0.13161409 0.10330324 0.2688275 -0.1255113
0000f0 e2 56 33 3d d6 1d 98 be bd 39 c3 bc 15 a6 44 3d
       0.04378403 -0.29710263 -0.023831243 0.04800995
000100 ee e2 ab 3c 09 e7 90 3e b2 c7 2b bf 3e a1 00 3f
       0.020982232 0.28301266 -0.67101586 0.50246036
000110 73 a5 00 bf ba 85 a0 bd 77 59 ef 3d b1 45 2b be
       -0.50252455 -0.07838006 0.11686986 -0.16725804
000120 cf f3 2c 3e fa 50 e2 3e d4 d8 8b be dc 13 b1 3e
       0.1688988 0.44202405 -0.27313864 0.34585464
000130 f9 3a 24 3e 45 28 2c 3f af 8e 58 be fc 63 42 3d
       0.16038121 0.67248946 -0.2114818 0.047458634
000140 bd da 73 3d 22 3a cb be dd ae 1d 3f a8 b2 02 be
       0.059534777 -0.3969279 0.61594945 -0.12763464
000150 d1 4c 83 3e 42 f6 f4 bb c1 6e 9f 3d 17 8d 53 bd
       0.25644544 -0.0074756453 0.077847965 -0.051648226
000160 4d f8 7f be e0 21 e3 3d 11 8c 4a 3e 49 0e ad bd
       -0.24997063 0.110904455 0.19779994 -0.0844999
000170 2a 04 51 3e 6e f9 4b be a3 2b 9c 3e 41 ba b3 3c
       0.20411745 -0.19919369 0.30502042 0.021939399
000180 84 ba b5 be 03 1e 8e be b2 e6 ed 3e 0c 8b e9 be
       -0.35493863 -0.27757272 0.4646507 -0.45613897
000190 dd 24 20 bf 2c 69 9c be 76 83 a8 be c5 98 34 3f
       -0.6255625 -0.3054899 -0.32912797 0.7054561
0001a0 ea 01 ef bd 06 1f f2 bb 5c ee 45 bf 97 b6 8e be
       -0.11670287 -0.007388952 -0.7731683 -0.2787368
0001b0 74 20 f2 bc 0e 19 36 3e 32 12 20 3f 3b 74 c8 3d
       -0.02955649 0.17782995 0.62527764 0.09787794
0001c0 2d 13 2a 3f 25 81 f2 3e 08 20 04 bf 94 9a 28 3f
       0.6643551 0.47364154 -0.51611376 0.6586087
0001d0 bc a3 b0 3e 47 d5 06 3e 80 a5 7a 3e 2c a0 f4 be
       0.3449992 0.13167296 0.24477196 -0.4777845
0001e0 1c 39 b7 3e 6a 92 69 bf 2d f1 66 3e 20 06 46 3f
       0.35785758 -0.91239035 0.22552939 0.77353096
0001f0 40 5f a1 be 27 61 0b 3f 2d 9c 73 3c 9b 5a be be
       -0.31517982 0.5444512 0.014868778 -0.371785
000200 8c 60 87 3e 60 e8 37 3f dc 66 af 3e 07 8f 27 be
       0.26440847 0.7183895 0.34258163 -0.16363154
000210 70 6d a1 3e 79 4c 0e be 31 b5 4f be f5 d1 0b be
       0.31528807 -0.1389636 -0.20283963 -0.13654311
000220 ce 5f f6 bc c0 42 0b 3e 60 d4 54 3d ae 05 8b be
       -0.03007498 0.13599682 0.05196035 -0.2715277
000230 95 84 9c 3d 60 c4 f8 be e7 cc ce bd 13 4e 45 3b
       0.076424755 -0.48587322 -0.10097676 0.003010635
000240 47 54 a9 3e 7b ce 25 3e 25 ee d5 be 15 bc 0d 3f
       0.3307211 0.16192047 -0.41783252 0.55365115
000250 8a f4 30 3f 24 6a 06 bc f2 66 a9 3b 06 f0 c2 be
       0.69123137 -0.008204017 0.0051697427 -0.38073748
000260 48 61 b0 be 57 a4 04 bf 5a 14 47 3d 73 37 48 3f
       -0.3444922 -0.5181326 0.048603393 0.7820961
000270 2e 7f 98 3b 42 2e 21 3f ce ab 83 be 10 ee 13 be
       0.004653833 0.6296121 -0.25717014 -0.14446282

rnn_layer.weight_ih_l0 f4 [16, 28]
000000 2a 54 c7 bd 16 3f e7 bd e1 70 9e bd 34 77 a1 be
       -0.0973285 -0.112913296 -0.07736374 -0.31536257
000010 d0 36 54 be 61 e1 b0 be 7d 21 1f bf d5 70 9b be
       -0.20724034 -0.3454695 -0.62160474 -0.30359522
000020 d2 43 80 be dc 30 dd be 12 6f f7 be 8c b0 b9 be
       -0.25051743 -0.4320134 -0.48326927 -0.36267507
000030 aa 3b e0 be 0f 9f 3f bf 3b a1 54 bf c9 20 99 bd
       -0.4379552 -0.7485208 -0.8305852 -0.074769564
000040 02 31 85 3e 96 5f 92 3e 0e 3b c7 3e ef c8 5e 3e
       0.26013952 0.2858855 0.38912243 0.21756338
000050 97 fa 6c 3e 98 00 25 bb 19 72 da 3d d7 ca 24 be
       0.23142467 -0.0025177356 0.10666294 -0.16093002
000060 fa e6 8d be 2a 34 d9 bd 9b 7c a4 bd 07 12 a2 bd
       -0.27715284 -0.10605653 -0.08031579 -0.07913595
000070 2e 5d 8f be d2 ae 91 be 52 ad 8c be 26 bb 73 be
       -0.28000778 -0.2845369 -0.27475983 -0.2380186
000080 e1 e8 96 bd af 85 bd bc 5a 78 6e be f0 60 cd bd
       -0.07368637 -0.023135034 -0.23288098 -0.10028255
000090 17 5c 3b bd 2a 13 1f 3d 1c f0 a2 3d 40 0b b9 3e
       -0.04574212 0.038836636 0.079559535 0.36141396
0000a0 d1 08 17 3f a6 e5 2d 3f 1e ad 26 3f 50 5f 24 3f
       0.5899783 0.6792854 0.65107906 0.64207935
0000b0 48 21 2e 3f 77 78 4b 3f 52 fb 4e 3f ac c4 18 3f
       0.68019533 0.7948069 0.80852234 0.596751
0000c0 46 15 06 3f 6c 32 82 3e ea b2 6e 3d 26 79 00 bc
       0.5237621 0.25429094 0.058276094 -0.007841384
0000d0 cc fb 6f be 47 c1 94 be 8a ae 75 be 94 18 8b be
       -0.23435897 -0.2905371 -0.23992363 -0.2716719
0000e0 fb dc 2e 3e 31 ee 22 3e 1d d2 1a 3e bd 02 0e 3e
       0.17076485 0.15911175 0.15119214 0.13868232
0000f0 ac 3f 87 3c af 53 2c 3d a0 37 f5 bc bb b3 48 be
       0.016509853 0.042071994 -0.02993375 -0.19599812
000100 7c 74 dc be cb 9a 10 bf 8e f3 f4 be 2b 0b d7 be
       -0.4305762 -0.56486195 -0.47842067 -0.42000708
000110 a2 08 84 be 5b 5e 84 be a6 ce d1 be ce 6d db be
       -0.25787836 -0.25853238 -0.40977973 -0.42857212
000120 22 19 c4 be cb dc df be 0d c5 08 bf 35 d3 07 bf
       -0.38300425 -0.4372314 -0.53425676 -0.5305665
000130 35 ac 28 bf 0e 6d 16 bf c3 88 69 be f2 d3 0a 3d
       -0.6588777 -0.58760154 -0.22806077 0.033893533
000140 20 1c 3d 3e c6 b5 35 3e e6 41 2b 3e 78 7e 14 3e
       0.1846776 0.17745122 0.16724357 0.14501369
000150 23 92 32 be d9 38 2e be a3 c2 3b be 48 88 6d be
       -0.17438559 -0.17013873 -0.18335967 -0.23196518
000160 75 3b f3 bc 7b 08 7e 3e 63 b5 40 3e 97 b6 5f 3e
       -0.029691437 0.24807923 0.18819194 0.21846996
000170 b0 69 90 3e 93 86 34 3e 3e a0 df 3e 03 a8 c3 3e
       0.28205633 0.17629461 0.43676943 0.3821412
000180 93 3e 09 3f 4d 5b dc 3e ac 34 84 bd ab 6f bc be
       0.53611106 0.43038407 -0.06455359 -0.36803946
000190 48 d7 ee bd 0b 4a c8 bd d3 9b ff bc 27 c2 d4 bd
       -0.116621554 -0.097797476 -0.031202232 -0.10388594
0001a0 19 8f 80 be 0c 41 91 be fc e8 e9 bd b3 e3 47 be
       -0.25109175 -0.2836994 -0.11421391 -0.19520454
0001b0 05 a0 65 be 9c 56 1c be b7 78 11 be 72 4b 1b be
       -0.22424324 -0.15267414 -0.14206205 -0.15165499
0001c0 88 6a f0 3e a0 d8 df 3e 7a 67 e1 3e 1f 71 96 3e
       0.46956277 0.4371996 0.4402426 0.2938318
0001d0 98 a0 37 3c c2 cf 65 be f0 e0 03 be a5 ff 9e be
       0.011207722 -0.22442535 -0.12878776 -0.31054416
0001e0 16 57 cb be 0e e4 ff be d6 73 b7 be 8a 31 51 bf
       -0.3971488 -0.4997868 -0.35830563 -0.81716216
0001f0 8a 6b 95 bf 25 c2 6a bf 7f 6f 0c bf 7c 29 c5 bc
       -1.1673443 -0.9170249 -0.5485763 -0.024067633
000200 31 cf 4a 3e d0 37 c7 bd 84 a0 55 bd e8 ea 9c 3c
       0.198056 -0.09727442 -0.052155033 0.01915498
000210 b3 1d c3 bd 2e 98 4b 3e cc e5 21 3e 2e d5 49 3d
       -0.09527149 0.1988227 0.15810317 0.04927557
000220 98 44 81 3e f7 f7 10 3f a1 85 e6 3e b1 d0 eb 3e
       0.25247645 0.56628364 0.45023826 0.46057656
000230 7b bc a2 be 87 6e a1 be fd 1f 86 be e8 11 5f bd
       -0.31784424 -0.31529638 -0.2619628 -0.054460436
000240 bc 07 13 3f 33 e7 2e 3f d1 f6 24 3f 42 94 09 3f
       0.57433677 0.6832153 0.6443911 0.5374185
000250 75 67 07 be 1e a8 98 3d 1f a7 b3 3d 72 c0 fc bd
       -0.1322306 0.07453941 0.0877211 -0.123413935
000260 41 7d 94 3e 8a 26 e5 3d 62 44 82 3d 09 23 68 3e
       0.2900181 0.11188991 0.06360699 0.22669615
000270 87 32 20 bd 44 c6 9f 3b c0 27 fa be 71 f0 50 bf
       -0.039110687 0.00487593 -0.48858452 -0.81616884
000280 67 18 a7 be f8 47 49 be 84 91 a8 be 6c cc 96 be
       -0.32635805 -0.1965636 -0.3292352 -0.29452837
000290 bd ba 88 be 2e 4c ad be 7b 6d a9 be 70 17 9d be
       -0.2670497 -0.33847183 -0.3309134 -0.30681944
0002a0 61 81 a7 be e6 e3 ad be fa 92 a9 be 24 66 b1 be
       -0.32715896 -0.33962935 -0.33119947 -0.3464824
0002b0 03 56 75 be 85 50 37 be 69 fb 38 be 4e 5d 05 bf
       -0.23958592 -0.1790181 -0.18064655 -0.52095497
0002c0 8e 18 1e bf f2 db 09 bf 94 ee e2 be 4c 48 5f be
       -0.6175622 -0.53851235 -0.44322646 -0.21804923
0002d0 4a 9d fa bd ed c9 b2 be 36 05 f1 bd f9 9e 93 be
       -0.12237032 -0.34919682 -0.11768572 -0.28832224
0002e0 a1 8b 83 bc 7b ce 46 be d7 a2 dc be 1e f0 89 be
       -0.016057791 -0.19414704 -0.43092987 -0.26941007
0002f0 c9 06 84 be bf 6d 9a be f6 a9 b5 be 40 43 07 bf
       -0.25786427 -0.30161855 -0.35481232 -0.5283699
000300 8f b8 05 bf 23 65 ae be 7c 18 ae be b9 5e a0 be
       -0.5223474 -0.34061536 -0.34003055 -0.31322268
000310 ae 87 3a be f0 a3 68 be c6 5b 08 be 1a 5d ca 3d
       -0.1821582 -0.22718787 -0.13316259 0.09881039
000320 eb be ea 3e 3b a5 ac 3e 7a f0 a6 3d 6a a3 41 bc
       0.45848784 0.3371981 0.08151336 -0.011818746
000330 26 b7 69 be 2b 25 04 3c 7c 43 50 3e b9 94 76 3e
       -0.22823772 0.008065502 0.20338243 0.2408017
000340 e1 e2 3f 3e 3c 86 99 3e ad d1 06 be bf 53 b8 3d
       0.18738891 0.29985225 -0.13165922 0.09000348
000350 6a a3 09 3e 36 66 bc 3d 52 a5 8a 3d ec 94 f3 3d
       0.13441244 0.09199183 0.067698136 0.11893639
000360 ea ea 28 bb b7 07 3f 3e 16 24 7a bc 7c 86 04 3e
       -0.0025774785 0.18655287 -0.015267393 0.12941927
000370 5d 36 c8 3c 84 90 48 be 4b 75 6c be 70 de 25 be
       0.024439985 -0.19586378 -0.23091619 -0.16198134
000380 3e 60 ef be f9 36 fd be d7 22 f8 be 44 54 d8 be
       -0.46753114 -0.49456003 -0.4846408 -0.4225179
000390 1a 58 32 bc e0 17 ab 3e 90 c1 be 3e 87 56 0b 3f
       -0.010885263 0.33416653 0.3725705 0.54428905
0003a0 25 f7 fa 3e 26 7f e3 3e 68 5e b0 3e c1 09 b5 3e
       0.4901668 0.44432944 0.34447026 0.35359004
0003b0 31 cf bc 3e 31 8f 6e 3f 1f e9 65 3f 54 f7 0c 3f
       0.36876824 0.9318724 0.8980884 0.5506489
0003c0 d6 c6 4f 3f 5b 50 6f 3f dc 3f 49 3f b6 6f 25 3f
       0.81162775 0.9348199 0.78613067 0.6462358
0003d0 71 aa 35 3f 99 e9 3e 3f 47 e4 be 3e 52 68 54 bd
       0.709632 0.7457519 0.37283537 -0.0518573
0003e0 c8 95 dc be 43 bc f4 be a7 df de be 6c 2d f9 be
       -0.43083024 -0.47799882 -0.43530008 -0.48667467
0003f0 66 5c 96 3e c0 57 a1 3e 4c 5f a1 3e 52 63 92 3e
       0.2936737 0.3151226 0.31518018 0.285914

rnn_layer.weight_hh_l0 f4 [16, 16]
000000 21 c1 c9 3f 49 98 0e be b3 3d e9 bd 3e 94 10 3f
       1.5762063 -0.1392528 -0.11388721 0.564762
000010 8e cf 2c bf be 60 bf bf 39 66 d3 bd b4 8b 98 be
       -0.67504203 -1.4951398 -0.10322232 -0.29794085
000020 4e 32 9e 3e 3a e2 68 bf 75 f7 08 bf dc 88 82 3f
       0.30897754 -0.90970194 -0.5350259 1.0198016
000030 60 0c 25 bf af 2c d1 3e 77 21 95 3f 2c ad f0 bf
       -0.6447201 0.40854403 1.1650838 -1.8802848
000040 e4 f7 c1 3c 41 a5 d1 3f 17 d2 7e bf c5 d6 b1 3e
       0.023677774 1.6378556 -0.9953932 0.3473417
000050 3c 9e 46 3d f7 2a 65 3f 87 24 3c 3d 5c f2 70 bf
       0.048490748 0.89518684 0.045933273 -0.9411981
000060 16 19 ab bd 0b 82 4a be 4f a2 9a 3f 80 89 a7 3e
       -0.08354394 -0.1977617 1.2080783 0.32722092
000070 ed e9 0c 3f 78 3f 1d 3e 8f b8 98 3b 29 5b 56 be
       0.5504444 0.15356243 0.004660673 -0.20933212
000080 31 b8 9a be 3e 1d 5f bf 63 05 38 3f 48 5b e6 be
       -0.30218652 -0.87153995 0.7188322 -0.44991517
000090 de e5 f9 bd a7 02 37 bf 54 13 13 bf eb 60 ed 3e
       -0.12202047 -0.7148842 -0.5745137 0.46363005
0000a0 a5 11 3b bf ba 95 99 bc 02 97 d9 be 40 a1 09 bf
       -0.730738 -0.018748153 -0.42498022 -0.5376167
0000b0 dd d5 9e be 38 3a 2c bf 76 03 21 3f 05 81 08 be
       -0.3102254 -0.67276335 0.62895906 -0.13330467
0000c0 6d 21 98 3e d8 05 23 be 87 37 47 bf 8c a9 51 3f
       0.29713002 -0.15920198 -0.77819103 0.81899333
0000d0 8a da 85 3e 1f 6f ee be a7 93 41 3f b2 36 c2 bd
       0.26143295 -0.46569154 0.75615925 -0.094830886
0000e0 6e 04 eb 3e 57 f1 6e bf e9 c1 f1 be 83 dd 82 3f
       0.45901817 -0.93337005 -0.47218254 1.022385
0000f0 e0 bb e1 be 3f ec 73 3f 70 b5 cb bd 1a 7c 51 be
       -0.4408865 0.9528236 -0.09946716 -0.20457497
000100 5b 3f 84 3d 36 35 b8 be 42 98 8d 3f 5b 15 0b bb
       0.064573966 -0.35978097 1.106209 -0.0021222446
000110 80 6f 12 3f 1e c2 3d be 9b 25 1c 3f 8e 5c 57 bf
       0.57201385 -0.18531081 0.6099488 -0.841256
000120 27 38 62 3f fc 63 a9 bf 7b 16 8c 3e 56 2e bd 3a
       0.8836693 -1.3233638 0.273609 0.0014433365
000130 bd 73 7f be 3e c7 0b bf 6c ec d9 3e bc 92 1d 3f
       -0.24946494 -0.54600894 0.42563188 0.61552024
000140 88 19 0e be 83 cd 8e 3d 47 a1 a4 be 05 bb 02 3d
       -0.13876927 0.06972792 -0.32154295 0.031916637
000150 37 89 84 3f 5e fb 94 3f 72 b6 80 3e 9e a2 84 bf
       1.0354375 1.1639211 0.25139195 -1.0362127
000160 cd 1c d6 be 5a 68 77 3c 65 67 0e 40 1e a3 35 be
       -0.41818848 0.015100563 2.2250607 -0.17738006
000170 ec 54 8b 3f 40 e1 df 3d 46 23 87 3e 54 28 25 3f
       1.0885291 0.10931635 0.263941 0.6451466
000180 55 97 84 be 7c b7 98 be 56 49 4b 3e ac 9e e0 bd
       -0.25896707 -0.29827487 0.19852194 -0.10967764
000190 d0 eb 68 3f f8 3c e8 3e 50 e3 24 3f 00 e4 43 bf
       0.9098482 0.45359015 0.6440935 -0.76519775
0001a0 d9 32 c7 be e1 03 0d be 8f 6a 50 3e 45 c1 68 3f
       -0.3890598 -0.13771011 0.20353149 0.90919906
0001b0 6c 30 9e 3f d5 00 0b be 52 34 38 3f 21 7d 91 bd
       1.2358527 -0.13574536 0.71954834 -0.071039446
0001c0 58 22 e5 bf eb 7c 46 3e 0e 18 dc 3e 16 ab 92 bf
       -1.7901106 0.1938359 0.42987102 -1.1458461
0001d0 61 02 67 be 91 fa 0d 3e 68 2e 03 bf 65 52 d6 3f
       -0.22559501 0.13865115 -0.51242685 1.6743895
0001e0 f7 2b 99 be 0d a2 58 3f 0c d3 85 be 09 7e 96 bf
       -0.29916355 0.8462227 -0.26137578 -1.1757213
0001f0 09 94 b6 be a6 9d 2c bf e5 81 07 bf 0f 72 aa 3f
       -0.35659817 -0.6742805 -0.5293258 1.3316058
000200 e9 47 f6 3e 27 e3 51 3e 6c d2 25 bf c2 90 1e 3f
       0.48101738 0.20496808 -0.64774203 0.6193963
000210 33 1a e2 be 45 c6 9d be 92 85 98 3e 00 21 4e bf
       -0.44160613 -0.3081533 0.29789406 -0.80519104
000220 a1 98 e8 3d c3 e4 22 3f 16 4f 72 3e ba f8 02 bf
       0.11357237 0.6363031 0.23662981 -0.51160777
000230 94 68 81 3e 55 7f 13 3e 3e e0 08 3e 0f 33 e4 3d
       0.252751 0.14404042 0.13366792 0.11142551
000240 f8 9e 67 3e fc 2e 07 bf 3c d6 20 be c1 bc 93 bc
       0.22619236 -0.5280607 -0.15706724 -0.01803434
000250 01 cd ef 3d d8 77 e7 3c ca 02 5d be 49 d7 33 bc
       0.11709023 0.028255388 -0.21583095 -0.010976621
000260 ec 5d a8 bf 1a fd 86 3f ad 56 fe 3c d8 66 65 be
       -1.3153663 1.054599 0.03104719 -0.22402513
000270 af 1e 95 3e c3 1a b2 3e dc a4 17 3e 92 39 ce be
       0.29124972 0.34786043 0.14808983 -0.40278298
000280 c4 d5 7f 3f 2c 62 42 bf 0d d9 29 3f 5e 17 cc 3e
       0.99935555 -0.7593105 0.6634682 0.39861578
000290 c7 17 67 3d b5 29 d8 be 19 74 6a 3f 41 4c ca bf
       0.05641916 -0.4221932 0.915834 -1.5804521
0002a0 cf be df 3f cc c9 b3 be f9 44 38 3f 6b 52 94 3c
       1.7480105 -0.35114896 0.71980244 0.018105706
0002b0 a9 2a bc 3e 98 37 50 bf 00 a9 22 3f c5 77 b3 be
       0.36751297 -0.8133483 0.63539124 -0.35052314
0002c0 f3 3f bb be 14 47 eb 3d 4c b7 2b bf 8b 93 d4 be
       -0.36572227 0.114881665 -0.67076564 -0.41518816
0002d0 55 aa bb be 61 dd e3 be 75 2d 05 bf d9 15 a8 3e
       -0.3665339 -0.44504836 -0.52022487 0.32829168
0002e0 38 44 db 3e b0 60 d3 bf 41 1b 56 bf e7 e2 03 3f
       0.42825484 -1.6513882 -0.83635336 0.515181
0002f0 a6 85 0b bf 8e dd 17 3f b1 c1 7b 3e 7a 3e 31 bf
       -0.54500806 0.5932244 0.24585606 -0.69235957
000300 07 f8 97 3d 4f 9a a0 be 5c 21 e6 3e e8 d2 3f bd
       0.07420354 -0.31367728 0.44947326 -0.046831995
000310 cd 5f 4a 3f 51 03 22 bf 69 22 c0 3e 3f 48 db be
       0.7905243 -0.6328631 0.37526253 -0.42828557
000320 53 c7 81 bd 53 fe ff 3e 94 11 31 3f ff f5 9c be
       -0.06336846 0.4999872 0.6916745 -0.3065643
000330 5f 02 c9 3f 8b 06 01 bf 42 2f 6a 3f 17 ed 7a 3e
       1.5703849 -0.5040061 0.9147836 0.24504505
000340 21 ee be be f4 f7 1a 3f f2 18 ac be f4 99 85 be
       -0.37291053 0.60534596 -0.33612782 -0.2609402
000350 ba 64 d6 be 82 dc a4 3f 5a 18 e1 3e c9 49 21 3f
       -0.41873723 1.2879794 0.4396389 0.6300321
000360 e5 9c b7 3e 64 5f 34 bf 19 cf 16 3f 31 a5 b6 3d
       0.3586189 -0.70458055 0.58909756 0.089182265
000370 6f 8a 0c 3f de d5 9f 3f f4 39 08 bf 6e d1 ad 3e
       0.5489873 1.2487142 -0.5321343 0.33948845
000380 f9 1b af be 8d 4c 12 bf b7 74 57 3e 02 81 27 bf
       -0.3420103 -0.5714806 0.21040617 -0.65431225
000390 d8 16 89 bf 10 54 45 bf 12 d7 05 bf b3 54 01 3f
       -1.0710096 -0.77081394 -0.52281296 0.50519866
0003a0 73 94 19 3f b9 47 cc be 3f c7 05 bf 0e 50 44 bf
       0.5999214 -0.3989847 -0.5225715 -0.76684654
0003b0 ee 82 8c bf 2f 24 a2 3c ca a1 6c 3f 07 8e d4 bd
       -1.0977457 0.019792644 0.9243437 -0.10378652
0003c0 07 46 4e 3d dd 18 8f bf 0b f2 75 3f d8 3f ee 3c
       0.050359752 -1.1179463 0.96072453 0.029083177
0003d0 ae 4d c4 3f 1e 65 36 3f 22 1b b8 3f 5c 72 5c bf
       1.5336206 0.7124804 1.438328 -0.86112
0003e0 68 16 98 be 41 83 d6 3e 40 8d 6f 3e a6 de 0d 3f
       -0.29704595 0.41897014 0.23393726 0.5541786
0003f0 e3 ae 38 3f 32 b9 77 bf 1e e4 20 be 69 5d a6 3f
       0.72141856 -0.9676696 -0.1571202 1.2997257
