SMNIST/Models/rnn_L1_H3_tanh_drop0.1_sgd_lr0.002_normal_0.015_insize28_e1_iter300.ckpt (torch, 2087 bytes, 3 tensors)

fc.weight f4 [10, 3]
00000000: 8f22 abbe 2d44 833e c995 a23e 119b 0d3e
00000010: 6122 b63e e8fb 713e 70c1 84be 5dec 1ebf
00000020: e1e8 ac3e c1b4 b93d 5ca3 89bc aa7d e7bd
00000030: 79c0 90be 1100 bf3e 5ab3 5b3e 1905 64be
00000040: 7426 0abf dc77 b2bd b445 083f a528 f5bd
00000050: 166b cb3d e1c6 febe a3be 033f 0b99 a3bf
00000060: 8212 83be 8e87 8d3e cf10 1abd 9842 2dbf
00000070: b20f ac3e 9444 14bf
-0.33424804 0.25637951 0.31754902 0.13828684 0.35573104 0.23631251 -0.2592883 -0.6207941
0.33771423 0.09067679 -0.016801529 -0.113032654 -0.28271845 0.37304738 0.21455136 -0.2226757
-0.53964925 -0.087142676 0.5323136 -0.11970643 0.099325344 -0.49761108 0.51462764 -1.278108
-0.25600058 0.27642483 -0.037613686 -0.6767974 0.33605725 -0.5791714

rnn_layer.weight_ih_l0 f4 [3, 28]
00000000: 9c63 573d 4224 a13d dbee 9b3d b866 603d
00000010: 2773 a53d 067e 9a3d 44b2 b73c cae5 183b
00000020: 98da debd f6b2 d4bd 3e63 04be 12a9 ebbd
00000030: ad31 06be f9a8 11be 7102 04be 6f73 ddbd
00000040: d263 d7bd 58c0 bbbd 4a01 b1bd 5865 82bd
00000050: 620d 59bd 8792 ae3c d693 bb3d 1828 633d
00000060: 9bc9 a53d 0c24 923d 6b58 3a3d 901d 953d
00000070: 7458 a0bd 5fa6 a2bd 3148 bfbd 8f8c 70bd
00000080: 04b4 9abd ae05 a2bd 16c1 71bd 9d69 e2bc
00000090: 9e37 3f3c 8872 363d 7414 b63d facf 9a3d
000000a0: 1498 853d 4084 b13d d27d 883d e9e0 c43d
000000b0: 938f 883d 14db 413d 498a 423c 0235 dd3c
000000c0: 2713 603c 2e96 80bd c1ec 88bd 6d4b 95bd
000000d0: 66cf adbd e635 a3bd 9473 95bd bdc6 a0bd
000000e0: 6258 a73c d185 043b 153d 1f3c 1f0d 6a3d
000000f0: 7125 463c f223 c3bc 7157 b9bd f2ce 27be
00000100: bcc1 47be 7d31 69be c3a0 8fbe 2c5f 92be
00000110: c41f 8abe 4033 9abe 13f1 a2be 351c 93be
00000120: bc87 9dbe 41c9 89be 7e9d 82be e121 54be
00000130: 43ae 41be fb52 12bd c654 4d3c b414 0239
00000140: 502d fe3c ac4c d73c 1270 f13c e834 253c
0.05258523 0.07868244 0.076139174 0.05478546 0.08078604 0.07543568 0.02242387 0.0023330324
-0.10881537 -0.103856966 -0.12928483 -0.11506857 -0.13104887 -0.14224614 -0.12891556 -0.10813033
-0.10517086 -0.09167546 -0.08642824 -0.06366986 -0.05299128 0.021310104 0.09159057 0.05545816
0.08095094 0.07135782 0.04549448 0.07281029 -0.07829371 -0.07941889 -0.09339941 -0.058727797
-0.075538665 -0.079112396 -0.05902203 -0.027638251 0.011670975 0.04454282 0.0889062 0.075592
0.06523147 0.08667803 0.06664623 0.09613211 0.066680096 0.04732807 0.01187379 0.027002815
0.013676441 -0.062786445 -0.06685782 -0.07289777 -0.08486824 -0.07969265 -0.072974354 -0.07850406
0.020427886 0.0020221362 0.009719153 0.05714142 0.012093888 -0.023820851 -0.09049881 -0.16387537
-0.19507498 -0.22772785 -0.2805234 -0.28588235 -0.2697736 -0.30117226 -0.3182455 -0.28732458
-0.3076762 -0.26911357 -0.25510782 -0.20716049 -0.18914132 -0.035723668 0.012532419 0.00012405479
0.031027466 0.026281677 0.029472385 0.010083415

rnn_layer.weight_hh_l0 f4 [3, 3]
00000000: fdd0 9f3e befb 68be 65c3 273f 6c8d a3be
00000010: d6b3 563e 8189 e8be 9f38 073f dda5 a0be
00000020: f7a4 a23f
0.31214133 -0.22752282 0.65532523 -0.31943834 0.2096704 -0.45417407 0.5282077 -0.31376544
1.2706593
