SMNIST/Models/rnn_L1_H16_tanh_drop0.1_sgd_lr0.002_normal_0.025_insize28_e2.ckpt (torch, 5475 bytes, 3 tensors)

fc.weight f4 [10, 16]
0	0x3e6a8417	0.22901951
1	0x3e6cdff1	0.23132302
2	0x3c8a51f3	0.01688478
3	0xbf273c90	-0.65326786
4	0xbe8fc20f	-0.28077742
5	0xbe11fbdc	-0.14256233
6	0xbcdb31b7	-0.026757104
7	0xbe920881	-0.28522113
8	0xbe597f8e	-0.21240065
9	0x3e1b9752	0.15194443
10	0xbe985159	-0.29749563
11	0x3dccbde0	0.09997153
12	0xbd813c38	-0.06310314
13	0xbbc52cdd	-0.006017311
14	0xbe43a3be	-0.19105431
15	0x3e0c8b33	0.13724975
16	0xbf4234fb	-0.7586209
17	0x3ef94693	0.48686656
18	0x3e130447	0.143571
19	0x3f256254	0.6460316
20	0x3ef600cb	0.4804748
21	0xbe38fe50	-0.18065763
22	0xbebce9a8	-0.36897016
23	0xbe795566	-0.24348983
24	0xbe3e36c1	-0.18575574
25	0xbe48fa51	-0.19626738
26	0x3f080bcf	0.5314302
27	0x3e5c4d77	0.21513925
28	0x3d8e0d55	0.06936137
29	0x3ea15428	0.3150952
30	0xbe980d4c	-0.29697645
31	0x3d447c51	0.04797012
32	0x3c9778f0	0.018490285
33	0x3e370bd3	0.17875604
34	0x3ea9540d	0.33071938
35	0xbea119aa	-0.31464893
36	0xbe086ec7	-0.13323508
37	0xbea15fd3	-0.3151842
38	0xbe8bb3f7	-0.2728574
39	0xbc2f8dec	-0.010714989
40	0x3da53972	0.080675974
41	0xbea656c6	-0.32488078
42	0xbd96f78a	-0.07371433
43	0xbe9606ca	-0.29302055
44	0x3df50e27	0.1196559
45	0xbea9dbd8	-0.3317554
46	0xbcbf2123	-0.02333123
47	0x3eec6fbb	0.46178994
48	0x3ee3d4f5	0.4449841
49	0xbdc8e315	-0.098089375
50	0x3db2ed4a	0.087366655
51	0xbedfbe16	-0.43699712
52	0xbe78d215	-0.2429889
53	0xbde235fa	-0.110454515
54	0x3d6c0c78	0.05762908
55	0xbd45d87f	-0.04830217
56	0x3bad2d77	0.005284961
57	0x3e85aa23	0.26106367
58	0xbe9ce3da	-0.30642587
59	0x3e59f3e7	0.21284448
60	0xbe82e3ad	-0.25564328
61	0x3d9912ff	0.07474326
62	0x3d5fccb1	0.05463857
63	0xbdc6a700	-0.096998215
64	0xbef52766	-0.4788162
65	0xbeaf54d1	-0.34244397
66	0x3ed13b76	0.40865678
67	0x3f3ca96a	0.73696005
68	0x3ee07ee7	0.4384682
69	0x3e0edf8b	0.13952462
70	0xbe15e5c1	-0.14638425
71	0x3eccfb4b	0.4003547
72	0xbe898b78	-0.2686422
73	0xbe1adf61	-0.15124275
74	0x3eb779bd	0.35835066
75	0xbe26e3f8	-0.162979
76	0xbd1e2c85	-0.038616676
77	0x3e8269d0	0.25471354
78	0xbcc3d832	-0.0239068
79	0xbed4b98b	-0.41547808
80	0x3f15e3c4	0.5855067
81	0xbe0162e2	-0.12635377
82	0x3e54e4d1	0.20790412
83	0xbec18be0	-0.3780203
84	0xbe86e8ca	-0.2634948
85	0xbe82ec92	-0.25571114
86	0x3d99f122	0.075166956
87	0x3d3bebe9	0.04587928
88	0xbd379eb0	-0.04482907
89	0x3ccfc8b2	0.025364254
90	0xbe8975f1	-0.26847795
91	0xbd8a4cc9	-0.06752927
92	0x3d3aecdb	0.04563604
93	0xbdea405d	-0.114380576
94	0x3e906a63	0.28206167
95	0xbdff43b1	-0.12464083
96	0xbe3fe3eb	-0.18739288
97	0x3e57789c	0.21042103
98	0x3d90f718	0.070783794
99	0xbdafd970	-0.08586395
100	0x3d3c686e	0.04599803
101	0xbdcdd86e	-0.10051046
102	0xbcdcd81e	-0.026958521
103	0xbf147b6b	-0.5800082
104	0x3e824274	0.25441325
105	0xbf44c4a1	-0.7686253
106	0xbe3ad05c	-0.18243545
107	0xbf3e52a5	-0.74344856
108	0x3f121ec3	0.5707819
109	0xbf4faf73	-0.8112709
110	0x3c19b1ce	0.009380771
111	0x3eb68773	0.35650215
112	0x3d84fc3b	0.06493422
113	0xbf2f527d	-0.6848524
114	0xbf1aa5cf	-0.60409254
115	0x3f332615	0.69979984
116	0x3eefbbd3	0.46822986
117	0x3f0515e0	0.51986504
118	0x3f1f7801	0.62292486
119	0x3ea30c7e	0.31845468
120	0x3f1592bf	0.5842704
121	0x3e3c109e	0.18365714
122	0x3ec1d98c	0.37861288
123	0x3eb17f50	0.34667444
124	0x3e0887d7	0.13333069
125	0x3eeaec2f	0.4588332
126	0xbdc512c8	-0.09622723
127	0xbf0cca35	-0.54996043
128	0x3dfe6f55	0.12423579
129	0x3e5409ed	0.20706911
130	0x3ded0326	0.11572866
131	0xbe64050f	-0.22267555
132	0xbea742b6	-0.32668084
133	0xbe907490	-0.2821393
134	0x3c68e344	0.014214341
135	0x3dc0a02f	0.094055526
136	0xbd5c6649	-0.053808484
137	0x3ed00d27	0.40635034
138	0x3be953c5	0.007120582
139	0x3e19493f	0.14969347
140	0xbe0a04e0	-0.13478422
141	0x3e2ba469	0.16761936
142	0xbdced139	-0.100985
143	0xbeb2bde7	-0.3491051
144	0x3d16866d	0.036749292
145	0xbf33838b	-0.70122594
146	0xbe4ffe21	-0.20311786
147	0x3efbaf19	0.49157026
148	0x3eb3bebc	0.35106456
149	0x3f0a29b9	0.53969914
150	0x3f3bd325	0.73369056
151	0x3e8b6747	0.27227232
152	0x3d95cae9	0.07314093
153	0x3ee1d9d5	0.44111505
154	0x3e3a87f3	0.18215923
155	0x3ccadb6f	0.024762837
156	0xbea6b3e2	-0.32559115
157	0x3ebe843f	0.3721027
158	0x3e863466	0.26211852
159	0xbeca792f	-0.3954558

rnn_layer.weight_ih_l0 f4 [16, 28]
0	0x3e19391f	0.14963196
1	0x3e105c03	0.140976
2	0x3d132f03	0.035933506
3	0x3d36ead2	0.044657536
4	0xbbfee2e7	-0.0077785137
5	0xbd980be3	-0.07424142
6	0xbe30e78b	-0.17275827
7	0xbe743fa3	-0.238524
8	0xbe8aceb0	-0.27110815
9	0xbe945d1e	-0.28977293
10	0xbe9b602a	-0.30346805
11	0xbebe4b70	-0.3716693
12	0xbeb7d667	-0.35905764
13	0xbecb747b	-0.39737305
14	0xbf0277f8	-0.5096431
15	0xbed5c536	-0.41752023
16	0xbe9e3ea5	-0.3090717
17	0xbeb3a2b4	-0.3508507
18	0xbe6c19fa	-0.23056784
19	0xbe3c6f85	-0.18401916
20	0xbe3242b7	-0.17408262
21	0xbe0dbac0	-0.1384077
22	0x3d413597	0.047170248
23	0x3dba80e5	0.09106616
24	0x3d85b385	0.06528381
25	0x3dbf3104	0.09335521
26	0x3dc4f0fa	0.09616275
27	0x3d6ecb36	0.058299266
28	0x3dc1d910	0.094652295
29	0x3dd78890	0.10524094
30	0x3e0aa176	0.13538155
31	0x3e54dcd7	0.20787369
32	0x3e6d0f5b	0.23150389
33	0x3e730183	0.23731045
34	0x3dcfe105	0.10150341
35	0x3e1589bd	0.14603324
36	0x3d5cf079	0.05394027
37	0x3d99039d	0.07471392
38	0x3da3f15b	0.08005019
39	0x3d8f5655	0.069988884
40	0x3c06403d	0.008194027
41	0xbe834538	-0.25638747
42	0xbedb875f	-0.42876717
43	0xbe5a9282	-0.21344951
44	0xbd0ac63a	-0.03388045
45	0xbd53d3ac	-0.051715538
46	0xbd108a4a	-0.035288133
47	0xbd98b270	-0.07455909
48	0xbd8010fb	-0.06253239
49	0x3b46cc95	0.0030334343
50	0x3dc2aa06	0.09505086
51	0x3de3d109	0.11123855
52	0x3e00aa9f	0.12565087
53	0x3e20fe70	0.1572206
54	0x3e0405a9	0.12892784
55	0x3dfe0d30	0.12404859
56	0x3e2ec9e3	0.17069201
57	0x3e461d6c	0.19347161
58	0x3e32aa44	0.17447764
59	0x3e13b28e	0.14423582
60	0x3d5bb60e	0.053640418
61	0xbd15fb75	-0.03661676
62	0xbd971d2e	-0.073786125
63	0xbe16fcd7	-0.14744888
64	0xbdba7cbe	-0.09105824
65	0xbe166913	-0.1468852
66	0xbe1c25bc	-0.1524877
67	0xbdc07192	-0.09396662
68	0xbe0f6e03	-0.1400681
69	0xbeb8c71a	-0.36089402
70	0xbf1b5059	-0.60669476
71	0xbed16c69	-0.40903023
72	0xbe0464ab	-0.12929027
73	0xbe4f3eb6	-0.20238766
74	0xbe573da3	-0.21019606
75	0xbe7da797	-0.24770962
76	0xbe71367b	-0.23555939
77	0xbe08f859	-0.13375987
78	0xbbd88872	-0.0066080624
79	0x3e077dff	0.13231657
80	0x3e15e4d7	0.14638077
81	0x3e30baec	0.17258805
82	0x3e10ea08	0.14151776
83	0x3e321253	0.17389803
84	0xbd2dbba9	-0.042415295
85	0xbd1c77d7	-0.038200226
86	0xbd198c1f	-0.037487146
87	0xbd803495	-0.06260029
88	0xbd989454	-0.07450166
89	0xbd5a22a2	-0.053255685
90	0xbb39a713	-0.0028328344
91	0xbd6e3dc0	-0.05816436
92	0x3c7e7ea8	0.015533127
93	0xbd130642	-0.03589464
94	0x3dcc5dfd	0.09978864
95	0x3d550cd4	0.052014187
96	0x3d694c51	0.056957547
97	0x3da04869	0.07826311
98	0x3dd9d411	0.106361516
99	0x3d8a7b8e	0.067618474
100	0x3da08612	0.07838072
101	0x3cbb600b	0.022872945
102	0x3da3bf4f	0.079954736
103	0x3d2172c9	0.03941611
104	0x3d490395	0.04907568
105	0x3d83491b	0.06410428
106	0xbd0e73fd	-0.034778584
107	0xbd4524ef	-0.048130926
108	0xbcf5638a	-0.02995469
109	0xbd119833	-0.03554554
110	0xbd91a1c2	-0.07110931
111	0xbcafb143	-0.02144683
112	0xbe8b4fea	-0.27209407
113	0xbe8104ff	-0.25199124
114	0xbe91f8ad	-0.28510037
115	0xbe818658	-0.2529781
116	0xbe20fa7b	-0.1572055
117	0xbcd1160d	-0.02552321
118	0x3cb8b37a	0.022546519
119	0x3d10b358	0.035327286
120	0x3cd41d5e	0.02589291
121	0x3db49df7	0.08819192
122	0x3da998ca	0.08281095
123	0x3e0de01a	0.13855019
124	0x3e888d3d	0.26670256
125	0x3ef8ddbd	0.48606673
126	0x3f3c8c08	0.7365117
127	0x3ecf69ef	0.40510508
128	0x3e18791f	0.14889954
129	0x3e6a54ef	0.22883962
130	0x3e93f2e2	0.28896242
131	0x3eadcdf5	0.33946195
132	0x3e98cd66	0.29844207
133	0x3e0a82ac	0.1352641
134	0xbe0ee7b4	-0.13955575
135	0xbe370d46	-0.17876157
136	0xbe902dd6	-0.2815997
137	0xbe87dbbc	-0.26534832
138	0xbe70d951	-0.235204
139	0xbe4cf763	-0.20016246
140	0xbe47f786	-0.19528016
141	0xbe2eada6	-0.17058429
142	0xbe31a0b2	-0.17346457
143	0xbe639647	-0.22225295
144	0xbde63cdc	-0.11242077
145	0xbd292690	-0.04129654
146	0xbc9540ce	-0.018219378
147	0x3c8bc3b9	0.017061101
148	0x3d1e5853	0.03865845
149	0x3d94ed9a	0.072718814
150	0x3d7f1c16	0.062282644
151	0x3dcda857	0.10041874
152	0x3e04435d	0.12916322
153	0x3ee83f87	0.45360968
154	0x3f367614	0.7127392
155	0x3ec2e6ae	0.3806662
156	0x3deeffe4	0.11669901
157	0x3e0c766a	0.13717046
158	0x3e470b5d	0.19437928
159	0x3e7ea5f4	0.24867994
160	0x3e613e54	0.21996433
161	0x3dcfb787	0.10142427
162	0x3b1c46ee	0.0023845988
163	0xbe060033	-0.13086013
164	0xbe3107bf	-0.17288111
165	0xbdd5ac41	-0.104332455
166	0xbe2a1d47	-0.16612731
167	0xbe4e7fa0	-0.20165873
168	0xbd082845	-0.03324153
169	0xbcd51046	-0.026008736
170	0xbd55a5d9	-0.052160118
171	0xbdad4c30	-0.08461797
172	0xbdaefcd0	-0.08544314
173	0xbc64ab06	-0.013956791
174	0xbc58b419	-0.013226532
175	0x3d797846	0.060905717
176	0x3c98b87f	0.018642662
177	0x3dc44375	0.09583179
178	0x3d9c8f92	0.07644571
179	0x3d793c67	0.06084862
180	0x3e0e9714	0.13924819
181	0x3eaf4e01	0.342392
182	0x3ee700ab	0.45117697
183	0x3e8557f2	0.2604366
184	0x3da3ee39	0.08004422
185	0x3de1ded0	0.11028826
186	0x3e185fb0	0.14880252
187	0x3e33c774	0.17556554
188	0x3dcb58d9	0.09929056
189	0x3dbc0533	0.09180679
190	0x3bb76fbb	0.005598036
191	0xbcd19209	-0.02558233
192	0xbd920992	-0.07130732
193	0xbd883e3f	-0.066524975
194	0xbd67b8f5	-0.056572873
195	0xbd67ce89	-0.05659345
196	0x3c477c51	0.012175635
197	0x3d407f68	0.046996504
198	0xbcd269ee	-0.025685277
199	0xbdcb456f	-0.09925353
200	0xbe7db8af	-0.24777482
201	0xbe68a97c	-0.22720903
202	0xbe8bf8d8	-0.2733829
203	0xbe9156aa	-0.28386432
204	0xbe5e2ed3	-0.2169755
205	0xbe8b68dc	-0.2722844
206	0xbe286b84	-0.16447264
207	0xbea3cfc9	-0.31994465
208	0xbecfb90e	-0.40570873
209	0xbed0c8c5	-0.40778175
210	0xbe85a34d	-0.2610115
211	0xbe0aadbe	-0.1354284
212	0xbe3aef2b	-0.18255298
213	0xbe2e3d3d	-0.17015548
214	0xbe5c4bbd	-0.21513267
215	0xbe241a74	-0.16025716
216	0xbdef72a6	-0.11691789
217	0xbde35fa2	-0.11102225
218	0xbe2e973e	-0.17049882
219	0xbe0e06e9	-0.13869824
220	0xbda7a437	-0.08185618
221	0x3ae8bb94	0.0017756098
222	0x3d84202a	0.06451447
223	0x3d015d25	0.03158297
224	0x3dce2c52	0.10067047
225	0x3dcfa873	0.10139551
226	0x3d866025	0.06561307
227	0x3d3c9701	0.046042446
228	0xbd8c308f	-0.06845199
229	0xbe662953	-0.22476701
230	0xbe87bd44	-0.26511586
231	0xbeb68e39	-0.35655382
232	0xbe97d042	-0.29651076
233	0xbe990241	-0.29884532
234	0xbe626078	-0.22107112
235	0xbe184f11	-0.14873911
236	0x3c0a5b37	0.008444599
237	0xbde18f0b	-0.110136114
238	0xbe4f5f15	-0.20251115
239	0xbe42542c	-0.18977422
240	0xbdfeb903	-0.12437632
241	0xbe4d004e	-0.20019647
242	0xbe45f942	-0.19333366
243	0xbe5c2321	-0.21497776
244	0xbe8fb780	-0.28069687
245	0xbdebb373	-0.115088366
246	0xbd29278e	-0.041297488
247	0x3cca7d3e	0.024717923
248	0x3d18964e	0.037252717
249	0x3dcfd2e6	0.101476476
250	0x3da206ef	0.07911479
251	0x3dd31074	0.103058726
252	0x3eac0136	0.33594674
253	0x3eb15c11	0.34640554
254	0x3ead896a	0.338939
255	0x3e98adb6	0.2982003

rnn_layer.weight_hh_l0 f4 [16, 16]
0	0x3e5a6616	0.21328005
1	0xbd66f3e4	-0.056384936
2	0xbebf6725	-0.3738338
3	0xbe9dbec5	-0.30809608
4	0xbe9c9c9d	-0.30588236
5	0x3d71a978	0.05899951
6	0x3d8ea1ba	0.06964441
7	0xbda85b80	-0.08220577
8	0x3ec6f224	0.38856614
9	0xbe0689f6	-0.13138565
10	0xbeefb58d	-0.468182
11	0xbedc6305	-0.43044296
12	0x3ef754f1	0.48306993
13	0xbe9c67ed	-0.3054804
14	0x3d3fd805	0.04683687
15	0x3d6f17a1	0.058372144
16	0x3e44393c	0.19162458
17	0x3de7a67a	0.1131105
18	0x3f13bfd1	0.57714564
19	0xbdc36284	-0.09540275
20	0xbf1a6481	-0.60309607
21	0xbebee42e	-0.37283462
22	0xbdbc44b7	-0.09192794
23	0x3d1c651c	0.038182363
24	0xbe8d7eac	-0.27635705
25	0x3f181516	0.59407175
26	0xbc502afd	-0.012705562
27	0x3d11dbab	0.035609882
28	0xbe909b25	-0.28243366
29	0x3cd1fcdc	0.025633268
30	0x3e31cb3b	0.17362683
31	0xbd142dbe	-0.036176436
32	0x3e9c6dee	0.3055262
33	0x3dc08b19	0.09401531
34	0x3ed0c32a	0.40773898
35	0x3ddec9e5	0.10878352
36	0xbe929a38	-0.28633285
37	0xbe48be46	-0.19603834
38	0xbe6c01cd	-0.23047562
39	0xbcb2c43c	-0.021822087
40	0xbd03b1d2	-0.032152005
41	0x3f2fd706	0.68687475
42	0xbe24588f	-0.16049407
43	0x3de8ca2f	0.113666885
44	0xbe180ede	-0.14849421
45	0x3dbb7e37	0.09154933
46	0x3f533f3a	0.8251835
47	0x3d9f1e0d	0.077694036
48	0xbee60e8b	-0.4493297
49	0xbd2b2a35	-0.0417883
50	0xbc882bc1	-0.016622426
51	0x3e882d4d	0.26597062
52	0x3f0a9628	0.5413537
53	0x3e0ab069	0.13543858
54	0xbd807096	-0.06271474
55	0xbcb288fc	-0.021793835
56	0xbea71d9c	-0.32639778
57	0xbdc5b808	-0.09654242
58	0x3f32d33a	0.69853556
59	0x3eb228a1	0.34796622
60	0xbed4d945	-0.41572013
61	0x3d468a8c	0.048471972
62	0xbe75542b	-0.23957889
63	0xbd2dc883	-0.04242755
64	0xbf0bc350	-0.545949
65	0xbe03b562	-0.12862161
66	0x3db676b7	0.08909362
67	0x3e3f2da4	0.18669754
68	0x3f118d15	0.568559
69	0x3decba6a	0.11558993
70	0x3d29a735	0.041419227
71	0x3dc9ee3e	0.09859894
72	0xbe95a1d9	-0.29225042
73	0xbe94b06c	-0.2904085
74	0x3f071ab8	0.52775145
75	0x3e8aca82	0.27107626
76	0xbeb56070	-0.35425138
77	0x3df96fb1	0.121795066
78	0xbf210ca4	-0.62909913
79	0xbe22e65f	-0.15908192
80	0xbeb9f401	-0.36318973
81	0xbcafe80f	-0.021472959
82	0xbe9b0429	-0.3027661
83	0xbd56f01e	-0.052475087
84	0x3ea6b024	0.3255626
85	0x3e53afa5	0.20672472
86	0x3d971c4e	0.073784456
87	0xbc80cf84	-0.015723951
88	0xbc8a8492	-0.016908918
89	0xbf08b6bc	-0.5340383
90	0x3e8eb3b3	0.27871475
91	0x3e1d973b	0.15389721
92	0xbe1159d2	-0.1419442
93	0xbd8749c6	-0.06605868
94	0xbf0b4f80	-0.5441818
95	0xbc8bd5d1	-0.017069729
96	0xbe7cd171	-0.2468927
97	0xbe0ca2fc	-0.13734049
98	0xbf1a8a65	-0.60367423
99	0x3bf2b961	0.007407353
100	0x3ec8ae3b	0.39195427
101	0x3ea7fbb9	0.32809237
102	0x3e3fd3a7	0.18733083
103	0xbd306dd0	-0.043073475
104	0x3e763483	0.24043469
105	0xbecf1d68	-0.40452123
106	0x3e26cd0f	0.16289161
107	0x3dac7468	0.0842064
108	0x3d0455fa	0.032308556
109	0xbcd19767	-0.02558489
110	0xbea9f74a	-0.3319648
111	0xbd001338	-0.03126833
112	0xbb87cf46	-0.004144582
113	0xbed4e8a4	-0.4158374
114	0xbeacf020	-0.3377695
115	0x3e533384	0.2062512
116	0x3ebb05c6	0.36527842
117	0x3ed3710a	0.4129718
118	0x3e9790f2	0.29602772
119	0x3e8a5867	0.2702057
120	0x3f4e5b36	0.80607927
121	0xbebc9c74	-0.36838114
122	0xbdeea64b	-0.116528116
123	0xbe804948	-0.2505591
124	0x3f0f5b79	0.5599895
125	0xbcc61f84	-0.02418495
126	0xbd8e2f12	-0.06942572
127	0x3e11f1b3	0.14252357
128	0xbd8bc80a	-0.06825264
129	0x3deee460	0.11664653
130	0xbea1c5f0	-0.31596327
131	0xbe20c8cd	-0.157016
132	0x3d414ea2	0.04719413
133	0xbbc88152	-0.006118932
134	0x3d35a62d	0.04434793
135	0xbddf30fb	-0.10898014
136	0x3f07ad51	0.52998835
137	0xbeff41c0	-0.4985485
138	0xbe980f57	-0.29699203
139	0xbeebf9b5	-0.4608895
140	0x3f414ee5	0.7551101
141	0xbe56bfeb	-0.20971648
142	0xbee273d0	-0.44228983
143	0x3e866e12	0.26255852
144	0x3e993466	0.2992279
145	0xbe9209d2	-0.28523117
146	0xbe9676e1	-0.29387572
147	0x3c3fd33f	0.01170808
148	0xbe23e89e	-0.16006705
149	0x3e412651	0.18862273
150	0x3e724be4	0.23661762
151	0x3eae946f	0.3409762
152	0x3f174102	0.5908357
153	0x3ec57ac0	0.38570213
154	0xbeb6212e	-0.3557219
155	0xbc667249	-0.014065334
156	0x3e589e2f	0.21154092
157	0x3d80bd06	0.06286053
158	0xbe8f5906	-0.27997607
159	0xbe471466	-0.19441375
160	0xbe9e71e6	-0.30946273
161	0xbcd95bbb	-0.026532998
162	0x3afa2e21	0.0019087234
163	0x3ea78a59	0.32722738
164	0x3ee2028a	0.44142562
165	0x3e5a8fd6	0.21343932
166	0x3d69671f	0.05698311
167	0x3e903cf7	0.28171512
168	0xbea0ca67	-0.3140442
169	0x3e6dc251	0.23218657
170	0x3f1d29c8	0.6139188
171	0x3f42bedd	0.76072484
172	0xbf0914a0	-0.53547096
173	0x3f2d8022	0.6777364
174	0xbab6ef6b	-0.001395685
175	0xbdb6dd31	-0.08928908
176	0x3e5df4c0	0.21675396
177	0xbe55533a	-0.2083253
178	0xbda42d71	-0.0801648
179	0x3dd984c0	0.10621023
180	0x3d080dd2	0.033216305
181	0x3e15c29f	0.14625023
182	0x3e4ce345	0.20008571
183	0x3f29a310	0.6626444
184	0x3e63c510	0.22243142
185	0x3eed9574	0.46403086
186	0xbe0c7fbe	-0.13720605
187	0x3ee3e8bd	0.44513503
188	0xbe64dc3f	-0.22349642
189	0x3f3d4188	0.7392812
190	0xbc0435e4	-0.008069489
191	0xbe8c6609	-0.27421597
192	0xbe19e14a	-0.15027347
193	0x3dc3b010	0.09555066
194	0xbe2f497c	-0.17117876
195	0xbcedcae2	-0.029027406
196	0x3d14bec6	0.03631475
197	0x3ca03c96	0.01956014
198	0x3ccca4d2	0.024980936
199	0xbe2cf07e	-0.16888615
200	0x3d94f657	0.07273548
201	0xbf38372a	-0.71959174
202	0xbdac15c9	-0.08402593
203	0xbf3913df	-0.72295946
204	0x3f1763ee	0.59136856
205	0xbee6907a	-0.45032102
206	0xbe551532	-0.20808867
207	0x3d152382	0.036410816
208	0x3df1deb4	0.118100554
209	0xbede0d6d	-0.43369618
210	0xbe8b8d93	-0.2725645
211	0x3eaaee49	0.33384922
212	0x3e93b824	0.28851426
213	0x3e990a1a	0.2989052
214	0x3eb1db2c	0.34737527
215	0x3f340d77	0.70333046
216	0x3f15f999	0.5858398
217	0x3e1e637e	0.15467641
218	0xbe4eb016	-0.20184359
219	0x3c2c318b	0.010509859
220	0x3e01faff	0.12693404
221	0x3efff4c4	0.4999143
222	0x3d9c0d31	0.076197036
223	0xbe2a574e	-0.16634867
224	0xbe93bab5	-0.28853384
225	0x3d896dda	0.06710406
226	0xbbd49a0c	-0.0064880904
227	0x3d8cf178	0.06881994
228	0xbd40186b	-0.046898287
229	0x3d194274	0.03741689
230	0x3d37a6d1	0.044836823
231	0xbe92b486	-0.28653353
232	0xbe447bfc	-0.19187921
233	0x3ea64bee	0.32479805
234	0x3d1eceb2	0.03877134
235	0xbd5d52e0	-0.054034114
236	0xbea6f44e	-0.32608265
237	0xbda62ba9	-0.08113796
238	0x3e35b971	0.17746522
239	0xbc2ef644	-0.0106788315
240	0xbde86446	-0.11347251
241	0x3ec1550f	0.37760207
242	0x3e45185e	0.19247577
243	0xbdf28882	-0.11842443
244	0xbe3fc4e8	-0.18727458
245	0xbe8cb20f	-0.27479598
246	0xbe881f03	-0.2658616
247	0xbe180ced	-0.14848681
248	0xbe80d131	-0.251596
249	0x3d85c795	0.06532208
250	0x3d9d307a	0.07675262
251	0xbe260d1f	-0.16215943
252	0x3b9befc3	0.0047588064
253	0xbe1df3d9	-0.15425052
254	0xbc0e2939	-0.00867682
255	0x3c8bb2ab	0.017052969
