SMNIST/Models/rnn_L1_H3_tanh_drop0.1_sgd_lr0.002_normal_0.015_insize28_e0.ckpt (torch, 2023 bytes, 3 tensors)

fc.weight f4 [10, 3]
00000000: 3819 13bf eb5e e33e a901 4cbd 5680 9b3d
00000010: d8b8 cd3e 3adc e7bb bddd d5be 18c2 00bf
00000020: 0c7d 5e3e af1a 003e 80b9 0cbd 5243 91be
00000030: faac 89be 0aec cf3e cb5e 7a3e d65d 7abe
00000040: f8b5 10bf 8c02 6abe f9a5 b63e 8ccf 3d3e
00000050: 7202 25be f909 c5bd 1dfc d93d c233 c2be
00000060: 0e26 84be e2bd 933e 0ccf abbd 1f7e eebe
00000070: 823f af3d 5fb9 21be
-0.57460356 0.44408354 -0.04980627 0.075928375 0.40180087 -0.0070758136 -0.41770735 -0.50296164
0.21727389 0.12510179 -0.034356594 -0.28371674 -0.26889783 0.4060977 0.24450223 -0.24449858
-0.5652766 -0.22852534 0.35673502 0.18536204 -0.16114214 -0.09621043 0.1064379 -0.37930113
-0.25810283 0.28855807 -0.083891004 -0.46580598 0.08557035 -0.1579337

rnn_layer.weight_ih_l0 f4 [3, 28]
00000000: 35e9 02bc 5756 943c 7ca9 7e3c bb4f fabb
00000010: 5095 a33c f87a d93c 373a 173c 5d46 db3c
00000020: b5b7 64bd 2229 d4bc 43f1 0bbc f6a9 ce3c
00000030: b38b 463c 64b2 89bb a252 67ba 1e13 953c
00000040: e590 733c 46cd e13a 1a08 9f3b 9be2 713c
00000050: 1266 a2bb 0c12 2a3b 558c 003d dbb7 62bc
00000060: bb42 8a3c 538a 233c 18d5 77bc a374 483c
00000070: b368 2e3b 2f47 c93a d2ba 4abc 63c4 cb3c
00000080: 990c 153c 3ef8 e6ba b3c3 2bbc 98e0 7fbc
00000090: 82b7 d2bb a265 123c 8423 0e3d 03bb d33b
000000a0: 87ac 8fbc 5fda f439 ef32 b9bb 63c3 403d
000000b0: 2e8b ad3c aa31 3e3c 5f17 9bbc f417 5f3c
000000c0: b2cf d43c 95ce f8bb 1a0a 813c 466e 883c
000000d0: 81fc d0b9 7c34 043b d250 033c 00a0 203b
000000e0: 0fae 27bb 2cbd abbc b62a 59bc 216b 0a3d
000000f0: bb58 2bbb f059 ddbb 8e72 07bc 897c c3bc
00000100: f203 5dbc bf17 c3bb e270 a9bb 0b58 b4bb
00000110: bc5e b23c 0924 5e3c b838 aeba bbdb f13c
00000120: 3120 6cbc 7fc7 b0bb 41da 63ba 1e6d 6b3b
00000130: 4c43 e6bc ae57 443c 7d9e 3bbb d9f1 e8bc
00000140: 13ad ac3b e5d2 1c3b 7e22 d23b 8767 53bc
-0.007990171 0.018107576 0.015543338 -0.007638899 0.019968659 0.026547894 0.009230188 0.02676695
-0.05583926 -0.02589852 -0.008541408 0.025227528 0.012118268 -0.004202174 -0.0008824264 0.018197592
0.0148660885 0.0017227314 0.0048532607 0.0147635 -0.0049560154 0.0025950698 0.03138383 -0.01383778
0.016877523 0.0099817095 -0.015126489 0.01223484 0.0026612699 0.0015356297 -0.012373643 0.024873918
0.009097242 -0.0017621589 -0.01048367 -0.015617512 -0.0064305672 0.008935364 0.03470184 0.0064615025
-0.017538322 0.00046702006 -0.0056518237 0.047061335 0.02118453 0.0116085205 -0.018932043 0.013616551
0.025977943 -0.007592986 0.015751887 0.016654145 -0.00039860982 0.0020172885 0.0080148745 0.002450943
-0.0025585925 -0.020964228 -0.013254812 0.033793572 -0.0026145417 -0.006755106 -0.008267058 -0.023863094
-0.01348971 -0.0059537585 -0.0051709274 -0.0055036596 0.021773688 0.013558396 -0.001329205 0.029523721
-0.014411972 -0.0053948755 -0.0008691885 0.0035923193 -0.028108262 0.011983795 -0.0028628402 -0.028435634
0.0052696555 0.0023929414 0.006412803 -0.012903101

rnn_layer.weight_hh_l0 f4 [3, 3]
00000000: 7ba1 123c fa40 c93c 2a9f 8ebb 1da9 b4bc
00000010: 80a7 ac3c bde6 2f3c f665 f9ba 59b7 6ebc
00000020: eb36 dbba
0.008949633 0.024567116 -0.00435247 -0.022053296 0.021075964 0.010736165 -0.0019027579 -0.014570081
-0.0016724741
