SMNIST/Models/rnn_L1_H3_tanh_drop0.1_sgd_lr0.002_normal_0.01_insize28_e0.ckpt (torch, 2023 bytes, 3 tensors)

fc.weight f4 [10, 3]
00000000: f728 71be 7a4f 8b3e 9a42 a53e 67ec 28be
00000010: 8380 073f b15e 87bd c3a5 f1be 7e56 bc3e
00000020: a2bc 9cbe 0fc8 dfbe 1bee 9d3c c396 133f
00000030: 4600 1d3e 42d4 713e e925 b4bd 64c4 00ba
00000040: 8e31 58be a5b6 103f c661 033f 9a6b 303e
00000050: e939 103d d1db d7be 703c c7be af6f f3be
00000060: 5460 fe3e 61ba 9ebe b96c 7cbe 8e91 d83e
00000070: bd27 6fbd 4927 083d
-0.23550783 0.27209073 0.32277375 -0.1649643 0.5293047 -0.06609858 -0.4719678 0.36784738
-0.30612665 -0.4370732 0.019278577 0.5765192 0.15332136 0.23616126 -0.08796293 -0.0004912077
-0.21112654 0.56528693 0.51321065 0.17228547 0.035211477 -0.42159894 -0.38913298 -0.47546145
0.49682868 -0.3100157 -0.2465085 0.4229855 -0.058387507 0.03324059

rnn_layer.weight_ih_l0 f4 [3, 28]
00000000: f7a2 89bb 816f 71bc 4cdf d8bb cbdb e73b
00000010: 8d69 8d3c f719 963b 6856 8fbc 7243 c7bc
00000020: b870 653c 5056 2abc 94b0 213c 696c c43a
00000030: e78b e23a ca2d 313c b25c f63c b377 e0bb
00000040: 396b 693b be77 063b 6650 66bc e6ef 2aba
00000050: 385b f93b 9c56 573c d0bc d3bb 897b 82bb
00000060: 84bd b43b 5988 9dbc ce90 c93a 869c dabc
00000070: b34f 50bc ab0e 953c 53e5 f439 373c 063c
00000080: e8d0 88bb 817c 9ebc 664a 033b 85d1 86bc
00000090: a294 0e3a d4eb 903c f00c 8c3b 0a77 673b
000000a0: 3f70 113c d09a cbbb 1409 febc 3b03 b73b
000000b0: 6ad8 ff3c 0d4e 4a3c e2a0 c33b 2f9e 46bc
000000c0: 791a c13c 67f4 74bb c018 ba3b a839 0b3c
000000d0: 22c3 e73b 06af edbb 0440 9fba 7e62 c3bb
000000e0: f0af bf3a e901 3fba b4ea 853a dad2 a23b
000000f0: d0e9 8dbb 6e6c c43c b277 593b 0e55 f23b
00000100: 3c09 2ebc 853d 89b7 12eb b7bb ea95 94bb
00000110: 2bee be3b 3562 733a 21f5 c43b 2103 b6ba
00000120: b887 fb3b 942d 283b 2a53 083b 55ba d9bc
00000130: a6ce e5ba cb73 5b3c fd2f 5dba 2cda 0bbc
00000140: 33b7 c83b 063b 76bc 8e52 263b 5d65 13bc
-0.004200335 -0.014736057 -0.006618416 0.007075762 0.017262245 0.004580732 -0.017497256 -0.024324153
0.014003925 -0.010396555 0.00986876 0.0014985922 0.0017284126 0.01081414 0.030073497 -0.0068502068
0.0035616888 0.002051815 -0.014057254 -0.0006520733 0.007609751 0.013143208 -0.006461717 -0.0039820117
0.005515756 -0.019230055 0.0015378238 -0.026685964 -0.012714314 0.01819547 0.00046710166 0.008193067
-0.004175294 -0.019346477 0.0020033359 -0.016457329 0.0005439018 0.017690577 0.004274003 0.0035318756
0.008876859 -0.0062135234 -0.031010188 0.005585102 0.031231124 0.01234771 0.0059701065 -0.012122675
0.023572193 -0.003737712 0.00567922 0.008497633 0.007072822 -0.0072535304 -0.0012149815 -0.005962669
0.0014624577 -0.00072863564 0.0010217042 0.004968983 -0.004330851 0.023977485 0.0033182916 0.007395393
-0.010622319 -1.636032e-05 -0.0056127394 -0.0045344727 0.0058267317 0.00092843483 0.006010667 -0.001388643
0.007676091 0.0025661932 0.0020801523 -0.026578108 -0.00175329 0.013394306 -0.0008437632 -0.008535903
0.0061253547 -0.015028721 0.0025378796 -0.008996335

rnn_layer.weight_hh_l0 f4 [3, 3]
00000000: 2365 763c 33fd debb 5f33 983a 6dd7 a53b
00000010: bc5e d23c 9fa5 20bc e9da 09bc e61a 683c
00000020: cf72 893c
0.015038761 -0.006805086 0.001161199 0.005061081 0.025679938 -0.009805112 -0.008414009 0.014166569
0.016778378
