SMNIST/Models/rnn_L1_H3_tanh_drop0.1_sgd_lr0.002_normal_0.025_insize28_e1_iter150.ckpt (torch, 2087 bytes, 3 tensors)

fc.weight f4 [10, 3]
-0.54321367 0.28935653 -0.22358736 0.14662774 -0.13492581 0.31942225 0.061734438 0.23171419
0.5433797 0.26089334 0.12654561 0.4021775 0.22646846 -0.3473463 0.06805726 0.19464393
0.40986001 -0.059148885 -0.39244884 0.08539575 0.18255399 0.91895074 -0.017081337 -1.2221788
0.03496973 -0.46013927 -0.3710484 0.6189448 0.41690364 -0.6160302
00000000: 0d10 0bbf 8a26 943e 16f4 64be 9525 163e
00000010: fe29 0abe 508b a33e 40dd 7c3d 7c46 6d3e
00000020: ef1a 0b3f d093 853e 2c95 013e 36ea cd3e
00000030: 59e7 673e 60d7 b1be 9b61 8b3d bd50 473e
00000040: 2cd9 d13e 1a46 72bd 0eef c8be f8e3 ae3d
00000050: 6fef 3a3e 5b40 6b3f 29ee 8bbc 5b70 9cbf
00000060: 6b3c 0f3d 6097 ebbe 0efa bdbe 2b73 1e3f
00000070: 6574 d53e 28b4 1dbf

rnn_layer.weight_ih_l0 f4 [3, 28]
-0.04994109 -0.027165035 -0.05045746 -0.0904346 -0.10672692 -0.06651715 0.008054915 0.070031345
0.040661108 0.06755603 0.10498193 0.10713125 0.088800296 0.088543184 0.12633087 0.1356113
0.086528525 0.05918997 0.08730133 0.081231885 0.026793301 -0.049734067 -0.09450857 -0.07711672
-0.055624288 -0.03494975 -0.035894033 -0.050448384 -0.06545867 -0.13638036 -0.08323672 -0.119066946
-0.009358099 -0.066085875 0.041378066 0.024756698 0.14874813 0.15394956 0.15087783 0.17651027
0.23559551 0.16642292 0.19846629 0.13622174 0.17263135 0.124687 0.11070721 0.068251945
0.040642165 -0.018053418 -0.06922211 -0.07515262 -0.06984987 -0.102044076 -0.0700847 -0.1262431
0.029425154 0.105693996 0.07714393 0.079310335 0.06272909 0.032239772 -0.01959172 -0.13623002
-0.15832716 -0.19217834 -0.1919252 -0.20389897 -0.2316768 -0.22333181 -0.24283832 -0.23854992
-0.22458644 -0.21690254 -0.19956136 -0.15222043 -0.047472633 0.021941425 0.0645874 0.052679308
0.019301564 0.11299575 0.050981037 0.07297257
00000000: 078f 4cbd 3589 debc 7bac 4ebd c735 b9bd
00000010: a593 dabd 253a 88bd c3f8 033c 986c 8f3d
00000020: 438c 263d d15a 8a3d c400 d73d a167 db3d
00000030: eedc b53d 2156 b53d e15c 013e b0dd 0a3e
00000040: de35 b13d 2f71 723d 0acb b23d e75c a63d
00000050: a07d db3c f3b5 4bbd b68d c1bd 5fef 9dbd
00000060: 4bd6 63bd 7827 0fbd 9f05 13bd f7a2 4ebd
00000070: 320f 86bd 4ba7 0bbe 0378 aabd 5fd9 f3bd
00000080: b652 19bc 0858 87bd 0c7c 293d 8fce ca3c
00000090: 6e51 183e f4a4 1d3e b87f 1a3e 1cbf 343e
000000a0: f33f 713e c56a 2a3e bf3a 4b3e b67d 0b3e
000000b0: 46c6 303e e65b ff3d 76ba e23d adc7 8b3d
000000c0: 6678 263d c3e4 93bc 52c4 8dbd 9ee9 99bd
000000d0: 730d 8fbd 7cfc d0bd 9188 8fbd df45 01be
000000e0: 050d f13c 1876 d83d a3fd 9d3d 756d a23d
000000f0: 1c78 803d da0d 043d d17e a0bc e27f 0bbe
00000100: 8420 22be 66ca 44be 0a88 44be e4ca 50be
00000110: af3c 6dbe 18b1 64be 9caa 78be 6e46 74be
00000120: fdf9 65be b31b 5ebe d059 4cbe acdf 1bbe
00000130: aa72 42bd 81be b33c 6646 843d 42c6 573d
00000140: 501e 9e3c 516a e73d 7ed1 503d a572 953d

rnn_layer.weight_hh_l0 f4 [3, 3]
0.43494403 0.32579777 -0.7777972 0.014412019 0.1138826 -0.07540673 -0.53369874 -0.4855384
1.0704336
00000000: fcb0 de3e f7ce a63e b81d 47bf 6420 6c3c
00000010: 483b e93d d86e 9abd 7ba0 08bf 7d98 f8be
00000020: f803 893f
