SMNIST/Models/rnn_L1_H3_tanh_drop0.1_sgd_lr0.002_normal_0.015_insize28_e2_iter225.ckpt (torch, 2151 bytes, 3 tensors)

fc.weight f4 [10, 3]
0.42923567 -0.16817023 0.15635224 0.5247599 0.26831982 0.09243834 0.4627888 -1.1630893
0.13931547 0.12056721 0.33243865 0.21082965 -0.28285766 0.5399519 0.26998663 -0.037520654
-0.15050396 0.3371823 0.66925 -1.8269851 -0.38779217 -1.8165753 1.4058408 -1.3848523
-0.049289066 0.5578418 0.13284539 -1.7884207 1.0196708 -0.45591995
00000000: c7c4 db3e d134 2cbe cd1a 203e aa56 063f
00000010: 3761 893e 5050 bd3d a7f2 ec3e 1ce0 94bf
00000020: b7a8 0e3e f1eb f63d 6635 aa3e bae3 573e
00000030: b8d2 90be 4a3a 0a3f b03b 8a3e 42af 19bd
00000040: b61d 1abe 29a3 ac3e f853 2b3f a6da e9bf
00000050: b28c c6be 8a85 e8bf 97f2 b33f d742 b1bf
00000060: 55e3 49bd b8ce 0e3f 9f08 083e f8ea e4bf
00000070: 9384 823f 576e e9be

rnn_layer.weight_ih_l0 f4 [3, 28]
0.18138932 0.20748645 0.20406547 0.18334319 0.16759494 0.09911428 0.033934455 0.033556998
-0.0399614 -0.013087349 -0.047231674 -0.04204239 -0.6034009 -0.27322805 -0.3581665 -0.6353515
-0.60967803 -0.08397896 -0.054659195 -0.043232087 -0.046419118 0.02778886 0.1675974 0.18879075
0.22691572 0.20783463 0.17434339 0.20161438 -0.16575259 -0.16687718 -0.17989223 -0.1526847
-0.1664542 -0.14530784 -0.12041639 -0.09761164 -0.07550125 -0.059495162 -0.012162953 -0.0029805473
0.4031594 0.18379216 0.20382258 0.42660296 0.38936824 0.017339293 -0.049316783 -0.0378339
-0.042906635 -0.11983311 -0.14594425 -0.1769857 -0.18822445 -0.17202252 -0.16051772 -0.16596295
0.28430766 0.26590174 0.27223805 0.29720846 0.12922946 -0.10815886 -0.30023894 -0.36774486
-0.38125524 -0.4175516 -0.46247742 -0.38364884 -1.1266037 -0.42687395 -0.71523046 -1.2063029
-1.3092369 -0.41571352 -0.5251111 -0.4778675 -0.47483134 -0.43731022 0.111256935 0.22267035
0.30062523 0.29119003 0.2937415 0.2739631
00000000: 1fbe 393e 5477 543e 8af6 503e 51be 3b3e
00000010: 029e 2b3e 6dfc ca3d dbfe 0a3d 1073 093d
00000020: 91ae 23bd 526c 56bc 0076 41bd a434 2cbd
00000030: 7b78 1abf 8ce4 8bbe 9961 b7be 65a6 22bf
00000040: dc13 1cbf 29fd abbd 52e2 5fbd 2114 31bd
00000050: f921 3ebd 77a5 e33c a79e 2b3e 5d52 413e
00000060: 985c 683e 9ad2 543e 1387 323e 0074 4e3e
00000070: 0cbb 29be dae1 2abe ab35 38be 6159 1cbe
00000080: f872 2abe 94cb 14be de9c f6bd 9de8 c7bd
00000090: 66a0 9abd 33b1 73bd 1f47 47bc 4955 43bb
000000a0: e96a ce3e 0334 3c3e deb6 503e b46b da3e
000000b0: 465b c73e 220b 8e3c 6500 4abd b8f7 1abd
000000c0: debe 2fbd 106b f5bd 6972 15be bd3b 35be
000000d0: e9bd 40be ac26 30be c25e 24be 31f2 29be
000000e0: c690 913e 4624 883e c962 8b3e b52b 983e
000000f0: ba54 043e 6482 ddbd ebb8 99be 0e49 bcbe
00000100: e333 c3be 53c9 d5be d7c9 ecbe 9f6d c4be
00000110: 8d34 90bf 398f dabe 5819 37bf 2268 9abf
00000120: 1395 a7bf 67d8 d4be ae6d 06bf 0dab f4be
00000130: 181d f3be 20e7 dfbe adda e33d b203 643e
00000140: 8deb 993e dc16 953e 4965 963e e444 8c3e

rnn_layer.weight_hh_l0 f4 [3, 3]
0.9178129 -0.3695999 1.7459159 -1.1238551 1.049787 -0.73638076 0.4915866 -0.29625833
2.276633
00000000: c9f5 6a3f 333c bdbe 2c7a df3f 7cda 8fbf
00000010: 6c5f 863f 7383 3cbf 3db1 fb3e 2caf 97be
00000020: 5bb4 1140
