SMNIST/Models/rnn_L1_H3_tanh_drop0.1_sgd_lr0.002_normal_0.025_insize28_e1_iter225.ckpt (torch, 2087 bytes, 3 tensors)

fc.weight f4 [10, 3]
0	0xbf08a7bd	-0.5338095
1	0x3e10cc66	0.14140472
2	0x3d7e33b8	0.06206104
3	0x3d880574	0.06641665
4	0xbdb58c5a	-0.088646606
5	0x3ec947ec	0.39312685
6	0xbed54716	-0.41655797
7	0x3ed6ace0	0.41928768
8	0x3f152991	0.5826655
9	0x3eb16c06	0.34652728
10	0x3d853ec5	0.06506113
11	0x3ebea7b7	0.3723733
12	0x3ec21f6b	0.37914595
13	0xbe8b4cb9	-0.27206972
14	0x3c35c89d	0.011095193
15	0x3d80592f	0.062670104
16	0x3e6f08d6	0.23343214
17	0x3e37d5d0	0.17952657
18	0xbf64a380	-0.8931198
19	0x3eb64d37	0.35605785
20	0x3e5f02a6	0.21778354
21	0x3f934fc8	1.1508722
22	0x3da0864e	0.078381166
23	0xbfcd5a81	-1.6043245
24	0x3e525763	0.20541148
25	0xbedc4f6a	-0.43029338
26	0xbe775ce0	-0.24156523
27	0x3f947b5b	1.1600145
28	0x3dc8062a	0.09766801
29	0xbf72fb2e	-0.9491452

rnn_layer.weight_ih_l0 f4 [3, 28]
0	0xbdad7957	-0.08470409
1	0xbd7da843	-0.061928045
2	0xbdadf2a6	-0.08493547
3	0xbdfd80a7	-0.12378054
4	0xbe08abeb	-0.13346832
5	0xbd9f9abb	-0.07793184
6	0x3c254344	0.010086838
7	0x3d8bfe9a	0.06835671
8	0x3cf15f8f	0.029464511
9	0x3d556750	0.05210048
10	0x3db3a2ad	0.08771262
11	0x3dba9a6d	0.09111486
12	0x3d9c52c8	0.07632977
13	0x3da45cb2	0.08025493
14	0x3ddec20e	0.10876857
15	0x3df3cdea	0.11904509
16	0x3d92b16f	0.07162749
17	0x3d394de4	0.045240298
18	0x3d9b1f41	0.075743206
19	0x3db1b5c8	0.0867725
20	0x3d6836f3	0.05669303
21	0xbcbadd14	-0.022810496
22	0xbde6cca4	-0.11269501
23	0xbddbfac3	-0.107411884
24	0xbdb9a7d9	-0.090652175
25	0xbd8efc7d	-0.06981752
26	0xbd90b710	-0.070661664
27	0xbdae834f	-0.08521139
28	0xbe2febae	-0.17179748
29	0xbe788b65	-0.24271925
30	0xbe40faf1	-0.18845727
31	0xbe6345e7	-0.22194634
32	0xbdd9fd4d	-0.106440164
33	0xbdf6a7a8	-0.12043697
34	0x3dc97a9f	0.09837841
35	0x3e151854	0.14560062
36	0x3e88cc1e	0.2671823
37	0x3e81b6a1	0.25334647
38	0x3e822578	0.2541921
39	0x3e90cc4a	0.2828086
40	0x3ea9a000	0.33129883
41	0x3e912a75	0.28352705
42	0x3e9c7507	0.30558035
43	0x3e94936e	0.2901873
44	0x3ea85244	0.32875264
45	0x3e89627f	0.2683296
46	0x3e5c6850	0.21524167
47	0x3e4bca47	0.19901381
48	0x3e65f6c4	0.22457415
49	0x3da994ca	0.082803324
50	0xbe10f57b	-0.14156143
51	0xbe3857b0	-0.180022
52	0xbe3611ce	-0.1778023
53	0xbe55e2ac	-0.2088725
54	0xbe34ac00	-0.17643738
55	0xbe6e29fb	-0.23258202
56	0x3cc73845	0.024318824
57	0x3dce00e8	0.100587666
58	0x3d9377af	0.07200562
59	0x3d95db17	0.07317179
60	0x3d32e574	0.043675855
61	0xbcc052c1	-0.02347696
62	0xbddfacaa	-0.10921605
63	0xbe54725c	-0.2074675
64	0xbe4b5a8b	-0.19858758
65	0xbe657a80	-0.22410011
66	0xbe61e577	-0.2206019
67	0xbe71ea01	-0.23624422
68	0xbe8994f5	-0.26871458
69	0xbe90f503	-0.2831193
70	0xbe8e2054	-0.2775904
71	0xbe90120a	-0.28138763
72	0xbe84faf8	-0.25972724
73	0xbe80e1f2	-0.25172383
74	0xbe7c9ed9	-0.2466997
75	0xbe7c9832	-0.24667433
76	0xbe552aa2	-0.20817044
77	0xbe083766	-0.13302383
78	0x3cbedaca	0.023297686
79	0x3d1fcfb2	0.039016433
80	0x3c6dc9f6	0.014513483
81	0x3ddd3ade	0.10802244
82	0x3d3beed8	0.045882076
83	0x3d8afd73	0.06786623

rnn_layer.weight_hh_l0 f4 [3, 3]
0	0x3f2fcdb7	0.6867327
1	0x3ec96059	0.3933132
2	0xbf8461f6	-1.0342395
3	0xbe8c1ee0	-0.27367306
4	0x3e8a43e0	0.2700491
5	0x3dfc029b	0.123051845
6	0xbf19c4e0	-0.6006603
7	0xbf739e34	-0.95163274
8	0x3fa33e5b	1.2753404
