SMNIST/Models/rnn_L1_H16_tanh_drop0.1_sgd_lr0.002_normal_0.015_insize28_e4.ckpt (torch, 5475 bytes, 3 tensors)

fc.weight f4 [10, 16]
-0.5079692 -0.093281314 0.21669103 -0.1101083 0.39709166 -0.20697081 0.09878199 0.051733296
-0.25506526 -0.10938897 0.22334534 -0.25710177 0.46102044 -0.24444026 0.08615738 -0.4739743
0.48904482 0.06312026 0.39339942 -0.10876877 -0.35832322 0.18341203 -1.0338398 0.20109968
-0.18140022 -0.34447286 -0.3804109 0.68659127 0.524713 -0.35750535 -0.5314166 0.35286117
-0.6079675 -0.03944661 -0.29572868 -0.37810946 0.34459823 -0.028336203 0.2512865 0.0070270295
0.0054683164 -0.03250795 -0.0009951958 -0.48137608 -0.038913716 -0.28495824 -0.0388829 -0.243377
-0.31475902 -0.352877 0.2248798 0.303967 0.23873319 0.23699489 0.30358332 -0.20552178
-0.11975899 -0.17723568 0.31829068 -0.80839866 0.09269609 0.19802447 0.35222912 -0.42771173
0.5100502 0.10042101 -0.13698696 0.20189443 -0.85136116 -0.023483098 -0.058477145 0.12715364
-0.040882006 -0.3306627 -0.26837918 0.3509296 -0.6123548 -0.2778679 -0.42360508 0.63682437
-0.12744802 -0.4032235 -0.004722799 0.098206036 0.35432795 -0.07015016 0.62508947 -0.13417456
-0.1379451 -0.28209108 0.10491493 -0.75471234 0.029210066 0.01818268 0.31847897 -0.3953183
-0.60712564 0.24477899 -0.6798899 -0.50973195 0.29140708 -0.120631546 -0.03628939 0.3342912
-0.84467083 -0.09101639 -0.62185067 -0.41161337 0.30565658 -0.11799292 -0.048232634 0.33004093
0.49886808 0.35355937 0.18684308 0.40067425 -0.8032861 0.6041792 -0.42620862 0.024116727
0.14494805 0.8764743 -0.09090604 0.77173007 -0.5426209 0.6022731 0.42030016 0.055393387
0.20730361 -0.28019333 0.27029693 0.11657288 0.45276442 -0.22362347 0.031042501 -0.041440293
-0.03271821 -0.25546768 0.07293677 0.33837855 0.21577585 -0.17555988 0.22141062 -0.46990928
0.22346802 0.29225147 0.017470025 0.30165413 -0.610451 -0.08417828 0.24401727 -0.037766524
0.006348501 0.5155488 0.0012868018 0.43874627 -0.6521079 0.6495628 0.30205417 0.3757063
00000000: 450a 02bf 460a bfbd 41e4 5d3e 7680 e1bd
00000010: 994f cb3e 28f0 53be 364e ca3d 4be6 533d
00000020: ea97 82be 5307 e0bd a4b4 643e d8a2 83be
00000030: df0a ec3e 8c4e 7abe 4873 b03d c2ac f2be
00000040: 1564 fa3e 3245 813d a66b c93e 29c2 debd
00000050: 2476 b7be 5dd0 3b3e dd54 84bf 13ed 4d3e
00000060: fbc0 39be bf5e b0be 38c5 c2be 72c4 2f3f
00000070: 9753 063f f10a b7be eb0a 08bf 38aa b43e
00000080: c2a3 1bbf c592 21bd c069 97be 9097 c1be
00000090: 2e6f b03e 5321 e8bc a0a8 803e ff42 e63b
000000a0: 902f b33b 0e27 05bd 3b71 82ba ed76 f6be
000000b0: fd63 1fbd 0ce6 91be ad43 1fbd d237 79be
000000c0: 1828 a1be 4bac b4be e446 663e 90a1 9b3e
000000d0: 7976 743e caae 723e 466f 9b3e 4d74 52be
000000e0: 3444 f5bd 457d 35be fff6 a23e 37f3 4ebf
000000f0: 73d7 bd3d edc6 4a3e 6057 b43e 08fd dabe
00000100: a692 023f 88a9 cd3d 4f46 0cbe 6abd 4e3e
00000110: cef2 59bf a05f c0bc bb85 6fbd 9034 023e
00000120: e473 27bd 9f4c a9be ff68 89be 0bad b33e
00000130: 49c3 1cbf b444 8ebe c4e2 d8be ec06 233f
00000140: bc81 02be 5073 cebe b6c1 9abb 3f20 c93d
00000150: 796a b53e e3aa 8fbd dd05 203f 0e65 09be
00000160: 7b41 0dbe 3e6e 90be a4dd d63d d434 41bf
00000170: f349 ef3c d8f3 943c ad0f a33e 2967 cabe
00000180: 966c 1bbf 58a7 7a3e 440d 2ebf cb7d 02bf
00000190: 4f33 953e ac0d f7bd 2fa4 14bd 3728 ab3e
000001a0: 593c 58bf cd66 babd 9b31 1fbf fdbe d2be
000001b0: 057f 9c3e 46a6 f1bd 958f 45bd 20fb a83e
000001c0: a36b ff3e bc05 b53e cb53 3f3e 2d25 cd3e
000001d0: 28a4 4dbf 7dab 1a3f 0438 dabe 7190 c53c
000001e0: 436d 143e 9f60 603f f22c babd 1a90 453f
000001f0: 34e9 0abf 922e 1a3f 9531 d73e 2de4 623d
00000200: 6647 543e 8075 8fbe 5c64 8a3e c3bd ee3d
00000210: bdd0 e73e 8dfd 64be d84c fe3c 4cbd 29bd
00000220: 8803 06bd a9cc 82be e05f 953d f43f ad3e
00000230: 58f4 5c3e f8c5 33be 77b9 623e f397 f0be
00000240: cdd4 643e fca1 953e 4c1d 8f3c 6972 9a3e
00000250: 8446 1cbf a965 acbd aadf 793e 12b1 1abd
00000260: 1607 d03b 02fb 033f e7a9 a83a 5aa3 e03e
00000270: 8bf0 26bf bf49 263f d8a6 9a3e 935c c03e

rnn_layer.weight_ih_l0 f4 [16, 28]
-0.023722734 -0.043353584 -0.07186905 -0.041327912 -0.009836553 -0.02980046 -0.01110568 -0.01748693
-0.025314244 0.005094491 -0.010834754 -0.010531309 0.0727637 0.18015666 0.32423306 0.21883881
0.10393531 0.048613273 0.059714794 0.045017697 0.014347305 0.009231349 0.038285203 -0.01903496
-0.06598115 -0.06946812 -0.048088383 -0.04919924 -0.15220726 -0.17812783 -0.12006776 -0.07277241
0.037532516 0.10260419 0.08966482 0.1308582 0.16373762 0.25035283 0.15634538 0.20315678
0.294351 0.4123255 0.42563233 0.23640592 0.14352083 0.086027615 -0.0025005713 -0.035895642
-0.059934042 -0.016330492 0.057537794 -0.031559836 -0.050675936 -0.06425967 -0.15853731 -0.14506918
0.24511755 0.27570352 0.24364454 0.22511134 0.13623814 0.07347084 -0.11780478 -0.28657404
-0.17781074 0.039875478 0.056749225 0.12796244 -0.096887805 -0.18456124 0.071054436 0.0017121817
-0.14634459 -0.10715348 -0.09053343 -0.17747658 -0.22661515 -0.10653311 -0.0014949427 0.13149336
0.20708643 0.2880753 0.26164126 0.23948619 0.00047226917 -0.013137915 -0.035513554 -0.08825586
-0.058642015 0.060509637 0.09589365 0.13252717 0.066157736 0.05308542 -0.045183796 -0.116420306
-5.668201e-05 -0.015119796 0.040276635 -0.012436522 0.0060287477 0.07121034 0.060945753 0.15512408
0.15532629 0.19705969 0.23094326 0.12524803 0.019675557 -0.01008203 -0.018804988 -0.028941838
0.18181686 0.18908861 0.21519752 0.16925223 0.10681066 0.06566527 0.04917239 0.07005912
0.024438502 -0.025449933 -0.060264755 -0.060885508 -0.11652965 -0.3114616 -0.37840864 -0.2545792
-0.14825898 -0.13814428 -0.16719149 -0.18826072 -0.09156658 -0.08046493 -0.080580264 0.01107188
0.15425867 0.1768349 0.1914036 0.16431467 0.27695578 0.25664598 0.2530102 0.1286825
0.13490817 -0.03573401 -0.17541604 -0.12546949 0.053845484 -0.012685154 0.06067781 0.2944188
0.027699592 -0.48567438 -0.31588772 0.12962747 -0.0018777067 -0.015418792 -0.137047 -0.0951023
-0.2013199 -0.60647005 -0.49945864 -0.14047885 0.19283888 0.23643357 0.21078447 0.2532222
0.5596749 0.5808867 0.5367417 0.49536857 0.12052832 -0.19846033 -0.3289712 -0.32810467
-0.26727718 -0.3255122 -0.3568515 -0.39824 -0.38715878 -0.78410643 -1.2798653 -0.70974016
-0.47351158 -0.5491419 -0.54829425 -0.49253845 -0.35710296 -0.44172516 -0.2122678 0.24426205
0.5389914 0.55904806 0.55520356 0.56709594 -0.13247584 -0.15876707 -0.13431369 -0.08916967
-0.014398634 0.039102014 0.19291775 0.3475402 0.3620924 0.30302247 0.29103336 0.22249639
0.18675524 0.67531097 0.80483216 0.08445068 0.027097557 0.086756624 0.085132964 0.14407256
0.069746844 0.09380323 -0.07299795 -0.14329964 -0.14518082 -0.15173905 -0.12948848 -0.12252354
-0.06502659 -0.04966591 -0.037890352 -0.12964626 -0.25845024 -0.23908506 -0.327636 -0.39932245
-0.47045884 -0.3451119 -0.21153955 -0.38571045 -0.5330226 -0.7380806 -0.4657121 -0.23436092
-0.20283157 -0.2553655 -0.20858851 0.0002854426 -0.12246976 -0.2484843 -0.09734356 -0.02489803
0.0032144377 0.029794289 -0.04226849 -0.056307495 -0.22519882 -0.22593462 -0.22531268 -0.21116306
00000000: 2e56 c2bc 8793 31bd 1530 93bd 7547 29bd
00000010: 7e29 21bc 1820 f4bc 99f4 35bc c040 8fbc
00000020: d15f cfbc b0ef a63b 4184 31bc 838b 2cbc
00000030: 2205 953d fd7a 383e e001 a63e 4817 603e
00000040: 09dc d43d b61e 473d 8097 743d 7a64 383d
00000050: f510 6b3c 163f 173c f2d0 1c3d 34ef 9bbc
00000060: 2021 87bd 4d45 8ebd 53f8 44bd 2485 49bd
00000070: 38dc 1bbe 2467 36be 16e6 f5bd b409 95bd
00000080: b2bb 193d 2522 d23d 30a2 b73d b1ff 053e
00000090: d6aa 273e 3f2e 803e 0119 203e 5508 503e
000000a0: 2db5 963e 541c d33e 7bec d93e 6514 723e
000000b0: 20f7 123e 3f2f b03d a0e0 23bb 4f07 13bd
000000c0: 667d 75bd 86c7 85bc c0ac 6b3d e344 01bd
000000d0: 9291 4fbd 939a 83bd 9b57 22be 048d 14be
000000e0: 1800 7b3e 0329 8d3e f47d 793e 9683 663e
000000f0: 0382 0b3e e177 963d a243 f1bd d5b9 92be
00000100: 0514 36be 7854 233d e071 683d 9608 033e
00000110: 1d6d c6bd 9ffd 3cbe fd84 913d 496b e03a
00000120: 5bdb 15be 4973 dbbd 9769 b9bd 6cbc 35be
00000130: cd0d 68be 082e dabd f4f1 c3ba 32a6 063e
00000140: 770e 543e 9b7e 933e d8f5 853e de3b 753e
00000150: e59a f739 6940 57bc a976 11bd 7dbf b4bd
00000160: 9c32 70bd f4d8 773d e463 c43d 34b5 073e
00000170: b57d 873d 1970 593d a512 39bd c56d eebd
00000180: d8bd 6db8 05b9 77bc 1df9 243d 8ec2 4bbc
00000190: cd8c c53b bad6 913d 41a2 793d d9d8 1e3e
000001a0: db0d 1f3e 04ca 493e 647c 6c3e 0541 003e
000001b0: a22e a13c 192f 25bc eb0c 9abc 6f17 edbc
000001c0: 332e 3a3e 72a0 413e bd5c 5c3e 7550 2d3e
000001d0: 8cbf da3d 837b 863d fd68 493d 287b 8f3d
000001e0: 4133 c83c 617c d0bc 2dd8 76bd 1563 79bd
000001f0: 19a7 eebd e577 9fbe c7be c1be 3458 82be
00000200: 34d1 17be b275 0dbe 3f34 2bbe 6bc7 40be
00000210: 4287 bbbd ccca a4bd 4407 a5bd d566 353c
00000220: fcf5 1d3e 3514 353e 4eff 433e 1b42 283e
00000230: 26cd 8d3e 1a67 833e 8e8a 813e 58c5 033e
00000240: 5e25 0a3e d35d 12bd 43a0 33be 137b 00be
00000250: 158d 5c3d 64d5 4fbc 4c89 783d 10be 963e
00000260: 41ea e23c 50aa f8be 09bc a1be 10bd 043e
00000270: 621d f6ba 1a9f 7cbc 0c56 0cbe ffc4 c2bd
00000280: ce26 4ebe 9f41 1bbf 0bb9 ffbe b0d9 0fbe
00000290: 8e77 453e a41b 723e e2d7 573e 57a6 813e
000002a0: db46 0f3f feb4 143f e767 093f f3a0 fd3e
000002b0: 8dd7 f63d 2f39 4bbe ea6e a8be 56fd a7be
000002c0: 8ed8 88be 89a9 a6be 3db5 b6be 1de6 cbbe
000002d0: ad39 c6be 33bb 48bf a0d2 a3bf 88b1 35bf
000002e0: 1c70 f2be 9094 0cbf 035d 0cbf 002e fcbe
000002f0: 33d6 b6be cd29 e2be bb5c 59be d51f 7a3e
00000300: 57fb 093f c61d 0f3f d221 0e3f 332d 113f
00000310: bfa7 07be d693 22be 8789 09be 979e b6bd
00000320: 40e8 6bbc 6f29 203d 3b8c 453e caf0 b13e
00000330: 2d64 b93e c325 9b3e 5302 953e 18d6 633e
00000340: c43c 3f3e 2ee1 2c3f 7b09 4e3f 7af4 ac3d
00000350: b2fb dd3c 75ad b13d 315a ae3d c287 133e
00000360: 6fd7 8e3d e81b c03d f37f 95bd 24bd 12be
00000370: 48aa 14be 7b61 1bbe a198 04be 9fed fabd
00000380: a92c 85bd 7b6e 4bbd ea32 1bbd fdc1 04be
00000390: 9753 84be b7d2 74be e8bf a7be fe73 ccbe
000003a0: fbdf f0be 82b2 b0be d39d 58be d77b c5be
000003b0: 2b74 08bf daf2 3cbf d171 eebe 4ffc 6fbe
000003c0: 14b3 4fbe 44bf 82be 3a98 55be 75a7 9539
000003d0: 6dd1 fabd ab72 7ebe 0f5c c7bd f4f6 cbbc
000003e0: 51a9 523b 2713 f43c b921 2dbd b0a2 66bd
000003f0: 859a 66be 685b 67be 5eb8 66be 213b 58be

rnn_layer.weight_hh_l0 f4 [16, 16]
0.45407438 0.35495573 0.026607525 0.43956167 -0.80790967 0.008636489 -0.21220358 0.17756869
-0.066335045 0.2486027 0.06267686 0.35516733 -0.3767539 0.2443178 0.029741568 0.33809772
-1.0913724 1.5850931 1.4966093 -0.9010488 0.019796962 -0.57808685 -0.16824932 -0.8185509
1.1027753 -0.07610545 0.26782024 0.59943503 -0.3832365 -0.4446539 -0.0013852479 -0.31375763
0.58879906 -0.16093414 0.4227268 0.71931124 -0.510417 0.068220615 -0.6664079 -0.5440901
0.6170139 -0.21295276 0.1236117 0.33629075 -0.5172745 0.048150737 0.62174 -0.38969463
0.14331627 -0.3212959 0.23183396 0.6672767 -0.47129753 0.6779738 -0.017428473 -0.06965119
0.073510505 0.26808557 0.17197813 -0.21397324 -0.6177215 0.8189804 0.65136856 -0.100582674
0.031056052 -0.71642804 -0.05958672 -0.14897381 0.4926105 0.28424335 0.5358895 -0.022877052
0.016456742 -0.7430506 0.20461527 -0.36524013 0.13469172 -0.014909894 -0.00393949 -0.7375041
-0.31536895 -0.54040927 -0.42430687 0.481503 0.26803568 1.2343144 -0.32298496 0.4968007
-0.501088 0.4670451 -0.75136775 -0.5539137 -0.088089444 0.6433361 0.3688409 0.2871778
-0.36930305 -0.22699913 -0.16941343 -0.20978281 0.4844106 0.044803906 0.2006117 -0.006022147
-0.23910029 0.5397666 -0.16916558 -0.2150667 -0.08193984 0.2552901 0.060451128 0.08703987
-0.16407843 0.24386439 -0.30608547 -0.240914 0.31165162 -0.08125271 0.10199032 0.51862895
-0.8888677 -0.027274245 0.0059669414 -0.14128208 0.17097908 -0.14890608 -0.12991218 0.25840217
0.43350074 0.26063758 -0.0331539 0.3354557 -0.31697592 0.38883916 -0.3327919 0.00814253
0.18798584 -0.018741572 -0.2520925 0.3358854 -0.60813016 0.1284512 0.5609162 -0.4822245
-0.1560547 0.6977294 -0.4473558 -0.084914625 -0.018187989 0.13119778 -1.0110431 0.6569272
-0.471126 0.8916072 -1.0549157 0.01759666 0.14421786 -0.055304598 0.062647246 0.45165095
-0.09784879 -0.7711744 0.110328995 0.12876615 0.024363412 0.46103138 0.2550089 -0.16066611
0.4127754 0.2759144 0.17531012 -0.18455987 -0.33609626 0.394851 0.17107448 -0.6166757
0.6107555 0.4251469 1.2204037 0.9804292 -0.3718068 -0.1598234 -0.4717684 -0.33339104
0.013165383 0.037839428 0.17793952 0.8133549 -0.25014183 0.25279626 0.6219472 0.18380773
0.2519916 -0.35955215 0.35057116 0.2469323 0.29589114 -0.46143287 0.34718043 -0.6606444
0.21506539 -1.0197967 0.7004764 -0.050186545 0.5693158 -0.029599082 -0.021529214 0.63009113
0.09185844 -0.4930581 -0.60484487 0.31582868 -0.11684582 0.74631315 -0.6947935 0.42383066
-0.2502273 1.3419884 -0.48673084 -0.29928464 -0.67269325 0.9128639 0.3955536 -0.13755882
0.19377846 -0.22617018 -0.0024342968 0.22096704 -0.14559893 0.50848484 -0.9020171 0.24005446
0.18921436 0.76969033 -0.6284287 -0.16553703 -0.14661975 0.42470533 0.41511223 -0.71741635
-0.25962484 0.9935399 0.38540727 -0.24724789 -0.3697206 -0.45960256 -0.13177775 -0.4607155
0.3622624 0.15761459 0.19791909 0.2601168 0.055620324 -0.073172756 -0.005408107 0.98847705
00000000: 707c e83e c2bc b53e 06f8 d93c 3a0e e13e
00000010: 2bd3 4ebf 0f80 0d3c e54b 59be 91d4 353e
00000020: abda 87bd b591 7e3e ba5c 803d 7ed8 b53e
00000030: e3e5 c0be 722e 7a3e 97a4 f33c 251b ad3e
00000040: 17b2 8bbf 55e4 ca3f e590 bf3f 22ab 66bf
00000050: 3d2d a23c 80fd 13bf 8d49 2cbe 8d8c 51bf
00000060: be27 8d3f 2ddd 9bbd bc1f 893e 9374 193f
00000070: 9337 c4be ada9 e3be 3591 b5ba d7a4 a0be
00000080: 89bb 163f ebcb 24be a66f d83e c824 383f
00000090: b0aa 02bf 40b7 8b3d b599 2abf 7d49 0bbf
000000a0: 9ff4 1d3f 4a10 5abe 2228 fd3d 4d2e ac3e
000000b0: 1a6c 04bf b539 453d 5a2a 1f3f 0e86 c7be
000000c0: 80c1 123e e580 a4be e265 6d3e a5d2 2a3f
000000d0: e94d f1be b18f 2d3f 28c6 8ebc 48a5 8ebd
000000e0: ad8c 963d 8342 893e 091b 303e cd1b 5bbe
000000f0: ff22 1ebf b3a8 513f 17c0 263f 4afe cdbd
00000100: 4369 fe3c d467 37bf 3411 74bd 978c 18be
00000110: 7237 fc3e 5888 913e 0e30 093f a868 bbbc
00000120: 4ad0 863c 9038 3ebf aa86 513e c100 bbbe
00000130: a0ec 093e a148 74bc d616 81bb 12cd 3cbf
00000140: 0a78 a1be 4358 0abf c03e d9be 9087 f63e
00000150: f93b 893e 04fe 9d3f 495e a5be a95c fe3e
00000160: 4e47 00bf 8920 ef3e a359 40bf 4acd 0dbf
00000170: 3d68 b4bd adb1 243f b7d8 bc3e f808 933e
00000180: 4a15 bdbe 7672 68be b77a 2dbe 4ed1 56be
00000190: ab04 f83e 4d84 373d 276d 4d3e 6e55 c5bb
000001a0: b5d6 74be 252e 0a3f be39 2dbe 723a 5cbe
000001b0: 13d0 a7bd 62b5 823e 9a9b 773d f641 b23d
000001c0: 2d04 28be 96b7 793e 3cb7 9cbe 29b2 76be
000001d0: cd90 9f3e d267 a6bd 4de0 d03d dec4 043f
000001e0: d58c 63bf 3d6e dfbc 5586 c33b 40ac 10be
000001f0: 2415 2f3e d67a 18be b307 05be 4a4d 843e
00000200: cff3 dd3e 4a72 853e 62cc 07bd d9c0 ab3e
00000210: ab4a a2be ed15 c73e b363 aabe 3f68 053c
00000220: 5c7f 403e ed87 99bc 4512 81be 2cf9 ab3e
00000230: 6bae 1bbf b688 033e 3498 0f3f 21e6 f6be
00000240: cecc 1fbe 659e 323f d20b e5be b8e7 adbd
00000250: fafe 94bc b658 063e dc69 81bf 622c 283f
00000260: 6d37 f1be 5f40 643f 7a07 87bf df26 903c
00000270: d9ad 133e 1387 62bd 334d 803d cb3e e73e
00000280: f264 c8bd af6b 45bf 2bf4 e13d 46db 033e
00000290: c795 c73c 4e0c ec3e 8790 823e a885 24be
000002a0: 4c57 d33e a744 8d3e 7f84 333e 43fd 3cbe
000002b0: cf14 acbe e929 ca3e 262e 2f3e 75de 1dbf
000002c0: 795a 1c3f dbac d93e 3036 9c3f 68fd 7a3f
000002d0: 765d bebe bfa8 23be a18b f1be 3bb2 aabe
000002e0: 9eb3 573c 84fd 1a3d c735 363e 0738 503f
000002f0: 9712 80be 836e 813e ef37 1f3f 1838 3c3e
00000300: 0b05 813e 3817 b8be 107e b33e d2db 7c3e
00000310: 0b7f 973e ee40 ecbe a2c1 b13e fe1f 29bf
00000320: 1a3a 5c3e b388 82bf 6c52 333f 6890 4dbd
00000330: aebe 113f c679 f2bc 095e b0bc a74d 213f
00000340: 4720 bc3d 1c72 fcbe 1dd7 1abf 4cb4 a13e
00000350: dc4c efbd 610e 3f3f fddd 31bf 5500 d93e
00000360: cb1d 80be 47c6 ab3f c934 f9be d63b 99be
00000370: a035 2cbf 73b1 693f 0086 ca3e 38dc 0cbe
00000380: dc6d 463e 2899 67be b988 1fbb 2f45 623e
00000390: e317 15be 102c 023f 98ea 66bf d6d0 753e
000003a0: 69c1 413e 6d0a 453f b4e0 20bf 8a82 29be
000003b0: 7d23 16be fa72 d93e 9789 d43e 99a8 37bf
000003c0: 8ced 84be a258 7e3f 1a54 c53e 8d2e 7dbe
000003d0: 054c bdbe 0751 ebbe bff0 06be e7e2 ebbe
000003e0: 757a b93e b865 213e 4dab 4a3e 072e 853e
000003f0: 23d2 633d 99db 95bd 7d36 b1bb d50c 7d3f
