SMNIST/Models/rnn_L1_H3_tanh_drop0.1_sgd_lr0.002_normal_0.005_insize28_e1_iter300.ckpt (torch, 2087 bytes, 3 tensors)

fc.weight f4 [10, 3]
00000000: 8546 30be f719 3fbe a208 b4be 7b5f f8bd
00000010: 5f90 af3d ef11 e93e 857c d83d 5070 8a3d
00000020: 8a0d 44be 7b4c a8be 64cd 493e 8d2e 04be
00000030: a9cc bd3e 0bfb 123f 43ab 223e 0591 813e
00000040: 9666 82bd 8d7d 603e a727 5dbe 2f19 893e
00000050: b40a 193e d3a7 96be 000a 89bf 8017 17bf
00000060: 01f8 d93e b715 e63e 741e b3bb bb5d 17bf
00000070: e3b8 1bbe ff3e 1ebb
-0.17214401 -0.18662249 -0.35162836 -0.121275865 0.085724585 0.45521495 0.10570625 0.06759703
-0.1914579 -0.3287085 0.19707257 -0.12908383 0.37070206 0.5741431 0.15885644 0.25305954
-0.06367223 0.21922894 -0.21597157 0.26777026 0.14945489 -0.29424915 -1.0706177 -0.59020233
0.42572024 0.44938442 -0.005466277 -0.59127396 -0.15207247 -0.0024146435

rnn_layer.weight_ih_l0 f4 [3, 28]
00000000: 0d51 14bd 6618 0cbd e073 1dbd 930f 19bd
00000010: f35c adbc 5cf2 58bc d7a2 0c3c c531 303d
00000020: d4c3 dc3d f517 113e e2f9 2e3e b3a5 2a3e
00000030: e4b9 053e 8961 053e e567 bd3d 5b52 4f3d
00000040: e075 053d 2e41 be3c ae8c 963b c39d d5bc
00000050: af79 38bd 82de 40bd 2549 e5bc eaa1 f7bc
00000060: 143f e8bc cf7c 20bd 3ab3 0fbd 991c 0dbd
00000070: bbf2 8b3d db66 803d 8ee1 8a3d efe2 823d
00000080: fc1a 783d 1b90 303d 1fc9 49bb 61f6 71bd
00000090: 9b69 b8bd 916b f8bd 022c 27be af51 21be
000000a0: ee1b 1cbe be12 29be c4eb 2ebe 0df5 1ebe
000000b0: b69f 15be aff6 fabd e309 a3bd 2d07 273c
000000c0: 9f1e 733d e3ec 753d dca1 7b3d 6470 883d
000000d0: e23f 8d3d 24ad 853d d53f 783d 0191 853d
000000e0: 42a2 533d f9c6 743d 906c 6a3d de97 5b3d
000000f0: f616 6a3d fee9 1d3d 9be8 f83b 5a5f 2bbd
00000100: 43a4 adbd b8e0 f1bd ba85 13be d600 16be
00000110: 63f5 0ebe 40ba 1ebe ad58 1bbe 34e9 e8bd
00000120: 3346 cbbd 0b8c b1bd 5aea 3fbd 08e4 ee3b
00000130: eb23 603d 9f98 533d 8899 823d 5124 7d3d
00000140: b06c 643d 3675 663d b30c 813d cfe0 6f3d
-0.03621011 -0.034202956 -0.038440585 -0.03736837 -0.021162486 -0.013241377 0.008583746 0.043016214
0.10779539 0.14169295 0.1708751 0.16664772 0.13059193 0.13025488 0.09248332 0.05061565
0.032583117 0.02322444 0.004594407 -0.026076203 -0.04503792 -0.0470872 -0.02798898 -0.030228574
-0.02835039 -0.039181527 -0.035083033 -0.0344511 0.068334065 0.06269618 0.067813024 0.063909404
0.06057261 0.04310618 -0.0030790044 -0.059072856 -0.09004518 -0.12129892 -0.16325381 -0.15753816
-0.1524503 -0.16511056 -0.17082125 -0.15523167 -0.14611706 -0.122540824 -0.0796087 0.010194582
0.059355374 0.060040366 0.061433658 0.06662062 0.0689695 0.065271646 0.06060775 0.06521798
0.051668413 0.059760068 0.05723244 0.05361163 0.057150804 0.03855323 0.007596088 -0.04183898
-0.08478596 -0.1181044 -0.14406481 -0.14648756 -0.13960795 -0.15500736 -0.15170546 -0.11372605
-0.09925499 -0.08669289 -0.046854354 0.007290367 0.054721754 0.051659223 0.0637694 0.061802212
0.055767715 0.056264125 0.0630125 0.058564004

rnn_layer.weight_hh_l0 f4 [3, 3]
00000000: a49a 28bd 6f4a 6a3e 7218 1b3e 7ab5 b2be
00000010: 5d54 093f be59 ee3e 2b3a 53be 6465 863e
00000020: 2c5c 703e
-0.0411631 0.22879957 0.15146044 -0.3490408 0.53644353 0.46552843 -0.20627658 0.2624923
0.23472661
