SMNIST/Models/rnn_L1_H16_tanh_drop0.1_sgd_lr0.002_normal_0.02_insize28_e1_iter300.ckpt (torch, 5159 bytes, 3 tensors)

fc.weight f4 [10, 16]
000000 84 bd 95 be 25 cc f7 3d 26 7d 9c 3e 75 82 15 3e
       -0.2924615 0.12099484 0.3056423 0.14600547
000010 22 68 06 3d 9c 4f 10 3d 60 73 89 bd b2 e7 ae 3d
       0.032814153 0.03523217 -0.06711459 0.08540286
000020 a2 f5 3b 3e 11 5e 66 3e 46 9e 62 3d dd 49 bf be
       0.1835542 0.22496821 0.055326723 -0.3736104
000030 43 3e 35 3b cd 70 06 3c c4 94 a8 bc 1a d7 e4 3e
       0.002765552 0.008205605 -0.02057875 0.4469536
000040 3c 0a 92 3d 8c 1c 0b 3f ae df 54 3d 26 f9 f5 3d
       0.07130858 0.54340434 0.05197113 0.12010412
000050 d9 10 10 be 4d 00 ce bd 09 0d a4 bd de 18 75 be
       -0.14068927 -0.10058651 -0.08010299 -0.23935267
000060 f5 57 0d 3b 0f 6f 45 3d 8e ec a9 3d 32 0d dd bd
       0.002156732 0.048201617 0.08297072 -0.107935324
000070 1d c7 10 3e bc ba 8e 3d c3 3e a1 be 39 50 bb bd
       0.14138456 0.069692105 -0.31493196 -0.09146161
000080 8f 84 22 be 23 93 df 3d 07 d4 1d 3e bd d0 d9 be
       -0.1587088 0.10916736 0.15412913 -0.42542067
000090 bd 03 88 be a4 19 23 bd d2 7b da be be e0 f4 3e
       -0.26565352 -0.039819375 -0.42672592 0.47827715
0000a0 63 31 ad 3d 98 80 08 3e 73 3d 0e bc 72 3c b5 be
       0.084566854 0.13330305 -0.008681643 -0.3539768
0000b0 27 d1 31 3d f8 2a ff bd 61 8f f6 3d 7f f0 47 3e
       0.043412354 -0.124593675 0.12039066 0.19525336
0000c0 1c 0a fa bb 49 1d fc bb c9 d1 ce 3e 72 a5 f7 3d
       -0.0076305997 -0.0076939208 0.40394428 0.12092103
0000d0 84 7f 84 3e 48 c6 49 3e 9f 24 45 bd 43 39 af bd
       0.25878537 0.19704545 -0.048130628 -0.08555844
0000e0 33 d4 d8 3d 6f 9b 81 3c d0 d7 4b 3e 6c 73 39 be
       0.10587349 0.015821187 0.19906545 -0.18110436
0000f0 c1 af 6a bb f3 cf 77 bd 22 6e 1d be 52 94 8d 3e
       -0.0035810324 -0.06050105 -0.15374044 0.27652222
000100 76 de 06 3e ae 95 b8 3c 00 7d 6d be ba 5d 22 3e
       0.131708 0.02253231 -0.23192215 0.15856066
000110 ef 0a e1 bd 7a bf 5c 3e e7 25 7a 3e c6 cd 8f be
       -0.109884135 0.21557418 0.24428521 -0.2808668
000120 83 0c a0 bd e9 54 87 3d 36 6a 0a 3e aa 6e f4 3d
       -0.078148864 0.06607992 0.13517079 0.1193517
000130 4d 19 05 3e 29 67 69 3e b3 6d 68 be e0 3a 4b be
       0.12997933 0.22793259 -0.22698097 -0.19846678
000140 ad 55 c9 3d df b3 bb 3b 1e 4c 30 3e a2 c4 b6 bd
       0.098307945 0.0057282294 0.17216536 -0.089242235
000150 2d a4 57 3e d8 9b 79 bb a8 cd 43 be f0 9a be bd
       0.21058722 -0.0038087275 -0.1912142 -0.09306896
000160 ef 1a 47 bd fb 11 b9 3e b6 6d 93 bd 59 31 19 be
       -0.04860967 0.3614653 -0.0719866 -0.14960231
000170 98 fe ab 3d 23 5c 43 be b0 2a 5a 3d 18 61 58 bc
       0.08398169 -0.19078116 0.053263366 -0.013206743
000180 b0 17 e1 be b4 5b 9d 3e ff 5b 9d 3d df 32 48 bf
       -0.43963385 0.30734026 0.076835625 -0.78202623
000190 59 2e 3d bd a9 b8 2b be 07 cb 23 bf ae 85 25 3f
       -0.04618678 -0.16769661 -0.6398167 0.64657104
0001a0 57 1d 10 3e 88 21 f8 bd cc 9c cb be 15 02 6c be
       0.14073692 -0.121157706 -0.39768064 -0.23047669
0001b0 93 c3 34 3e 61 8f 14 3c dc 5d e3 3e 79 95 9f bd
       0.1765273 0.009067387 0.44407547 -0.077921815
0001c0 b0 61 dc 3e 37 2a 30 be f6 a1 99 be 8d 0d c4 3e
       0.4304328 -0.17203604 -0.3000638 0.38291588
0001d0 6f fb 92 3d d9 4b c3 be b3 d7 df 3e 1a f8 ad be
       0.071768634 -0.38143805 0.43719253 -0.3397835
0001e0 39 51 69 3e 4e d1 0a bf e6 fd ae 3d d9 3d 26 3f
       0.2278489 -0.54225624 0.08544521 0.6493812
0001f0 9a a4 bf be 4e c0 eb 3e ff c2 b6 3e ab 5f e9 be
       -0.3743027 0.46045154 0.35695645 -0.455808
000200 e6 b4 a0 3e 1e 2f 8c be 9a 75 a0 3e 5a 4e f3 3d
       0.31388015 -0.27379698 0.31339723 0.11880179
000210 09 0d 6c 3e 12 0c 26 be 4a cc 38 3e 15 7a 05 be
       0.23051848 -0.16215542 0.1804668 -0.13034852
000220 3a a5 a3 ba ca 50 94 bd b5 a1 98 3c bf ef 31 be
       -0.0012485154 -0.07241972 0.018631795 -0.17376612
000230 43 14 3a 3e d3 41 49 be c9 b0 3b be be 6c 9f 3e
       0.18171792 -0.19654016 -0.18329157 0.3113765
000240 2c 89 d0 3e 09 5f ac be 05 d1 2e bb 99 0b c4 3e
       0.40729654 -0.33666256 -0.0026674878 0.38290098
000250 e2 34 c9 3e b4 89 bf bd 91 a3 24 3e 32 a2 40 be
       0.3929816 -0.09352437 0.1607802 -0.18811873
000260 b4 a5 89 bd 60 7d 81 be 6d 5e 17 be b5 be 48 3f
       -0.067210585 -0.25290966 -0.14782114 0.78415996
000270 f4 ad 54 bd 83 a8 07 3f 54 bd 2f bc e2 99 14 bf
       -0.051923707 0.52991503 -0.010726292 -0.58047307

rnn_layer.weight_ih_l0 f4 [16, 28]
000000 16 75 3a bd 75 f4 7e bd 09 91 92 3c 27 2a 72 bc
       -0.045521818 -0.06224485 0.017891424 -0.014780558
000010 cd f6 2c bd 9a d8 16 3c b8 35 39 bd 8c c5 06 bd
       -0.042227555 0.009206915 -0.045217246 -0.03290324
000020 74 8f 1b bd e9 2f 7a ba e8 51 8d bd 9f 8b 42 bd
       -0.037978604 -0.00095438823 -0.06900388 -0.047496434
000030 66 d8 0e bc af 28 39 bd de 48 c2 3d 01 8f e3 3d
       -0.008718586 -0.045204815 0.094865546 0.1111126
000040 bf 41 51 3b e1 09 f7 3b 73 bd ab bc 0c df 0d 3d
       0.0031930057 0.0075390195 -0.02096436 0.034636542
000050 4f 7b 91 3b 95 0f 0f bd 02 86 48 bc 5f 58 63 bd
       0.0044397484 -0.03492697 -0.012238981 -0.0555042
000060 68 ae be bc 39 bc 2c bb 17 70 e2 bc d4 61 db bc
       -0.023276523 -0.0026357307 -0.02764134 -0.026780047
000070 d5 9f 8a be 64 fd 8a be d1 32 86 be a2 f2 8d be
       -0.27075067 -0.27146447 -0.26210645 -0.27724177
000080 f4 51 55 be 19 79 6b bd 0a 52 af 3d fe 68 70 3e
       -0.20832044 -0.057488535 0.085605696 0.23477551
000090 47 ac 82 3e 71 45 8c 3e a9 d7 85 3e 93 5a 99 3e
       0.25522062 0.2739673 0.26141098 0.29951915
0000a0 2d 07 b3 3e 4e 61 9e 3e b0 d1 fb 3e b0 c8 fd 3e
       0.34966412 0.30933613 0.49183416 0.49567175
0000b0 d3 86 8c 3e 51 e2 4b 3e 5c 71 06 3e c0 10 75 3e
       0.27446613 0.19910552 0.1312918 0.23932171
0000c0 e7 30 59 3e e8 1d 45 3b 43 b4 18 be aa 4d 81 be
       0.21210061 0.003007764 -0.14912514 -0.25254565
0000d0 46 35 90 be 89 26 8d be 93 11 7b be ed 53 86 be
       -0.28165644 -0.27568462 -0.24518423 -0.26235905
0000e0 e5 fa 3e 3e 66 f9 32 3e 3b 72 2a 3e 2b c8 45 3e
       0.18650396 0.1747795 0.16645138 0.1931464
0000f0 e5 22 0c 3e 69 7a 27 3d cd 24 59 bd cd d3 aa bd
       0.13685186 0.040888224 -0.05301361 -0.08341179
000100 09 50 22 bd 1c 22 cb bd 41 68 4b bd 78 30 ee bd
       -0.03962711 -0.09918615 -0.04965997 -0.116303384
000110 61 63 dd bd 69 32 2f be 3a b2 e1 be 35 b8 fd be
       -0.10809971 -0.17109074 -0.4408129 -0.495546
000120 8f e8 28 be 0a 5e 25 be 8d 7d d4 bd ba b5 61 be
       -0.16494964 -0.16149154 -0.103755094 -0.2204198
000130 78 bc 17 be 51 fd 05 3c fb 29 c5 3d f9 87 29 3e
       -0.14817989 0.008178071 0.09627148 0.16555776
000140 a3 8b 22 3e 3f ca 33 3e 6c 41 35 3e 59 79 24 3e
       0.1587358 0.1755762 0.17700738 0.16061915
000150 51 a9 b1 3b 0d 56 20 3c b3 89 c3 3c 77 3b 16 3d
       0.0054217954 0.009786141 0.023869371 0.036677804
000160 28 fd 07 3d e7 1b c6 bc e1 3f 5e bd e9 1f c8 bd
       0.033200413 -0.024183227 -0.05426014 -0.097717114
000170 70 ff fa bd 29 9e 08 be 91 fc 32 be b5 60 2b be
       -0.12255752 -0.13341583 -0.17479159 -0.1673611
000180 22 f0 25 be 08 a8 31 be b4 c3 f0 bd ea f0 15 be
       -0.16204885 -0.17349255 -0.117560774 -0.14642683
000190 fa 85 f2 bd da 49 ce bd 4f f5 d3 bd 89 4f eb bd
       -0.1184196 -0.1007268 -0.10349523 -0.114897795
0001a0 3a 0e 00 bd f8 1c 2b bb 59 a0 be 3b 54 a0 a0 bc
       -0.031263568 -0.0026109796 0.005817455 -0.0196077
0001b0 fd d6 c6 3c 3b 48 5a 3c f6 69 dd 3c 1d 70 e4 3c
       0.024272436 0.013322885 0.027028065 0.027885491
0001c0 5c 57 24 b9 39 d8 fe bc 1b a8 8e bb 25 35 81 3b
       -0.00015672803 -0.031108962 -0.004353536 0.003943103
0001d0 78 1f 81 bb 35 d6 ad 3b 8c 46 a0 3b 94 6f 75 bc
       -0.003940519 0.0053050765 0.0048912223 -0.014980216
0001e0 f6 cc b4 bc 4e 45 58 bd 06 25 ee bc 34 34 8b bd
       -0.02207039 -0.05280047 -0.029070389 -0.06797066
0001f0 0d 9f 35 bd b0 b6 a5 bd a9 2f 5e bd 29 d2 86 bc
       -0.044341136 -0.080914855 -0.05424467 -0.016457634
000200 f1 8a d0 bc b1 e7 bc 3c 51 55 02 bc 11 80 18 3d
       -0.025456877 0.023059698 -0.007954911 0.03723151
000210 a3 5d a5 3b 35 14 b6 3b 1d 96 f7 bc 4b bb eb bb
       0.0050465628 0.005556608 -0.030222947 -0.007193958
000220 40 32 01 3b 98 fb db 3c 73 08 a7 bc b2 20 bf bb
       0.001971379 0.026853368 -0.020389771 -0.005832755
000230 c2 06 fd bd be 34 f5 bd 08 e0 d6 bd 86 09 8f bd
       -0.123548046 -0.119729504 -0.10491949 -0.06984238
000240 a0 4b df bd 72 a2 12 bd 84 17 10 3d 91 64 ff 3d
       -0.10903096 -0.03579945 0.035178676 0.124703534
000250 be 73 7d 3d a0 16 06 bc 40 20 30 3c 88 cc 80 3d
       0.06187796 -0.008184105 0.0107498765 0.06289011
000260 e0 d3 8f 3d 61 77 94 bc 15 b8 c7 3c 7c 22 f8 3d
       0.07022834 -0.01812333 0.02437977 0.121159524
000270 db a0 55 3b 71 a6 5d 3d 7f 1e 22 3d 16 f2 ac 3d
       0.0032597098 0.05411381 0.039579865 0.08444612
000280 c1 dd c9 3d 1d 4f 8b bc e0 4b b5 bd da cb ad bd
       0.09856749 -0.017005498 -0.08852363 -0.08486147
000290 54 66 ea bd bc 5a 1e be a1 ac 12 be bd 51 e6 bd
       -0.11445299 -0.154643 -0.14323665 -0.11246059
0002a0 52 f5 e0 bd 09 ca f7 bd 1a 8a e8 bd bd a8 bd bd
       -0.10984291 -0.12099082 -0.11354466 -0.092607
0002b0 3d 42 a1 bd c1 e3 f7 bd a3 70 2b 3b 3c 30 38 3c
       -0.07873962 -0.121039875 0.0026159666 0.011241969
0002c0 c9 0b 2d bd 4b 22 4a bb b3 58 08 3d dd 49 06 3d
       -0.042247567 -0.0030843194 0.033287715 0.032785285
0002d0 f8 df d4 3c 85 e8 71 3d ec d0 10 3e e9 71 2b 3e
       0.025985703 0.05905964 0.14142197 0.16742672
0002e0 e9 26 9e 3d 86 37 85 3d 90 85 1f 3b b6 12 36 3d
       0.07722265 0.06504731 0.0024341084 0.044451438
0002f0 dc 7c 13 bd 2c 52 0b bd a6 de 38 bd d7 78 ca bd
       -0.036007747 -0.034013912 -0.04513421 -0.098863296
000300 7a 9e d7 bd 94 02 e5 bd f2 48 f1 bd 8f ec c4 bd
       -0.10528274 -0.11182132 -0.11781491 -0.096154325
000310 b4 62 37 bd c2 11 b6 bd 6b bb 3e bd 61 5e a2 bd
       -0.044771865 -0.08890106 -0.046565454 -0.079281576
000320 78 7d f1 bc ca 64 9e bc 98 e8 e6 3c eb c9 d7 3d
       -0.029478773 -0.01933517 0.028187081 0.1053656
000330 f8 ed 38 3e bc 0a 4a 3e 18 c8 46 3e cb c9 39 3e
       0.18059528 0.19730657 0.19412267 0.18143384
000340 80 19 f4 3d 97 16 13 3e f6 c0 0e 3e 56 ff 3f 3e
       0.11918926 0.14364086 0.13940796 0.18749747
000350 e7 56 96 3d 24 89 8a 3d ea 3a ee 3d 54 a8 4a 3d
       0.07340794 0.06764439 0.11632331 0.049476936
000360 69 9f c2 bb 8b 10 68 bc 99 2a c7 bc 15 ae 37 bd
       -0.0059394133 -0.0141641 -0.024312304 -0.044843752
000370 14 3d 1b bd 75 af 61 bd 20 e2 74 bd 29 e3 20 bd
       -0.037900046 -0.05509897 -0.059785962 -0.039279137
000380 d4 6f 03 be a8 80 1d be d9 04 1b be c6 cd e4 bd
       -0.12835628 -0.1538111 -0.15138568 -0.11172061
000390 8c 29 d7 bd d3 7e 8f 3c f8 7c e0 3d 1d 95 59 3e
       -0.10505971 0.01751653 0.10961336 0.21248288
0003a0 13 97 53 3e 3d d7 50 3e 32 6f 6f 3e ae 3c 81 3e
       0.20663099 0.20394607 0.23382261 0.25241607
0003b0 e7 d9 8c 3e bb e2 8b 3e 56 11 05 3f a6 e3 0c 3f
       0.27509996 0.2732142 0.5197958 0.55034864
0003c0 0e 90 84 3e 91 84 5c 3e 17 39 39 3e 49 90 68 3e
       0.25891155 0.21534945 0.18088184 0.2271129
0003d0 66 3c 72 3e 62 69 21 3d cf ed 60 bd 9f 0c f5 bd
       0.23655853 0.03940714 -0.054914292 -0.11965298
0003e0 21 b6 ec bd cd 7d da bd 0a fa be bd a3 d9 16 be
       -0.11558176 -0.10668526 -0.09325035 -0.1473146
0003f0 c7 e9 92 3d bc df be 3d ea 0b bc 3d 99 3f af 3d
       0.07173496 0.09320018 0.0918196 0.08557052

rnn_layer.weight_hh_l0 f4 [16, 16]
000000 ab 28 f8 3d 0a c4 0a be ce c4 49 be 05 2f 06 3e
       0.12117132 -0.13551345 -0.19703981 0.13103874
000010 48 98 59 3d 90 4e f5 bd 88 67 29 3e 87 47 a1 bd
       0.053123742 -0.11977875 0.165434 -0.07874971
000020 70 91 30 3d 9b f1 44 be c1 66 a2 bc 53 92 b2 3e
       0.04310745 -0.1923279 -0.019824388 0.34877262
000030 d3 6c 03 be 47 a3 64 3e 0f f1 10 3e c5 cc 2d be
       -0.12834482 0.2232791 0.14154457 -0.16972645
000040 50 8e d0 3c 39 8e 08 3f 85 10 07 be c6 b8 a4 3e
       0.025458485 0.53342015 -0.13189895 0.3217222
000050 45 4c 20 3e a3 a6 a7 3e 1f ba 01 3d 27 5f 93 be
       0.15654095 0.3274432 0.03167164 -0.28783533
000060 7a 36 82 3d 18 61 1a bb e9 d9 4a 3e 0b 79 67 be
       0.06358047 -0.0023556408 0.19809689 -0.22604768
000070 45 d1 99 3d 4b 75 0f bd b2 a9 e5 be 3c db 5a 3e
       0.07510618 -0.03502397 -0.4485603 0.21372694
000080 60 cf 94 bd b0 49 3d bf d4 3b aa 3e 00 3a 1a 3d
       -0.07266116 -0.73940563 0.3324877 0.03765297
000090 27 9d c2 3c fe b2 73 be 2f a6 28 be 13 96 7e be
       0.023756577 -0.23798749 -0.16469644 -0.24861936
0000a0 75 7c b0 be 31 9a 31 3e 9a 3f be 3d 28 9a 57 be
       -0.34469953 0.17343976 0.09289475 -0.210549
0000b0 bd 25 a1 3d 01 ab 68 be fd 00 d7 3e 91 86 81 bd
       0.07868526 -0.22721483 0.41992941 -0.06324495
0000c0 a9 a2 87 3e 7d 4b 9e be 30 9b 16 be 18 d1 bd 3e
       0.26491287 -0.30916968 -0.14707637 0.37073588
0000d0 7b ef 01 3e a4 94 c4 bd 67 6f 8e 3e 12 5a 95 be
       0.12689011 -0.095986634 0.27819368 -0.2917028
0000e0 f7 47 46 3d c2 05 2b be 34 af 90 3d ac 7b 9a 3e
       0.048408475 -0.16701415 0.07064667 0.3017248
0000f0 5d f4 c2 bd d1 bc 3b 3e 4d 5e 49 3e 8e 05 54 be
       -0.09519265 0.18333746 0.19664879 -0.20705244
000100 93 73 6b bc 18 02 82 be 55 5f d3 3c 82 a2 04 3e
       -0.014370817 -0.25392222 0.025802294 0.12952617
000110 0a cb 8c 3d f6 92 cc bd 76 15 ae bd d7 3e 40 be
       0.06874664 -0.09988968 -0.08500187 -0.18773971
000120 0c ae b3 bc 83 35 10 be a3 a0 bb 3d 39 72 e1 3d
       -0.021933578 -0.14082913 0.091614984 0.11008114
000130 d3 5f b2 3c 12 d7 a0 3d 7c 94 40 3e a6 0c d0 bd
       0.021774208 0.078535214 0.18806642 -0.101586625
000140 39 8e c6 bc 57 9a f5 bc fd db 0c 3e 5a f4 8a 3e
       -0.024237739 -0.029980822 0.13755794 0.2713955
000150 de 56 3b 3e 4e be d2 3d c6 05 5a bd 60 e2 ab be
       0.18294856 0.10290204 -0.053228162 -0.33571148
000160 84 f7 62 be e8 ed c6 3d c3 dc 60 3e 84 ff 31 bd
       -0.22164732 0.09713346 0.21959214 -0.04345657
000170 b2 47 c5 3d 3b c1 9d bd e1 6a 09 3d 1a 52 0b bd
       0.096328154 -0.077028714 0.033549193 -0.034013845
000180 30 09 4b 3e 73 a4 c7 bd 49 20 56 be c8 c0 fe 3d
       0.19827724 -0.09748163 -0.20910753 0.12439114
000190 21 66 69 3d 33 1a 7c bd 49 47 89 3e 85 42 bb bd
       0.056982163 -0.061548423 0.268122 -0.09143547
0001a0 5e 7a 81 3d e1 05 24 be fd af 45 bd b7 15 ce 3e
       0.06322168 -0.16017868 -0.04826354 0.40250942
0001b0 60 6d d4 bd 3e a0 4a 3e 46 98 55 3d 12 af 1e be
       -0.10372424 0.1978769 0.052147172 -0.15496472
0001c0 c2 bd 76 be bf b4 92 3e 65 4c a5 3d 76 b8 9f be
       -0.24095824 0.28653523 0.08071212 -0.3119542
0001d0 35 83 e9 bc a9 1c d1 3d c4 46 83 be e1 16 44 3e
       -0.028504947 0.102105446 -0.25639927 0.19149353
0001e0 b1 b1 68 bc fc a5 b5 3d 8b 5a ae bc 5c 9a a7 be
       -0.014202521 0.0886955 -0.021283409 -0.32734954
0001f0 fc 40 12 3e 2d 4b 3b be 5a 1e fc bd 42 36 77 3e
       0.14282602 -0.18290396 -0.123104766 0.24141791
000200 bf f4 df bd d2 36 8e 3e 0b 78 6a bd e2 85 12 3d
       -0.109353535 0.277762 -0.05724339 0.03577221
000210 e8 e9 78 3d 1a eb 01 3e f4 69 2e bd 6d 87 e9 3c
       0.060769945 0.1268734 -0.042581514 0.028506959
000220 71 b6 00 3e 8b 5b 9b bd 09 89 81 3c e5 89 3b bd
       0.12569596 -0.0758582 0.015812414 -0.045785803
000230 98 e1 33 3d 99 8a e9 3c 51 86 1a be e2 13 34 3e
       0.043916315 0.028508471 -0.150903 0.1758571
000240 64 87 6f 3d bd 66 09 bf 8a 3d 8e 3e 00 26 04 3e
       0.058478728 -0.5367239 0.27781326 0.12905121
000250 db 4e 2f 3e fc ee 75 bd 48 2b 85 bd 1a 4d a5 be
       0.17119925 -0.060042366 -0.06502396 -0.32285386
000260 2b b2 e9 be 69 29 90 3e 7b 82 62 3e 75 df 01 be
       -0.45643744 0.28156593 0.22120087 -0.12682898
000270 b5 84 08 3e e9 28 37 be 61 47 59 3e f4 87 e4 bd
       0.13331874 -0.178867 0.21218635 -0.111587435
000280 6d 5b 34 3e ab 32 37 be bd 20 4c 3d 2b 55 4d 3e
       0.17613001 -0.17890422 0.04983591 0.2005202
000290 f9 21 32 3d c7 fb a4 bd 90 29 02 3e cf bc de bd
       0.04348943 -0.08055835 0.12711167 -0.10875856
0002a0 2c 16 8b bd c2 8f 45 3c d6 cd c4 3c 3a f0 c0 3d
       -0.06791338 0.0120582 0.024023931 0.094208196
0002b0 c1 b3 10 bd 6e a2 54 3b d8 7f 8b 3d 6d d8 21 be
       -0.035327677 0.0032445448 0.06811494 -0.15805216
0002c0 07 76 a9 3d 6d e1 35 3e e3 c4 0a bf 99 9a 9c bd
       0.08274465 0.17761774 -0.54206675 -0.07646675
0002d0 0f 43 0a be 71 2d 74 be 06 69 57 3e ea 42 44 3e
       -0.13502143 -0.2384546 0.21036157 0.1916615
0002e0 fc 78 83 3e 5f 5c f7 be 0b c4 3e be ac b1 a7 3e
       0.2567824 -0.4831266 -0.18629472 0.3275274
0002f0 65 27 75 be 40 de d7 3e 56 86 75 3e 2e 73 7c bd
       -0.23940809 0.4216175 0.23977026 -0.06163328
000300 b8 f7 1a 3d df 6a 62 be 9a ee 35 3e ca 69 b9 3d
       0.0378339 -0.2211108 0.177668 0.09053381
000310 bc d8 b4 3d 27 e9 31 3c 13 24 03 bd 11 45 26 be
       0.08830401 0.0108588105 -0.032016825 -0.16237284
000320 0d 02 85 be 2b d6 4d 3e ec 93 08 3e 5f 99 97 bd
       -0.25978127 0.2010123 0.13337678 -0.074023
000330 c6 c7 ab 3d af 81 01 be c2 d5 13 3d d1 31 8b bd
       0.08387713 -0.12647127 0.036092527 -0.06796611
000340 87 2f 3c 3c 68 ae 07 3f 5c ec af be 5d 96 ff bd
       0.011485941 0.530005 -0.34360015 -0.124798514
000350 d8 de a7 bd 1b 83 bf 3d 9f 33 a2 3d 09 a5 63 3e
       -0.08196801 0.09351178 0.07920002 0.22230925
000360 b1 5f ba 3e 1c ab 8f be 6a 67 2a be 22 2e 31 3e
       0.36401132 -0.28060234 -0.16641012 0.17302755
000370 7c 57 e5 bd 66 b0 62 3e 03 85 2a be e2 92 29 3d
       -0.11198327 0.22137603 -0.16652302 0.041399844
000380 66 0c 41 be 00 41 f4 3d e9 26 d1 bd f9 5d eb be
       -0.18852386 0.1192646 -0.102125 -0.45970133
000390 6f 80 80 be c0 a2 17 be 6c 0d 1b be 9d e3 fa 3e
       -0.25097987 -0.14808178 -0.15141839 0.4900178
0003a0 dc c9 21 3e 24 73 d9 bd 14 60 84 be da b5 82 bd
       0.1579966 -0.106176645 -0.25854552 -0.06382342
0003b0 75 56 b8 bd 83 58 7f 3d be df 73 3d 4f db 3e 3d
       -0.09000865 0.06234027 0.05953955 0.046595868
0003c0 ca b2 c9 3d 08 49 45 be 72 21 d0 3e 14 0f 8c 3d
       0.098485544 -0.1926614 0.40650517 0.068388134
0003d0 9a ce e9 3d f2 ca d8 3d e5 03 8d 3c 76 39 e5 bd
       0.11416359 0.10585584 0.017213771 -0.111926004
0003e0 ea 5f 05 be a2 3f 77 3e c8 39 91 3d 06 7c 77 bd
       -0.1302487 0.24145368 0.07091099 -0.060421012
0003f0 b5 3e ce 3d de 34 34 be e0 7a 0d be b8 98 ad bc
       0.10070554 -0.17598292 -0.13816404 -0.021190986
