SMNIST/Models/rnn_L1_H16_tanh_drop0.1_sgd_lr0.002_normal_0.025_insize28_e1_iter150.ckpt (torch, 5159 bytes, 3 tensors)

fc.weight f4 [10, 16]
0.105846584 0.024488686 0.1434393 -0.2692133 0.079729274 -0.07996176 0.019754982 -0.2071498
-0.18239293 0.0796799 -0.17415313 0.16351134 0.044793483 0.03289184 -0.16175528 -0.16793449
-0.043255452 0.31027433 0.20438966 0.12050547 0.03901643 -0.05615271 -0.3279093 -0.09576246
-0.13782986 0.08010271 0.17450897 0.09991478 0.13915303 0.18348615 0.04432873 0.0014962803
-0.08891947 0.025930086 0.05540982 -0.09577019 0.04491122 -0.26759323 -0.11253227 -0.0032765823
0.034126423 -0.40783432 0.10899772 -0.40253267 -0.07233007 -0.51442516 0.12540624 0.04648557
0.07800891 -0.19908138 0.17694792 -0.26553112 -0.011626437 0.04047572 -0.21523674 0.15187903
0.13448186 0.075880855 0.1935698 0.2245341 -0.08391152 0.21131791 -0.052392438 0.00910012
-0.0926706 -0.09189946 0.20542373 0.09091202 -0.099259526 -0.08954339 0.024575593 0.06254521
-0.16788061 -0.04886039 -0.0609854 -0.15236393 -0.24090956 0.048688088 -0.01515997 -0.21455005
0.2613447 -0.039911695 0.11072781 -0.049330544 0.09429187 -0.1903135 0.14270991 0.0828953
-0.2571621 0.024901235 0.1197293 -0.21051653 0.09451956 0.026461223 -0.011634171 -0.119089164
-0.30922416 0.20376739 -0.035833456 -0.059333697 0.0015631223 -0.14004296 0.091012225 -0.28694057
0.11902693 -0.45851147 -0.22307539 -0.24464625 0.33100525 -0.48160243 -0.101325996 0.2771017
-0.044677045 -0.57334924 -0.37811002 0.4622828 0.33926058 0.4755333 0.38037136 0.16349971
0.41815346 0.06993097 0.2770924 0.27060395 0.12015784 0.3133598 0.034527864 -0.31389338
-0.0013356415 0.17208622 0.17548253 0.16186063 -0.14951971 -0.04708283 0.1673093 0.021316506
0.17529841 0.31211773 -0.022098202 0.1286806 -0.107045144 0.18299276 0.012672336 -0.10264097
0.21397234 -0.4708348 -0.08347304 0.38650522 0.19869135 0.16655235 0.49164322 0.074273415
0.096528694 0.30107132 -0.064461164 -0.09507695 -0.104404666 0.37651175 0.0010499547 -0.3442028
00000000: 18c6 d83d 7f9c c83c c0e1 123e 53d6 89be
00000010: 1a49 a33d fec2 a3bd 33d5 a13c 141f 54be
00000020: 36c5 3abe 372f a33d 3355 32be 846f 273e
00000030: 5f79 373d 98b9 063d 2da3 25be 05f7 2bbe
00000040: a12c 31bd 47dc 9e3e 864b 513e 92cb f63d
00000050: b1cf 1f3d 6200 66bd bae3 a7be 1c1f c4bd
00000060: 4523 0dbe e40c a43d 7bb2 323e 1fa0 cc3d
00000070: 227e 0e3e cbe3 3b3e 0b92 353d d61e c43a
00000080: 691b b6bd 556b d43c 68f5 623d 2923 c4bd
00000090: d4f4 373d fb01 89be 5277 e6bd eebb 56bb
000000a0: 26c8 0b3d a9cf d0be 323a df3d c318 cebe
000000b0: ca21 94bd 5eb1 03bf 7e6a 003e a767 3e3d
000000c0: 23c3 9f3d fddb 4bbe d631 353e b2f3 87be
000000d0: d07c 3ebc dec9 253d 0567 5cbe 2d86 1b3e
000000e0: 9db5 093e 6c67 9b3d 2937 463e 44ec 653e
000000f0: ced9 abbd b963 583e 7499 56bd ab18 153c
00000100: 15ca bdbd c935 bcbd 995a 523e 1530 ba3d
00000110: 9448 cbbd 8662 b7bd c152 c93c b417 803d
00000120: e5e8 2bbe d521 48bd d4cb 79bd 4a05 1cbe
00000130: ffb0 76be 296d 473d 8661 78bc 02b3 5bbe
00000140: f9ce 853e 727a 23bd 43c5 e23d d30e 4abd
00000150: 191c c13d 8be1 42be 8c22 123e 03c5 a93d
00000160: c0aa 83be adfd cb3c a334 f53d a591 57be
00000170: 7993 c13d 35c5 d83c 409d 3ebc 05e5 f3bd
00000180: a152 9ebe 66a8 503e 1ac6 12bd e407 73bd
00000190: aee1 cc3a 6c67 0fbe 9e64 ba3d e0e9 92be
000001a0: 64c4 f33d 04c2 eabe e06d 64be 8c84 7abe
000001b0: 8579 a93e 9894 f6be 0184 cfbd 46e0 8d3e
000001c0: 47ff 36bd 04c7 12bf a397 c1be 55b0 ec3e
000001d0: 90b3 ad3e 1a79 f33e 09c0 c23e 786c 273e
000001e0: 3618 d63e f837 8f3d 0edf 8d3e 9a8c 8a3e
000001f0: 5015 f63d b270 a03e 176d 0d3d a2b6 a0be
00000200: b110 afba 5f37 303e b1b1 333e cbbe 253e
00000210: b21b 19be edd9 40bd 2153 2b3e f49f ae3c
00000220: 6d81 333e e5cd 9f3e 4a07 b5bc d9c4 033e
00000230: 7c3a dbbd 7462 3b3e a19f 4f3c 6e35 d2bd
00000240: 911b 5b3e 4211 f1be eaf3 aabd 03e4 c53e
00000250: bf75 4b3e b38c 2a3e a9b8 fb3e a91c 983d
00000260: d6b0 c53d 0526 9a3e 3704 84bd b4b7 c2bd
00000270: 1dd2 d5bd 26c6 c03e a29e 893a 593b b0be

rnn_layer.weight_ih_l0 f4 [16, 28]
0.077649444 0.06917487 -0.034506712 -0.002270102 0.014021925 0.023241345 -0.0058948644 -0.061215326
-0.1231632 -0.15882349 -0.16064566 -0.1896025 -0.18941651 -0.16308534 -0.17925338 -0.20258912
-0.18226606 -0.18254608 -0.10256776 -0.05613155 -0.004712629 -0.0015952857 0.072038 0.054088823
0.009407692 0.016968464 0.02503416 -0.013686951 -0.016165644 -0.005758693 0.012137867 0.04144658
0.016660571 0.058170322 -0.04543948 0.013159038 -0.04605895 -0.01728166 -0.0029963197 -0.04023956
-0.022443272 -0.056503713 -0.06865755 -0.043816242 -0.06843954 -0.087391876 -0.06381561 -0.058617722
-0.05062197 -0.010026915 0.013803712 0.013685109 0.01074841 0.04283438 0.017232984 0.013233217
0.025304994 0.04810651 0.029670069 0.0056078164 -0.022863377 -0.009547168 0.007758452 -0.08065538
-0.042502537 -0.13682283 -0.1241587 -0.074289516 -0.11110779 -0.1242553 -0.12688763 -0.15700978
-0.11576873 -0.14683518 -0.11358596 -0.12550202 -0.088484526 -0.016727852 -0.018853052 0.038558688
0.005082893 0.025146173 -0.0038374416 0.028512286 -0.022665204 -0.018444043 -0.013596331 -0.029693557
-0.041041855 -0.033945773 0.017817045 -0.025451 0.052053533 -0.017291475 0.095261335 0.043603387
0.037087478 0.037765726 0.050814252 0.046096124 0.08540047 0.026757775 0.08139411 0.027245577
0.018249832 0.03888691 -0.034869995 -0.026301267 -0.003829946 -0.013830613 -0.050786324 -0.0016927562
-0.04661194 -0.026624022 -0.05540305 -0.029938918 -0.025597472 0.031517666 0.061890602 0.12214932
0.1600338 0.23509522 0.19468571 0.20490903 0.255082 0.2225185 0.2775523 0.26703572
0.24841335 0.25590038 0.2537162 0.22977352 0.13644277 0.036970783 -0.04872373 0.013350235
-0.06712516 -0.028400348 -0.009897639 0.025317308 -0.05379492 -0.029105296 -0.026580134 -0.06946046
-0.0037581052 -0.003429866 -0.013178031 0.041054986 0.07700771 0.117605284 0.10194667 0.14481929
0.09431425 0.13277109 0.16424799 0.12940466 0.13940614 0.11610938 0.1314504 0.12634638
0.054090384 -0.017951962 0.047160137 -0.032959875 -0.037896637 0.041496832 -0.024514353 -0.06017524
0.02506093 0.032308947 0.0072366386 -0.0198433 -0.034255873 0.001573816 -0.015968267 0.06719977
0.027847005 0.10479032 0.07126405 0.060499243 0.078892626 0.10259705 0.11287781 0.10778947
0.07742349 0.09427814 0.12003972 0.10480622 0.01092262 0.025998365 0.008713181 0.0110710105
-0.010623436 -0.0068851924 0.0018126877 0.0017096909 -0.033882026 0.0009152768 -0.057107873 -0.060223933
-0.030075187 -0.036835972 -0.042800236 -0.04867982 -0.033563405 -0.033253856 0.0019519486 -0.020420827
-0.009946529 -0.007637538 -0.046706337 -0.00050491816 0.0072339377 0.015109044 0.020735703 -0.0064950055
0.020088928 -0.015978787 -0.018903146 -0.026864927 -0.042099427 -0.021614987 0.024103804 -0.014227573
-0.00673097 -0.0059459656 -0.03783043 -0.010466416 0.028325759 -0.034101274 0.04022592 0.010860107
-0.021450076 0.016497176 -0.032937787 -0.029615795 0.008006243 -0.012444786 0.03264624 0.023801692
-5.6659002e-05 0.0051089115 0.0084798895 0.010123641 -0.0056586284 0.016217701 -0.005162881 -0.009272279
-0.01895022 0.004294634 -0.025218332 -0.004227224 0.0631543 0.07441339 0.06862501 0.09879608
00000000: ac06 9f3d 8eab 8d3d e956 0dbd fec5 14bb
00000010: 37bc 653c a264 be3c b529 c1bb ecbc 7abd
00000020: fd3c fcbd a0a2 22be 4c80 24be 2827 42be
00000030: 67f6 41be d8ff 26be 338e 37be 8673 4fbe
00000040: f4a3 3abe 5ced 3abe 0c0f d2bd 32ea 65bd
00000050: 666c 9abb e818 d1ba a988 933d 3e8c 5d3d
00000060: b822 1a3c 7301 8b3c 7014 cd3c 3c3f 60bc
00000070: d06d 84bc 6bb3 bcbb e7dd 463c e4c3 293d
00000080: c07b 883c 0144 6e3d c01e 3abd 0199 573c
00000090: 4fa8 3cbd 4592 8dbc e75d 44bb 3dd2 24bd
000000a0: f4da b7bc 7070 67bd 549c 8cbd a978 33bd
000000b0: 082a 8cbd 83fa b2bd c2b1 82bd 2319 70bd
000000c0: fc58 4fbd ee47 24bc f728 623c 8237 603c
000000d0: 191a 303c 1a73 2f3d 302c 8d3c 23d0 583c
000000e0: 6b4c cf3c 550b 453d a50e f33c c6c1 b73b
000000f0: fa4b bbbc ba6b 1cbc 9d3a fe3b a62e a5bd
00000100: 2417 2ebd 491b 0cbe eb46 febd 1a25 98bd
00000110: 7b8c e3bd 9079 febd d5ee 01be 2cc7 20be
00000120: 2818 edbd f65b 16be c19f e8bd 9a83 00be
00000130: 6037 b5bd d908 89bc b771 9abc b7ef 1d3d
00000140: 668e a63b 59ff cd3c 967d 7bbb 9992 e93c
00000150: 61ac b9bc f617 97bc 25c3 5ebc e73f f3bc
00000160: 811b 28bd b90a 0bbd 0df5 913c 9e7e d0bc
00000170: 1636 553d daa6 8dbc 6018 c33d 7799 323d
00000180: 0ae9 173d 3cb0 1a3d 9b22 503d 4acf 3c3d
00000190: 71e6 ae3d 1f33 db3c f5b1 a63d 1e32 df3c
000001a0: ac80 953c e147 1f3d d7d3 0ebd c175 d7bc
000001b0: d5ff 7abb cc99 62bc 5205 50bd 79df ddba
000001c0: 29ec 3ebd 9f1a dabc 4fee 62bd 7642 f5bc
000001d0: cab1 d1bc ab18 013d 0081 7d3d 6c29 fa3d
000001e0: e7df 233e cdbc 703e b15b 473e acd3 513e
000001f0: 1c9a 823e e4db 633e 561b 8e3e e8b8 883e
00000200: 1260 7e3e 6005 833e 17e7 813e c049 6b3e
00000210: a7b7 0b3e ad6e 173d 8992 47bd f2ba 5a3c
00000220: ea78 89bd d9a7 e8bc b529 22bc 3e66 cf3c
00000230: 1058 5cbd 3b6e eebc 95be d9bc 4941 8ebd
00000240: 8b4a 76bb 9ac7 60bb abe8 57bc 4629 283d
00000250: 38b6 9d3d 0adb f03d 6ac9 d03d 824b 143e
00000260: d427 c13d 25f5 073e a030 283e a882 043e
00000270: 7cc0 0e3e c1ca ed3d ef9a 063e f260 013e
00000280: e18d 5d3d fe0f 93bc fd2a 413d ef00 07bd
00000290: 8139 1bbd 95f8 293d 53d2 c8bc 507a 76bd
000002a0: 944c cd3c 6356 043d 5321 ed3b 6b8e a2bc
000002b0: e34f 0cbd 8048 ce3a e2cf 82bc 08a0 893d
000002c0: 671f e43c 4f9c d63d e3f2 913d 0ece 773d
000002d0: 7592 a13d 671e d23d 7b2c e73d bac0 dc3d
000002e0: 3590 9e3d e614 c13d 62d7 f53d a5a4 d63d
000002f0: caf4 323c 86fa d43c bbc1 0e3c 2f63 353c
00000300: ec0d 2ebc 2e9d e1bb b597 ed3a b517 e03a
00000310: e1c7 0abd 30ef 6f3a f2e9 69bd 5fad 76bd
00000320: 3d60 f6bc 51e1 16bd 4d4f 2fbd 7e64 47bd
00000330: c879 09bd 3235 08bd 87d8 ff3a 9449 a7bc
00000340: c4f6 22bc 5044 fabb 254f 3fbd 7c5c 04ba
00000350: ab0a ed3b ec8b 773c ecdd a93c 0ed4 d4bb
00000360: 8991 a43c f2e5 82bc c5da 9abc d613 dcbc
00000370: 7370 2cbd ea11 b1bc 5775 c53c c41a 69bc
00000380: 788f dcbb 60d6 c2bb 15f4 1abd 557b 2bbc
00000390: 6c0b e83c c7ad 0bbd efc3 243d 97ee 313c
000003a0: 12b8 afbc 1625 873c c6e9 06bd d39c f2bc
000003b0: 9e2c 033c 37e5 4bbc 10b8 053d c4fb c23c
000003c0: 24a5 6db8 a868 a73b 3cef 0a3c a1dd 253c
000003d0: 046c b9bb fcda 843c 632d a9bb c2ea 17bc
000003e0: 7e3d 9bbc 00ba 8c3b ad96 cebc 8684 8abb
000003f0: 0b57 813d 0c66 983d 458b 8c3d 9955 ca3d

rnn_layer.weight_hh_l0 f4 [16, 16]
0.043742362 -0.067651525 0.03624709 0.040575873 -0.046652686 0.016098319 -0.028043874 0.06842717
0.031491384 0.10939817 0.0004697877 0.0010315361 0.0064533795 0.041593026 0.12912698 0.023703562
0.12628776 0.20700245 0.23801178 -0.1720772 -0.40487 -0.28417873 -0.19967175 -0.01206
-0.06951724 0.17377104 -0.13062492 -0.03377486 -0.01870128 -0.015301709 0.22781499 0.14821807
0.17916007 0.06236646 0.12619887 -0.047189213 -0.30549198 -0.20063466 -0.12844321 -0.023709236
-0.014892231 0.21450005 -0.18104905 0.023497462 0.032499496 0.030235633 0.31724417 0.066969834
-0.095275186 -0.17438553 -0.19547941 0.11642137 0.301113 0.20846662 0.18045762 0.034944125
0.056814957 -0.112065636 0.1451743 0.037140995 -0.013952704 0.034011886 -0.20104578 -0.09115587
-0.23912379 -0.090429924 -0.103211425 0.05029595 0.36973292 0.18229002 0.13320352 -0.025769304
-0.08092701 -0.2081395 0.15586776 -0.01787232 -0.0134418905 0.0045646946 -0.38079223 -0.096077986
-0.1626145 -0.100211024 -0.18476075 0.11717906 0.3332714 0.26702574 0.16515562 0.030786654
0.0348788 -0.23314059 0.108385205 0.031035976 -0.035037927 0.011005917 -0.28760356 -0.12475024
-0.14334251 -0.17189161 -0.21592925 0.15284644 0.36211333 0.2698234 0.15964416 0.05580396
0.078269236 -0.10708885 0.10988103 0.015112017 -0.011787642 0.06875832 -0.22744098 -0.14148344
-0.006583331 -0.17469425 -0.051904295 0.07508228 0.12826408 0.12465501 0.05793845 0.08048703
0.06361472 -0.0005096906 0.047536016 0.032558013 0.003805547 0.0495044 -0.011478802 -0.054836273
-0.11741732 -0.04688222 -0.0627906 0.045425348 0.22557342 0.058142636 0.06032968 -0.015065034
0.0070207412 -0.107559174 0.07989925 -0.027063021 -0.019872906 -0.004068997 -0.11776647 -0.0006081393
0.078062594 -0.19373345 -0.04480934 0.11940197 -0.009315441 0.1008328 0.06430639 0.05508939
0.07145372 0.16075839 -0.008570233 0.10151827 -0.029852903 0.16252367 0.07827466 -0.10712985
-0.054179005 -0.04241276 -0.08082272 0.03319042 0.08984206 0.07101573 0.06892685 -0.004137652
-0.013253756 -0.006728472 0.06768617 -0.036376774 -0.0130805615 0.090699166 -0.105692744 -0.07864138
0.060397647 -0.14546864 -0.045681234 0.11383355 0.05818731 0.104051575 0.10124171 0.10819239
0.06321091 0.08318068 0.066474885 0.08088131 -0.054610718 0.12805097 -0.027013576 -0.13092446
-0.039059974 0.13068748 0.05826576 -0.045634523 0.02005574 -0.02136467 -0.07434152 -0.03523944
0.010899951 -0.07419867 0.028435757 -0.07526646 0.029425234 -0.121569656 -0.03687218 0.030475924
0.022400972 -0.26990485 -0.15233734 0.20963635 0.16695951 0.17685224 0.18609145 0.13245238
0.08882159 0.062447105 0.075282395 0.123017736 -0.039693777 0.25487748 -0.022628915 -0.19756763
0.024303896 0.021707572 0.037605416 -0.031486493 -0.12670805 -0.051415715 -0.041561164 0.013556298
0.07949729 0.014694065 -0.08042599 -0.041826997 -0.00632551 -0.03220013 0.095780514 0.045529827
0.03451311 0.1939521 0.14044271 -0.14548798 -0.19820167 -0.21139997 -0.13095255 -0.09444344
-0.030675195 0.020885112 -0.032032855 -0.087400906 0.014623744 -0.12037831 0.098248914 0.12466686
00000000: 312b 333d e28c 8abd d477 143d e332 263d
00000010: e316 3fbd 9fe0 833c 44bc e5bc 8b23 8c3d
00000020: 1cfd 003d 260c e03d d64d f639 9c34 873a
00000030: df76 d33b 735d 2a3d dd39 043e f92d c23c
00000040: 9451 013e 73f8 533e 5cb9 733e 0135 30be
00000050: 1f4b cfbe e07f 91be c076 4cbe 4e97 45bc
00000060: 0e5f 8ebd 09f1 313e 8ac2 05be 8257 0abd
00000070: 6d33 99bc 05b4 7abc 5548 693e 7ac6 173e
00000080: bd75 373e f973 7f3d 473a 013e 7a49 41bd
00000090: 7269 9cbe 2c73 4dbe 9e86 03be df39 c2bc
000000a0: 8bfe 73bc e7a5 5b3e ec64 39be c07d c03c
000000b0: 311e 053d b8b0 f73c d46d a23e 7b27 893d
000000c0: a31f c3bd 1f92 32be c12b 48be 546e ee3d
000000d0: 7c2b 9a3e 4678 553e e2c9 383e 9221 0f3d
000000e0: cdb6 683d ab82 e5bd 92a8 143e 2821 183d
000000f0: e299 64bc 0c50 0b3d f2de 4dbe eeaf babd
00000100: dedc 74be 5333 b9bd 8360 d3bd 2003 4e3d
00000110: a24d bd3e 3caa 3a3e 8166 083e 261a d3bc
00000120: 0fbd a5bd 8522 55be cc9b 1f3e f968 92bc
00000130: 603b 5cbc 6f93 953b 33f7 c2be 89c4 c4bd
00000140: 6a84 26be 703b cdbd ec31 3dbe 93fb ef3d
00000150: 8da2 aa3e 99b7 883e 8e1e 293e 4b34 fc3c
00000160: 13dd 0e3d 68bc 6ebe 10f9 dd3d 293f fe3c
00000170: ee83 0fbd 2952 343c c640 93be 0e7d ffbd
00000180: 61c8 12be 5b04 30be 8f1c 5dbe c783 1c3e
00000190: eb66 b93e 4b26 8a3e c279 233e b192 643d
000001a0: 9f4b a03d 6651 dbbd 4e09 e13d 6598 773c
000001b0: f420 41bc 29d1 8c3d 4ae6 68be 09e1 10be
000001c0: fcb8 d7bb 0de3 32be 9999 54bd bdc4 993d
000001d0: a957 033e 204b ff3d de50 6d3d 62d6 a43d
000001e0: 6f48 823d c29c 05ba 20b5 423d 8d5b 053d
000001f0: 7c66 793b 20c5 4a3d 9611 3cbc 009c 60bd
00000200: 7e78 f0bd 9207 40bd 5c98 80bd ee0f 3a3d
00000210: b8fc 663e f926 6e3d 411c 773d 55d3 76bc
00000220: 3f0e e63b fc47 dcbd 38a2 a33d 45b3 ddbc
00000230: 81cc a2bc 3955 85bb 8c2f f1bd 8a6b 1fba
00000240: 48df 9f3d 1062 46be 008a 37bd 0589 f43d
00000250: cb9f 18bc 6d81 ce3d 12b3 833d 6aa5 613d
00000260: 5456 923d d99d 243e 2a6a 0cbc d0e8 cf3d
00000270: 138e f4bc 9b6c 263e 774e a03d e566 dbbd
00000280: ceea 5dbd 01b9 2dbd 6286 a5bd aef2 073d
00000290: 1dff b73d b270 913d 8529 8d3d 2495 87bb
000002a0: 4826 59bc 847a dcbb 0c9f 8a3d d0ff 14bd
000002b0: da4f 56bc 7cc0 b93d 7075 d8bd bb0e a1bd
000002c0: 8663 773d bbf5 14be 3f1c 3bbd 9021 e93d
000002d0: d155 6e3d fe18 d53d d057 cf3d f993 dd3d
000002e0: b974 813d a25a aa3d fc23 883d 1aa5 a53d
000002f0: 7daf 5fbd cb1f 033e 934b ddbc 1011 06be
00000300: 5afd 1fbd f0d2 053e 14a8 6e3d 44eb 3abd
00000310: ef4b a43c f604 afbc 5e40 98bd 3b57 10bd
00000320: b595 323c 79f5 97bd 1bf2 e83c 4d25 9abd
00000330: 300d f13c 83f9 f8bd 4807 17bd a5a8 f93c
00000340: 3e82 b73c f830 8abe 52fe 1bbe e9aa 563e
00000350: 6ff7 2a3e c118 353e c28e 3e3e 99a1 073e
00000360: 18e8 b53d 89c8 7f3d a82d 9a3d b9f0 fb3d
00000370: f195 22bd 4d7f 823e 4660 b9bc 2b4f 4abe
00000380: f718 c73c 14d4 b13c 2308 1a3d fbf7 00bd
00000390: c1bf 01be 4999 52bd 0a3c 2abd 3c1b 5e3c
000003a0: 7acf a23d 60bf 703c 62b6 a4bd c952 2bbd
000003b0: 3946 cfbb 49e4 03bd 9328 c43d 7c7d 3a3d
000003c0: 9e5d 0d3d 619b 463e 37d0 0f3e cdfa 14be
000003d0: 61f5 4abe 3c79 58be 6d18 06be 906b c1bd
000003e0: 8c4a fbbc 4117 ab3c e234 03bd 3fff b2bd
000003f0: 6e98 6f3c e788 f6bd ba36 c93d 5751 ff3d
