SMNIST/Models/rnn_L1_H3_tanh_drop0.1_sgd_lr0.002_normal_0.01_insize28_e5.ckpt (torch, 2467 bytes, 3 tensors)

fc.weight f4 [10, 3]
00000000: b03f bd3d d158 413d 6098 783f 3701 8b3e
00000010: b111 b43f 4fb8 3e3f 0204 0d3e ee0f 803f
00000020: f924 6a3f 3451 af3e 6e6d a1be 7113 db3e
00000030: 375d ba3e 1e7e 30bf 55c8 83bd b6f1 f03e
00000040: 1362 8e3d 3547 8f3e 54c0 1abe 49e4 0e40
00000050: b4bd 013f 9c50 b0bf 49aa a9bf 3bcb f2bf
00000060: 7120 b63d 5591 49bf 0276 983e afb7 c4be
00000070: 5a61 81bf 955c eabf
0.09240663 0.047203843 0.97107506 0.27149364 1.4067899 0.7449998 0.1377106 1.0004861
0.91462666 0.3424164 -0.315288 0.4278827 0.36399242 -0.6894244 -0.06434695 0.4705941
0.069523 0.27984014 -0.1511243 2.2326834 0.5068009 -1.37746 -1.3255092 -1.8968271
0.088929065 -0.78737384 0.29777533 -0.3842139 -1.0107834 -1.8309504

rnn_layer.weight_ih_l0 f4 [3, 28]
00000000: 2bb0 b83d 941f a33d e380 913d 998d 1f3d
00000010: 6fb6 25be 3f40 f0be 1d15 ffbe 4a7a 09bf
00000020: 4367 2bbf 5d1c 45bf c357 62bf 1d1d 4cbf
00000030: 3a77 30bf b65c e1be af9a f8be 32e5 31bf
00000040: 3138 69bf 16a2 83bf 6e5d 51bf 69dd 29bf
00000050: 6f68 1dbf f5d5 1dbf 6688 00bf 1c60 eebe
00000060: 829b ecbd 4b47 843d f664 d03d 47a3 8a3d
00000070: 52f4 193e a79e 393e e05f 263e a85b 293e
00000080: 2b82 e43d 3b3f 083d 6669 9fbb 1e5e 40bd
00000090: 31fc abbd faa9 cabd 3edb 30be 78d1 3cbe
000000a0: ea67 39be 9e92 4dbd c8fa 9fbc ae12 ebbb
000000b0: 402e 80bd 7c4f 18be d8be 1bbe 86fd f4bd
000000c0: bfbb cfba 1004 f53b 131b 593d cbd4 e03d
000000d0: 1a37 243e f586 1d3e c7f0 253e 39de 203e
000000e0: a963 873c f802 6b3c 9ca7 6f3c 7c10 143c
000000f0: b11a 6bbd 744d f8bd 8189 4ebe f0bd 58be
00000100: 6ef5 87be abf8 a9be c4b3 a3be e76f 8abe
00000110: 3ef0 a0be 1267 cebe 3daa c2be eeab 63be
00000120: b962 0fbe 2f4a 2fbe 5e2d 88be 31b2 96be
00000130: 0726 60be 6e8f 38be 7254 18be 3bf9 c2bd
00000140: e5b3 543b 9452 3c3a 5626 9c3c c8d7 c63b
0.090179764 0.079650074 0.07104661 0.038953397 -0.16182874 -0.46924016 -0.49820796 -0.53702223
-0.6695444 -0.76996404 -0.88415164 -0.79731923 -0.68931925 -0.44016045 -0.48555514 -0.6949035
-0.91101366 -1.028384 -0.8178319 -0.6635347 -0.6148748 -0.616546 -0.5020813 -0.465577
-0.11553098 0.064589106 0.10175507 0.06769424 0.15034607 0.18126927 0.16247511 0.1653887
0.1115764 0.033263426 -0.0048648594 -0.046964757 -0.08397711 -0.09895702 -0.17271134 -0.18439281
-0.18106046 -0.050188653 -0.019528762 -0.0071738577 -0.062588215 -0.14874071 -0.1520952 -0.11962418
-0.0015848799 0.007477291 0.053004336 0.10978087 0.16036645 0.15383513 0.1620513 0.15709771
0.016527014 0.0143439695 0.0146273635 0.009037133 -0.0573985 -0.12124148 -0.20169641 -0.21166205
-0.26554435 -0.3319753 -0.31973088 -0.270385 -0.3143329 -0.4031301 -0.38020507 -0.22233555
-0.14002503 -0.17118143 -0.26597112 -0.29432824 -0.21889506 -0.18023464 -0.14875963 -0.09520193
0.0032455858 0.0007183936 0.019061249 0.0060682036

rnn_layer.weight_hh_l0 f4 [3, 3]
00000000: 10e9 4040 c069 9b3f c2e8 9c3f 104f 103f
00000010: 449d c83f 7097 9d3f dfd9 f33f 11c1 743f
00000020: ed15 f73f
3.014225 1.2141647 1.2258532 0.5637064 1.5672994 1.231184 1.9050864 0.95607096
1.9303566
