SMNIST/Models/rnn_L1_H16_tanh_drop0.1_sgd_lr0.002_normal_0.025_insize28_e9.ckpt (torch, 5539 bytes, 3 tensors)

fc.weight f4 [10, 16]
0.01960942 0.41724977 0.11925801 -0.47503057 -0.5161559 -0.08186685 -0.077855885 -0.26814666
0.09155927 0.32788482 0.051796496 0.1278644 -0.19608022 -0.23170114 -0.13247505 0.13113932
-0.9216337 0.27885118 0.094941154 0.68641245 0.9870868 -0.3580589 -0.27013174 -0.11054501
-0.04614816 -0.39274824 0.23482567 -0.03694421 0.27452967 0.37176788 -0.18316385 -0.46061763
-0.04235152 0.14815813 0.26838204 -0.17188808 0.020542027 -0.24627796 -0.24319927 0.045589592
0.27616182 -0.21219765 -0.01855414 -0.2170377 -0.0886427 -0.55270773 0.22633138 0.36640656
0.259233 0.1805674 0.27455264 -0.28223327 -0.4374058 -0.051563293 0.058033757 -0.1465161
0.11360626 0.39416206 -0.20975365 0.36613172 -0.33889362 0.13147841 -0.028001014 0.035047647
0.15572184 -0.773282 0.3553147 0.59093547 0.6325999 -0.17743585 -0.3729331 0.41267738
-0.13789059 -0.39174503 0.19807287 -0.31425172 0.20883541 0.2523565 -0.080403425 -0.20451482
0.2015239 0.021767078 0.302794 -0.43981954 -0.48852077 -0.23692305 0.08241447 -0.15390427
0.0016977831 0.07331625 -0.25012887 0.015762817 -0.23102012 -0.107134365 0.2556814 -0.115525156
0.15792938 0.1246428 -0.22891918 0.23417339 -0.2725458 -0.22395359 -0.20536762 -0.6792694
-0.0006917003 -0.6301261 -0.41905284 -0.6272163 0.511909 -0.59006155 0.18825297 0.38271147
0.04483587 -0.63771987 -0.68252814 0.41235462 0.6522995 0.6412023 0.7712245 0.5461517
0.22834183 0.46756768 0.41558304 0.26888525 0.1913168 0.4949517 -0.4712949 -0.37307537
-0.104481995 0.15992169 0.20659009 -0.42532215 -0.30053997 -0.17310613 0.09894421 -0.03442236
-0.23622657 0.33713338 -0.14958091 0.18745773 -0.15024793 0.349185 -0.07718704 -0.34204304
0.30870295 -0.5586833 -0.13597615 0.3533051 0.25969908 0.71984625 0.8205652 0.35166633
-0.058062177 0.055231836 0.4759165 0.011458443 -0.060683213 0.2615502 0.17798293 -0.34765548
00000000: efa3 a03c c3a1 d53e 8b3d f43d 3537 f3be
00000010: cb22 04bf cfa9 a7bd e872 9fbd 854a 89be
00000020: 6d83 bb3d 85e0 a73e 9028 543d e3ee 023e
00000030: 41c9 48be 1043 6dbe 8aa7 07be 6349 063e
00000040: 30f0 6bbf 95c5 8e3e 8270 c23d bab8 2f3f
00000050: b8b1 7c3f 7f53 b7be b54e 8abe 6c65 e2bd
00000060: da05 3dbd 4c16 c9be 2476 703e d052 17bd
00000070: 278f 8c3e 5c58 be3e 4e8f 3bbe 13d6 ebbe
00000080: ca78 2dbd c4b6 173e 5f69 893e 6e03 30be
00000090: c147 a83c 4a30 7cbe 3b09 79be 27bc 3a3d
000000a0: 1565 8d3e 574a 59be dafe 97bc 213f 5ebe
000000b0: 4e8a b5bd 417e 0dbf 6ac3 673e a499 bb3e
000000c0: 30ba 843e a9e6 383e 2a92 8c3e e180 90be
000000d0: a7f3 dfbe 0834 53bd ceb4 6d3d 5108 16be
000000e0: 66aa e83d 9ccf c93e a9c9 56be 9e75 bb3e
000000f0: 7783 adbe 47a2 063e 6262 e5bc 1f8e 0f3d
00000100: 8c75 1f3e cff5 45bf cfeb b53e 8c47 173f
00000110: 11f2 213f beb1 35be 16f1 bebe 734a d33e
00000120: 3133 0dbe ce92 c8be 9dd3 4a3e 9ae5 a0be
00000130: f3d8 553e df34 813e 8daa a4bd 556c 51be
00000140: 485c 4e3e df50 b23c d107 9b3e 0730 e1be
00000150: 651f fabe f59b 72be ebc8 a83d 1599 1dbe
00000160: 2688 de3a d526 963d e410 80be 0621 813c
00000170: 8a90 6cbe 4369 dbbd ace8 823e 7498 ecbd
00000180: 3db8 213e b944 ff3d ca69 6abe 26cb 6f3e
00000190: 208b 8bbe 1754 65be e44b 52be 99e4 2dbf
000001a0: 3953 35ba f24f 21bf 188e d6be 3f91 20bf
000001b0: 780c 033f 460e 17bf 63c5 403e c2f2 c33e
000001c0: d1a5 373d 9c41 23bf 2aba 2ebf 2520 d33e
000001d0: 1afd 263f d525 243f f86e 453f 99d0 0b3f
000001e0: 71d2 693e 0865 ef3e 4dc7 d43e 54ab 893e
000001f0: 8de8 433e 4f6a fd3e 914d f1be bc03 bfbe
00000200: a8fa d5bd 83c2 233e 5a8c 533e d3c3 d9be
00000210: 60e0 99be bc42 31be 43a3 ca3d 76fe 0cbd
00000220: 61e5 71be bf9c ac3e bd2b 19be ebf4 3f3e
00000230: 98da 19be 60c8 b23e 3d14 9ebd 4420 afbe
00000240: 500e 9e3e de05 0fbf 553d 0bbe 68e4 b43e
00000250: 47f7 843e d847 383f 9010 523f 9c0d b43e
00000260: 9bd2 6dbd c73a 623d 54ab f33e 31bc 3b3c
00000270: f68e 78bd e8e9 853e 2841 363e e6ff b1be

rnn_layer.weight_ih_l0 f4 [16, 28]
-0.18775865 -0.1865626 -0.3039442 -0.34842363 -0.24920084 -0.27371418 -0.31442648 -0.6120955
-0.15806374 0.11665717 0.10711636 -0.14367083 -0.025708308 0.0036614074 0.10776638 -0.28059933
-0.17753798 -0.4673295 -0.7531554 -0.6255239 -0.51145303 -0.72842944 -0.2599581 -0.08282405
-0.2376269 -0.22124012 -0.2238736 -0.27887467 -0.054965585 -0.040669825 0.049344137 0.18977363
0.2576703 0.43744114 0.6870908 0.7854021 0.3585841 0.053889252 -0.026588188 -0.04071799
0.11979277 0.3400291 0.54060805 0.18836232 0.09435766 0.09361367 -0.09163353 -0.30320305
-0.11757642 0.054650955 0.18572392 0.04182087 0.18202563 0.098608546 -0.0014217749 -0.02534504
0.6415601 0.6644781 0.6381046 0.5230836 0.24543385 0.33155972 0.37635732 -0.7519255
-0.47687647 -0.017395437 -0.18598399 -0.16658884 -0.23149696 -0.30206922 -0.30894125 0.1115524
-0.026309986 -0.21677193 -0.22539507 -0.33615085 -0.6255376 -1.2307726 -0.27618173 0.50471145
0.63812584 0.6718069 0.6161097 0.6447375 -0.013956599 -0.022962464 -0.026356535 -0.0490017
-0.35723764 -0.3931148 -0.3335456 -0.1504842 0.22500126 0.21276729 0.4209821 0.46522972
0.42022675 0.0901088 0.13153781 0.39413416 0.28246978 0.056501538 0.35502502 0.40825126
0.48812535 0.3836927 -0.37484527 -0.09200624 0.12256908 0.0040823966 -0.04680142 0.0063967933
-0.2990757 -0.27990842 -0.31589437 -0.26651344 -0.34937233 -0.24102005 -0.14377935 0.15700382
0.3460385 0.48465407 0.5752741 0.46903926 0.3884235 0.54505557 0.7633087 0.47182205
0.4673681 0.41390935 0.4285227 0.34267744 0.58528066 0.69107133 -0.061553672 -0.2732254
-0.2825596 -0.316632 -0.26846024 -0.22710457 -0.44738176 -0.42422023 -0.4464035 -0.46875533
-0.30204916 -0.19087976 -0.06254369 0.33843374 0.18539311 0.11610379 0.17090912 0.12140461
0.09456107 0.3221461 0.5495606 0.31625867 0.32559094 0.254964 0.40511534 0.48831475
0.7896635 0.83560133 0.21551546 -0.2236206 -0.34465972 -0.3696485 -0.41767496 -0.45404112
-0.044114742 -0.036606845 -0.07013512 -0.075464405 -0.036227778 -0.18565945 -0.34303436 -0.125816
0.13136098 0.2313469 0.14285366 0.12439728 0.22010209 0.3976784 0.4332091 0.3409449
0.2876952 0.24907076 0.2939997 0.24111038 0.21390341 0.34186652 -0.25105056 -0.08544863
-0.07761698 -0.09237422 -0.06915218 -0.06736215 -0.13894852 -0.10429432 -0.23981299 -0.5030016
-0.71317685 -0.4653 -0.5880277 -0.46267053 -0.4199305 -0.7694591 -0.43947083 -0.6350821
-0.894259 -0.68884087 -0.600771 -0.58251655 -0.648666 -0.5320129 -0.472041 0.1666991
0.24046692 -0.3313786 -0.6616478 -0.5268586 -0.511063 -0.26003754 -0.046322465 -0.12153974
-0.22088014 -0.22397912 -0.285953 -0.38921288 -0.68386227 -0.99252594 -1.0803648 -0.6282698
-0.47650588 -0.6799792 -0.8356116 -0.9982682 -0.25994003 0.24527146 -0.3729796 -0.23733404
-0.6287852 -0.92880565 -0.9591457 0.14937858 1.4870391 0.847066 -0.77638906 -0.6990124
-0.53970706 -0.34924743 -0.26242077 -0.22044349 0.5437022 0.56371313 0.5149147 0.3926989
00000000: ce43 40be 440a 3fbe 939e 9bbe 9564 b2be
00000010: 812e 7fbe 4424 8cbe 82fc a0be 4ab2 1cbf
00000020: 76db 21be f4e9 ee3d d25f db3d 721e 13be
00000030: 3b9a d2bc 39f4 6f3b 9fb4 dc3d b7aa 8fbe
00000040: 84cc 35be d045 efbe cbce 40bf 5622 20bf
00000050: 96ee 02bf 5a7a 3abf 3a19 85be a89f a9bd
00000060: 7754 73be c58c 62be 1f3f 65be a9c8 8ebe
00000070: 9823 61bd 6795 26bd 141d 4a3d 0554 423e
00000080: 5ded 833e 49f8 df3e 2fe5 2f3f 1d10 493f
00000090: 5698 b73e faba 5c3d 79cf d9bc e8c7 26bd
000000a0: e955 f53d 4b18 ae3e 4a65 0a3f 0de2 403e
000000b0: 973e c13d 86b8 bf3d 5caa bbbd 6e3d 9bbe
000000c0: e8cb f0bd aed9 5f3d 692e 3e3e 5c4c 2b3d
000000d0: ed64 3a3e 47f3 c93d d95a baba 67a0 cfbc
000000e0: 483d 243f 3d1b 2a3f d35a 233f cfe8 053f
000000f0: 0353 7b3e 32c2 a93e e8b1 c03e 317e 40bf
00000100: 2729 f4be e080 8ebc 9672 3ebe 4496 2abe
00000110: 8a0d 6dbe d1a8 9abe 8c2d 9ebe 9675 e43d
00000120: 0a88 d7bc 76f9 5dbe f7cd 66be f71b acbe
00000130: 3b23 20bf f589 9dbf b167 8dbe c534 013f
00000140: 375c 233f 89fb 2b3f 5eb9 1d3f 840d 253f
00000150: 38aa 64bc c71b bcbc a9e9 d7bc 02b6 48bd
00000160: dae7 b6be 5846 c9be 7dc6 aabe 8818 1abe
00000170: bb66 663e abdf 593e f78a d73e 9732 ee3e
00000180: f627 d73e f68a b83d d9b1 063e f4cb c93e
00000190: e19f 903e 286e 673d d7c5 b53e 4f06 d13e
000001a0: 91eb f93e 5f73 c43e b8eb bfbe c46d bcbd
000001b0: 7f05 fb3d a0c5 853b d9b2 3fbd 319c d13b
000001c0: 7320 99be 2850 8fbe e8bc a1be 7374 88be
000001d0: eee0 b2be f6cd 76be e53a 13be 9cc5 203e
000001e0: f52b b13e 9424 f83e 2a45 133f ea25 f03e
000001f0: 72df c63e c388 0b3f 3368 433f a992 f13e
00000200: df4a ef3e edeb d33e 5467 db3e 6b73 af3e
00000210: f4d4 153f 0dea 303f b41f 7cbd 33e4 8bbe
00000220: a7ab 90be 971d a2be 9f73 89be 1a8e 68be
00000230: 390f e5be 6533 d9be 008f e4be b300 f0be
00000240: 30a6 9abe fc75 43be e816 80bd 3047 ad3e
00000250: b1d7 3d3e d3c7 ed3d cd02 2f3e fba2 f83d
00000260: 3ca9 c13d 55f0 a43e 01b0 0c3f a8ec a13e
00000270: dbb3 a63e a48a 823e 476b cf3e 6404 fa3e
00000280: 6327 4a3f f8e9 553f 16b0 5c3e ccfc 64be
00000290: 3d77 b0be 9142 bdbe 7ed9 d5be 1478 e8be
000002a0: a9b1 34bd 0ff1 15bd 00a3 8fbd 158d 9abd
000002b0: 9463 14bd 831d 3ebe 33a2 afbe e9d5 00be
000002c0: 7e83 063e 34e6 6c3e 3b48 123e 00c4 fe3d
000002d0: 7162 613e 819c cb3e 95cd dd3e 5490 ae3e
000002e0: c94c 933e 680c 7f3e 2187 963e a4e5 763e
000002f0: 7f09 5b3e 2109 af3e b389 80be b1ff aebd
00000300: a7f5 9ebd b22e bdbd a89f 8dbd 2bf5 89bd
00000310: 8548 0ebe 4398 d5bd 8991 75be b6c4 00bf
00000320: c292 36bf cd3b eebe fc88 16bf 27e3 ecbe
00000330: 2101 d7be 46fb 44bf 5202 e1be be94 22bf
00000340: 28ee 64bf e057 30bf 21cc 19bf ce1f 15bf
00000350: fa0e 26bf ff31 08bf 5caf f1be 2bb3 2a3e
00000360: f63c 763e 75aa a9be c061 29bf 35e0 06bf
00000370: 06d5 02bf a423 85be a0bc 3dbd d4e9 f8bd
00000380: 672e 62be c85a 65be 6e68 92be e946 c7be
00000390: 9911 2fbf 2e16 7ebf 6549 8abf 4ad6 20bf
000003a0: 94f8 f3be 1e13 2ebf a4ea 55bf 818e 7fbf
000003b0: dc16 85be 7128 7b3e 2ff7 bebe b207 73be
000003c0: 11f8 20bf 35c6 6dbf 938a 75bf b3f6 183e
000003d0: 4c57 be3f 51d9 583f 6fc1 46bf 7af2 32bf
000003e0: 3e2a 0abf 8fd0 b2be 045c 86be f0bb 61be
000003f0: 1130 0b3f 814f 103f 73d1 033f d50f c93e

rnn_layer.weight_hh_l0 f4 [16, 16]
0.9854495 -0.592942 -0.8529118 0.43675232 -0.8223298 0.07990105 0.0031411238 0.2355931
-0.3009476 -1.7115569 -0.79083043 -0.21935636 0.9159909 0.11878176 -0.2905722 0.52435917
-0.31508008 0.51582664 0.79085815 -0.35377437 -1.0166674 -1.1359248 -0.39498824 -0.20055561
-0.22405408 1.3054193 -0.04974372 -0.031503886 -0.2166338 0.16488492 0.74707484 -0.75427157
0.38835305 -0.20263535 0.72043264 0.24207152 -0.014855385 0.072513945 0.10470882 0.08236813
0.6283313 0.8347797 0.020646637 0.33622366 -0.86794657 0.44899738 1.3964818 0.43654016
-0.63255054 -0.34252873 0.16755237 1.3862087 0.7006779 0.4054061 -0.0843069 -0.088449806
-0.7915045 -0.7472208 1.6829304 0.53601444 -0.13430692 0.213985 -0.22005855 0.3245598
-0.36629897 -0.16666906 0.056882016 0.4284243 0.8697415 0.17844774 -0.040998157 0.08373104
0.18207471 0.102062896 0.9354274 0.54167 -0.1326164 0.94849664 -0.8350741 -0.6093926
-0.621708 -0.0255717 -0.8540806 -0.4036755 0.076873615 0.4284779 0.12087575 -0.14107938
-0.37645766 -0.65556127 0.42243162 0.31431717 0.18953651 0.0053743077 -0.8623671 -0.31308946
-0.597942 -0.038733512 -1.0887883 0.25956792 1.0199336 0.8022762 0.48485944 -0.017513992
0.47907025 -0.00066755945 0.18409015 0.29756132 -0.034540676 0.2431441 -0.6187984 0.51840395
0.21937078 -1.14916 -1.4384822 0.22103675 1.0897944 1.3168749 0.94910365 -0.15183139
1.4756031 0.0071324697 0.19407277 -0.35216 -0.1401086 0.042282067 -0.07978023 0.80886024
1.8640012 0.17432936 -1.908001 -0.89459825 -0.40139055 -0.48284793 -1.3902076 -0.5235166
1.125682 -0.66638297 -1.5808766 -2.233076 2.4817505 -1.0561528 0.09988995 1.178921
0.8242891 -0.5422431 -0.43257442 -1.2717857 0.1754513 0.14782277 0.6212919 0.44606888
0.42324916 1.243026 -0.7645721 -0.89411825 0.57549477 0.5696754 -0.8963796 -0.7141165
1.1146606 0.03747162 0.055815034 -0.06132302 0.5154148 0.20930518 -0.061114147 1.3645577
-0.09942776 0.3883393 1.0246973 1.5913719 -1.2742062 0.8035936 0.050921652 0.073902994
0.35243258 0.05014839 -0.52110386 -0.3701939 -0.16962723 0.2868855 0.45199037 1.4227192
0.5126653 1.3631142 0.5766887 0.5343573 -0.8513829 1.195119 -0.51405275 -0.24341017
0.58722824 -0.39170763 -0.48420915 0.29660788 -0.49544817 -0.18249583 0.32298246 -0.32508937
-0.872992 -1.6185935 -0.10016702 -1.1317521 0.7993266 -0.37192622 -0.22932974 0.102104396
0.4902292 -1.243825 -0.77871555 0.38915166 0.5449897 0.6180303 0.62211025 1.753868
0.26800868 0.33635753 -0.4281634 0.057571527 -0.04266287 1.2759968 -0.14790554 -0.5671913
-0.3288469 0.43100694 0.41041562 0.20115222 0.49210304 0.5434815 0.50054497 -0.54341227
0.052740097 0.4102574 -0.13481264 -0.17889008 -0.77382195 -0.5623371 -0.19475149 0.5244248
1.1222111 2.6305964 -0.82632565 -1.9939599 -1.9831805 -1.8116252 -2.8845484 -2.06091
-1.6994411 -1.8861618 -1.5586661 -1.855126 1.907139 -2.0289369 1.4492874 -0.5581105
00000000: 6b46 7c3f 0ccb 17bf 6d58 5abf 009e df3e
00000010: 3584 52bf 29a3 a33d 50db 4d3b 513f 713e
00000020: ce15 9abe 4c14 dbbf dd73 4abf f49e 60be
00000030: 617e 6a3f da43 f33d e1c5 94be 673c 063f
00000040: 2d52 a1be 370d 043f ae75 4a3f ea21 b5be
00000050: 2822 82bf fc65 91bf e63b cabe 735e 4dbe
00000060: 6f6e 65be fb17 a73f 12c0 4bbd 380a 01bd
00000070: 40d5 5dbe 98d7 283e 4c40 3f3f f117 41bf
00000080: 36d6 c63e a47f 4fbe 466e 383f 99e1 773e
00000090: 0064 73bc 3182 943d 9471 d63d 9fb0 a83d
000000a0: 52da 203f 1fb4 553f 2323 a93c 8225 ac3e
000000b0: bf31 5ebf fce2 e53e eabf b23f 3182 df3e
000000c0: d5ee 21bf ed5f afbe d992 2b3e 496f b13f
000000d0: a05f 333f 6391 cf3e 19a9 acbd 2c25 b5bd
000000e0: 0aa0 4abf dd49 3fbf 436a d73f 3e38 093f
000000f0: c187 09be e21e 5b3e 0757 61be b42c a63e
00000100: 8a8b bbbe 4bab 2abe 1efd 683d 6e5a db3e
00000110: 61a7 5e3f 01bb 363e afed 27bd 2e7b ab3d
00000120: cb71 3a3e 5a06 d13d 2c78 6f3f e3aa 0a3f
00000130: 98cc 07be add0 723f 6bc7 55bf 2701 1cbf
00000140: 4128 1fbf be7b d1bc 07a5 5abf 8eae cebe
00000150: ea6f 9d3d 7561 db3e b58d f73d 1d77 10be
00000160: 0fbf c0be ddd2 27bf f548 d83e 2eee a03e
00000170: dc15 423e f61a b03b 17c4 5cbf 434d a0be
00000180: ba12 19bf 08a7 1ebd 6a5d 8bbf 16e6 843e
00000190: 2f8d 823f f961 4d3f 7f3f f83e 8179 8fbc
000001a0: b248 f53e 28ff 2eba 2182 3c3e f559 983e
000001b0: 867a 0dbd c4fa 783e 9269 1ebf 1fb6 043f
000001c0: bca2 603e ad17 93bf 2f20 b8bf 7557 623e
000001d0: 627e 8b3f 5b8f a83f 75f8 723f b079 1bbe
000001e0: 90e0 bc3f 7eb7 e93b 03bb 463e 514e b4be
000001f0: a178 0fbe f62f 2d3d d163 a3bd 7711 4f3f
00000200: 9797 ee3f 6583 323e 6039 f4bf 6404 65bf
00000210: 1083 cdbe d837 f7be 53f2 b1bf 2f05 06bf
00000220: 5916 903f 1398 2abf 2a5a cabf b8ea 0ec0
00000230: 00d5 1e40 0430 87bf 1a93 cc3d e2e6 963f
00000240: 9c04 533f 72d0 0abf 657a ddbe e0c9 a2bf
00000250: 81a9 333e da5e 173e fc0c 1f3f 2463 e43e
00000260: 1db4 d83e 7a1b 9f3f ffba 43bf efe4 64bf
00000270: a053 133f 3fd6 113f 2279 65bf 57d0 36bf
00000280: 33ad 8e3f d77b 193d 4e9e 643d d92d 7bbd
00000290: 39f2 033f 1954 563e d452 7abd d4a9 ae3f
000002a0: c8a0 cbbd 69d4 c63e 4829 833f 13b2 cb3f
000002b0: 3019 a3bf 4fb8 4d3f 3993 503d 745a 973d
000002c0: 0b72 b43e 6668 4d3d 1067 05bf 0e8a bdbe
000002d0: c3b2 2dbe a8e2 923e 486b e73e aa1b b63f
000002e0: 083e 033f 877a ae3f dfa1 133f a4cb 083f
000002f0: 3bf4 59bf a9f9 983f f698 03bf 8440 79be
00000300: 9754 163f e78d c8be 43ea f7be fddc 973e
00000310: 62ab fdbe 30e0 3abe f55d a53e 1d72 a6be
00000320: 677c 5fbf 122e cfbf 5e24 cdbd 41dd 90bf
00000330: aba0 4c3f 1d6d bebe 6ad5 6abe 1c1c d13d
00000340: 52ff fa3e a835 9fbf e759 47bf e33e c73e
00000350: 7284 0b3f 3c37 1e3f 9e42 1f3f bf7e e03f
00000360: 6f38 893e 0e37 ac3e 3c38 dbbe 1fd0 6b3d
00000370: 43bf 2ebd dd53 a33f 8d74 17be 7333 11bf
00000380: 9f5e a8be f1ac dc3e ff21 d23e d9fa 4d3e
00000390: eef4 fb3e 9b21 0b3f b723 003f 111d 0bbf
000003a0: 0006 583d 420d d23e 530c 0abe f62e 37be
000003b0: 3219 46bf 53f5 0fbf ef6c 47be b440 063f
000003c0: 9da4 8f3f b15b 2840 148a 53bf 143a ffbf
000003d0: dcd8 fdbf 56e3 e7bf 719c 38c0 f3e5 03c0
000003e0: 4987 d9bf c06d f1bf 5f82 c7bf c574 edbf
000003f0: 211d f43f 1ada 01c0 4082 b93f 54e0 0ebf
