SMNIST/Models/rnn_L1_H16_tanh_drop0.1_sgd_lr0.002_normal_0.001_insize7_e0.ckpt (torch, 3747 bytes, 3 tensors)

fc.weight f4 [10, 16]
00000000: d8fb 873d d664 14be b841 5a3e a0dd 81bc
00000010: e8d2 76be 4641 2abe f0da 3cbd b2f6 52be
00000020: f605 52be 0025 4f3c 60c1 38bd d0b0 6f3d
00000030: f6f3 6d3e 6a9f 7fbe e06f 293d c8b9 d83d
00000040: 3afa 5b3e 0006 9d3c 3cee 2cbe 744a b4bd
00000050: d225 493e ca06 763e 6487 773e b09d a1bc
00000060: 52ab 023e 48fc 56be 52b8 263e 820f 413e
00000070: c81b 16be b84b c43d a61b 4ebe 2c11 9abd
00000080: b635 2cbe c063 b93d 56e3 653e 8029 9bbc
00000090: d0b1 b2bc 1033 cc3d 9c6c 85bd 6ca9 1b3e
000000a0: 82b8 33be 00c2 dbbd 0eab 223e b060 e4bc
000000b0: c0f6 3fbe d8e5 683d 8050 3dbb c0cc 77bd
000000c0: 3849 293d 2862 143d 709b ffbc 680a 4a3d
000000d0: 089c 08bd b01f aa3c 2455 53be 2cb0 26be
000000e0: 885a 873d 5481 91bd 40b7 473d 8c63 2e3e
000000f0: e080 3c3d c8f8 1cbd b03a 223d 0047 c33b
00000100: 9c09 d73d 403f a53b 00e6 f7bb 6c34 0c3e
00000110: f43d b93d 70c6 3e3e 6861 963d aaf6 3e3e
00000120: e24b 7a3e 1ee6 7dbe 180a 70bd 08e7 7d3d
00000130: e07a a5bc 9a9f 103e 4a43 41be aea5 543e
00000140: c4d1 b33d 0692 363e dcd9 9cbd d81e 3bbe
00000150: 4a2c 343e c860 5d3d e8e0 f23d 26c3 13be
00000160: d488 d73d ec47 c83d ac0e dcbd b0c5 2ebe
00000170: 085b 5a3e 8416 26be e626 713e 580d c93d
00000180: bc91 6d3e ba89 69be fc14 f43d 006a 343a
00000190: 18e2 043d ba7e 3c3e 3acf 07be 284e 09bd
000001a0: 9c28 06be 9e18 283e b073 563d b8c4 46be
000001b0: e86d bd3d 3c27 693e f054 39be 1c8c dd3d
000001c0: 3c16 3dbe a8fb 6fbd e2a6 10be 9a48 28be
000001d0: f8a7 43be d632 293e f81a b7bd f443 b73d
000001e0: ec99 6d3e 9005 583d f46f d8bd c63e 34be
000001f0: 407f 983c 9a39 013e 14b7 533e f47e 18be
00000200: 380d a3bd 7887 f63d 8061 cebb 1031 8a3c
00000210: 06c9 62be 601f 613c ec69 583e a09f 173e
00000220: 00da f33a 70e1 b23c 80e8 3e3e 9e0f 143e
00000230: b02d f3bc b0a6 a9bd c80d b43d 3035 6a3e
00000240: de1b 4abe a8b5 7e3d 0003 2f3b b473 da3d
00000250: c883 2cbe 5c5b bfbd b2c9 21be f474 9ebd
00000260: a41e bebd d4c2 8c3d 68f4 ea3d 82a5 79be
00000270: c4de 40be 984d 5a3e 2e65 64be c0ce 66bd
0.06639832 -0.14491591 0.21314132 -0.01585275 -0.24103892 -0.16626462 -0.046107233 -0.2060192
-0.20510086 0.012643099 -0.04510629 0.05851823 0.23237595 -0.24963155 0.041366458 0.1058231
0.21482173 0.0191679 -0.16887754 -0.08803263 0.19643334 0.24026027 0.24172741 -0.019728512
0.12760666 -0.20994675 0.1628125 0.18853572 -0.14659035 0.09584755 -0.20127735 -0.075228065
-0.16817364 0.09052229 0.22450003 -0.018940687 -0.021813303 0.09970677 -0.06514856 0.15201348
-0.17550853 -0.10730362 0.15885565 -0.027878135 -0.18746471 0.05685982 -0.0028887093 -0.060498
0.041329592 0.03622642 -0.031202048 0.04932633 -0.033351928 0.020767063 -0.20637947 -0.16278142
0.06609064 -0.071047455 0.048758745 0.17030162 0.046021342 -0.038323194 0.03960675 0.0059593916
0.1049988 0.0050429404 -0.00756526 0.13691872 0.0904502 0.18630385 0.073427975 0.18648782
0.2444301 -0.24794814 -0.058603376 0.061987907 -0.020200193 0.14123383 -0.18873325 0.20766327
0.08780244 0.17829141 -0.07658741 -0.18273485 0.1759502 0.054047376 0.11859304 -0.14429912
0.10524145 0.09779343 -0.10744986 -0.170676 0.21323788 -0.16219527 0.23549995 0.09816998
0.23200125 -0.22806445 0.11918065 0.00068822503 0.032442182 0.18407717 -0.13262644 -0.0335218
-0.13101429 0.1641564 0.052356422 -0.1941098 0.092494786 0.22768873 -0.18098807 0.10817739
-0.18465513 -0.058589607 -0.1412616 -0.16433945 -0.19107044 0.16523299 -0.08940691 0.08948508
0.23203248 0.05273968 -0.10568228 -0.17602071 0.018615365 0.1261963 0.20675308 -0.14892179
-0.07961506 0.12037557 -0.006298244 0.016869098 -0.22146997 0.013740391 0.21134156 0.14806986
0.0018604398 0.021836013 0.18643379 0.14459082 -0.029684871 -0.08283746 0.08791691 0.22871852
-0.19737193 0.06218496 0.002670467 0.106666 -0.16847146 -0.09343597 -0.15799597 -0.07737151
-0.09283188 0.06873098 0.11472398 -0.24379542 -0.18834978 0.21318662 -0.22304222 -0.056349516

rnn_layer.weight_ih_l0 f4 [16, 7]
00000000: deb8 043b 7399 cf3a 0b85 6d3a ebfb 863a
00000010: 0d0d a539 db64 383a b16f e93a 09be 863a
00000020: bfe3 e7b9 5e1e 80ba 14de 123a dddb cdb8
00000030: 8f05 a339 222a 80b9 4fe4 e1ba b548 c63a
00000040: 6f6c 92ba 59f6 2dba 25ea 31ba db7d 4eba
00000050: 127c f23a a7ca e1ba 5b61 bd3a b02a 7839
00000060: 0d09 fb3a 579e 0f39 81e1 f839 62a9 2e3a
00000070: aa86 5639 6bfd a5ba 4b4d d73a b906 6639
00000080: 3c04 7b3a 7b54 6cb9 7d4b 8a39 5afe b3ba
00000090: 05e7 2d3a ef32 fb39 95bb 9c3a f326 b03a
000000a0: 2e42 a23a 6be7 e9ba bc0e 71b9 9beb 7bb9
000000b0: ad79 4ab9 84f3 3bb9 668a 40ba 6041 b2ba
000000c0: 6e68 b0b9 bafa 3bb8 b5c6 a739 3b36 40ba
000000d0: 74a0 dbb9 f750 59b9 1b97 e73a 12a3 c5ba
000000e0: 8b60 b23a c38d a439 38dd 3dba f209 913a
000000f0: 71d9 c838 09e4 4c3a 754c 8138 abb6 f0b9
00000100: 23e6 7d39 01d9 db39 7d38 2239 4a6f 42bb
00000110: 439b 54ba 2dd4 e5b9 aacd ce39 5f34 ccba
00000120: 122a a538 b0d3 cc39 a406 26bb 5fba 8db9
00000130: 5c86 f639 369f bd3a 58f3 203a fa3a 383a
00000140: 195c a93a af70 9eb8 0a6a c93a 7c85 b1ba
00000150: 62a8 81ba c72a 07bb 2848 0b3a 8318 c9b9
00000160: bca3 ec3a 8eea e33a e393 85b9 da30 f238
00000170: 96ff 9dba 19b7 bc37 dadc 0738 3b30 f5b9
00000180: 07f5 ad3a cec2 85b9 d09f 8aba a124 123a
00000190: a23a 6f39 2ed9 2eba 9735 03b8 d999 b0b9
000001a0: 6498 b13a 4697 04ba 0158 e4b9 c91f 2ab8
000001b0: 4234 60ba 9e67 d038 2bac e3b9 e697 003a
0.002025179 0.0015838578 0.00090606575 0.0010298466 0.00031480976 0.00070340716 0.0017809776 0.0010280024
-0.00044229437 -0.0009774675 0.000560255 -9.8161145e-05 0.00031093924 -0.00024445454 -0.0017234179 0.001512787
-0.0011171232 -0.0006636135 -0.00067869044 -0.00078770303 0.0018500111 -0.0017226533 0.001444857 0.00023667025
0.0019152478 0.00013696529 0.0004747026 0.0006662813 0.00020458797 -0.0012664025 0.0016426233 0.00021937014
0.0009575521 -0.00022538185 0.00026377654 -0.0013732419 0.0006633851 0.000479124 0.0011957759 0.0013439342
0.0012379342 -0.0017845457 -0.0002298904 -0.00024024995 -0.00019309549 -0.00017924426 -0.0007344842 -0.0013599806
-0.00033647142 -4.481778e-05 0.0003200077 -0.00073323 -0.00041890482 -0.00020724894 0.0017668934 -0.0015078506
0.0013609094 0.00031386138 -0.0007242742 0.0011065586 9.577245e-05 0.00078159623 6.1654406e-05 -0.00045912465
0.00024213693 0.00041932616 0.00015470567 -0.0029668384 -0.0008110294 -0.00043836367 0.00039444614 -0.0015579573
7.875649e-05 0.00039067632 -0.0025333548 -0.00027032473 0.00047020882 0.0014467004 0.00061397767 0.0007027831
0.0012921124 -7.555016e-05 0.0015366685 -0.001354381 -0.0009892101 -0.0020624863 0.00053131813 -0.0003835597
0.0018054168 0.0017388628 -0.0002547792 0.000115485585 -0.001205432 2.2496608e-05 3.2392192e-05 -0.00046765976
0.0013271876 -0.00025512878 -0.0010576192 0.0005574916 0.00022814659 -0.00066699355 -3.1282743e-05 -0.0003368396
0.0013549444 -0.0005057942 -0.00043553117 -4.056076e-05 -0.0008552709 9.937513e-05 -0.0004342509 0.0004905447

rnn_layer.weight_hh_l0 f4 [16, 16]
00000000: 7b67 eeb9 5600 183a f044 7c38 afe0 94b9
00000010: 9b28 05ba 3f93 45ba 3627 2fb9 d270 e93a
00000020: cb35 5d3a d787 a73a 01c0 8d3a d36a 8eba
00000030: 5d9e 1fba 99f8 10ba a354 a7ba aa0d a3b9
00000040: db17 ed38 aada d8b9 c23e c1ba 97c9 e5ba
00000050: 7665 18b8 1c66 b0ba f011 cd3a 01dc 5f3a
00000060: aeb5 c0b9 d06f 85ba 5947 7138 c1a7 71ba
00000070: 30b8 28b9 08da 43b9 1b08 04ba 2dc8 1ab9
00000080: a019 c93a bd65 6eb9 ce4d 8cb9 f630 79b9
00000090: c60a 35ba ebd4 9b3a 0efd 5d39 50d1 203b
000000a0: c9e3 ecb9 3652 fbb8 3e97 19ba fbc1 14ba
000000b0: d988 0138 eed2 0e3a ca85 b139 c9c8 0c3a
000000c0: 6cec d03a 3bf0 5d3a b417 3a3a 2636 9bba
000000d0: af1a 923a 6e6f 80ba 96d4 daba 03e1 e13a
000000e0: c1b6 64ba 7aaf f839 88bd 523a 290f 233a
000000f0: 376d b93a 1508 ac3a 052c 82ba bb32 8b3a
00000100: b18e d73a 52ba 063a 5586 ccba 1670 9939
00000110: 2683 8739 be6f fe39 6f8d a6b9 ac35 d8ba
00000120: cb14 8e3a 7054 a53a 67df d6b8 2963 8438
00000130: bbae 0b3b 70e2 a5b9 4adb 5cba 4139 50bb
00000140: a067 3db9 852d c338 23f0 6c3a 67cf e73a
00000150: 4119 9438 af1c acba af1d 34ba 8409 1f3b
00000160: 89c0 b6ba bd28 15ba 67f7 87ba 2f52 52ba
00000170: 03ba d938 b4a0 fab7 5791 ba37 2b26 ccb8
00000180: 3828 253b 87f7 003a f5d6 d8b9 d306 a6ba
00000190: 9593 cbb8 b6e8 b6ba dcbe 34ba 9509 4eba
000001a0: d08a d839 e048 1abb f311 50b9 8af1 e2b9
000001b0: da2c 3439 8f45 37ba 6fcc 0e3a a065 a5b9
000001c0: 14fb 0b3a e6a1 77b9 bfa6 09ba cd6f 2139
000001d0: 8114 2a3a 48a7 e8b9 0356 91ba 3c13 6fb9
000001e0: 786f 20ba 369e c339 344a 18ba ce2f b4ba
000001f0: 3345 4dba 808d bb39 e949 c3ba bd0c 9b3a
00000200: 5450 3fba 97c4 433a cee9 d4ba 4acf 1eb9
00000210: a9b2 24ba ea7a 6c39 ccfb 5e3a 99b0 9b39
00000220: d3d2 07ba e5d5 5e3a e153 de39 c433 2c39
00000230: 8dab 8338 b92c 713a 3ce1 c8ba 9bed 1bba
00000240: d2ec 2cb9 ee4e 03bb 38d0 173a c3e2 27ba
00000250: 6191 fe38 77ec cc3a ffbf 663a 0534 9bba
00000260: 3f34 7db8 f317 593a 85d8 a1b8 94be 0c3a
00000270: 8822 a83a d584 d9ba a24f 903a f30e 883a
00000280: 0d58 cb39 8c93 15ba b258 9b3a cab7 cab9
00000290: 1afe bfba 72c2 dfba 4026 c639 7317 9f39
000002a0: 1e79 a5ba 3b13 1d3a 0a0a 293b 39a7 36ba
000002b0: bab2 833a e5e3 a0b9 ccb1 34b9 20ff c5b9
000002c0: 184f f33a 9b8e 8a3a 2aab 4c3a 1c91 4839
000002d0: c815 86ba b49a 4d3a 1904 c339 0fd0 b9b9
000002e0: 3231 9339 5483 b73a 9ed0 963a dba5 14ba
000002f0: 5e73 c639 4eb8 4aba d219 8fb9 d789 06b8
00000300: efdb b3b8 fab4 7b39 1de6 cbb9 1c84 09b8
00000310: 6b4d 293a ca09 8b39 8d29 0fbb 5a4a 8d39
00000320: 6f9e 943a b59e 203a f632 7dba 2f5b 9f38
00000330: 623f 9bba 536d f9b9 dfdc a9b9 f59b 5539
00000340: 8e7f 42ba 7062 deb9 bc77 113a e5c3 f039
00000350: b6a4 8b3a 854d fdb8 b18c 61b9 70f6 3f39
00000360: eb74 723a d81d 78ba d79f d8b9 953e 1f3b
00000370: 009d f1b9 3aa1 99b9 c534 8539 418e a4b8
00000380: 401a ad3a b49b 16bb 642a 653a b968 1239
00000390: 1e0a 3fba 8822 f2ba c4b9 283a 1825 663a
000003a0: aa49 f13a 7119 363a 757f 9538 2d0f b839
000003b0: a22c c0ba f7d6 e037 2c6a f7b8 5d3f 033a
000003c0: a09a 0c3a 991a f6ba 4bb9 8837 4f9c 4c3a
000003d0: bf81 25b9 2fbf 38ba 60c8 1f3a 6087 19b9
000003e0: 9269 bbba f6fd e33a 936e 0bba 79ee f13a
000003f0: f253 a7b9 4c5a 0bba a54d 9a3a e9d7 ad3a
-0.00045471996 0.000579839 6.0145685e-05 -0.00028396162 -0.0005079598 -0.0007536895 -0.00016703908 0.0017810112
0.0008438497 0.0012781572 0.0010814668 -0.0010865576 -0.00060889666 -0.0005530208 -0.0012766313 -0.00031099963
0.00011305484 -0.00041361648 -0.0014743435 -0.0017531392 -3.6334117e-05 -0.0013458165 0.0015645605 0.0008539558
-0.00036756456 -0.0010180417 5.7525325e-05 -0.00092184177 -0.00016090344 -0.00018677872 -0.0005036608 -0.00014761156
0.001534272 -0.00022735349 -0.0002676085 -0.0002376473 -0.00069062074 0.0011889016 0.00021170473 0.0024538822
-0.0004518314 -0.00011983926 -0.00058590237 -0.00056746573 3.0883446e-05 0.0005448301 0.0003385975 0.00053704955
0.00159396 0.0008466278 0.0007098869 -0.0011841699 0.0011146868 -0.0009798834 -0.0016695436 0.0017233196
-0.0008724742 0.00047432986 0.00080391066 0.00062202156 0.0014146928 0.0013124967 -0.0009931332 0.0010619977
0.0016445724 0.0005139458 -0.0015603999 0.00029265945 0.0002584692 0.0004852991 -0.00031767364 -0.0016495488
0.0010839937 0.0012613665 -0.00010245927 6.3127205e-05 0.0021313864 -0.00031639962 -0.00084250106 -0.0031772407
-0.00018063048 9.306803e-05 0.00090384687 0.0017685712 7.061894e-05 -0.0013131107 -0.0006870878 0.0024267146
-0.0013942878 -0.00056899694 -0.0010373414 -0.00080231106 0.00010382014 -2.9877156e-05 2.2240607e-05 -9.7345874e-05
0.0025200974 0.0004919697 -0.00041358886 -0.0012666829 -9.7072836e-05 -0.0013954851 -0.00068948953 -0.0007859704
0.00041302154 -0.0023541972 -0.00019843112 -0.0004328604 0.00017182846 -0.0006991261 0.0005447333 -0.0003154697
0.0005339843 -0.00023616067 -0.00052509824 0.00015395806 0.00064880407 -0.00044375123 -0.0011088256 -0.00022799982
-0.0006120126 0.00037311175 -0.0005809397 -0.0013747157 -0.0007830441 0.00035772845 -0.0014899346 0.0011829358
-0.00072980416 0.0007467954 -0.0016243996 -0.00015145275 -0.0006282726 0.00022552503 0.00085061486 0.0002969548
-0.00051812566 0.00085005007 0.00042405634 0.00016422482 6.2785206e-05 0.00092000846 -0.0015325914 -0.0005948187
-0.0001649142 -0.002003606 0.000579122 -0.00064043346 0.00012138743 0.0015634437 0.00088024134 -0.0011841065
-6.036856e-05 0.0008281462 -7.717408e-05 0.00053689745 0.0012827674 -0.0016595373 0.001101006 0.0010380432
0.0003878478 -0.0005705885 0.0011851995 -0.00038665376 -0.0014647872 -0.0017071499 0.00037794 0.00030344314
-0.0012624597 0.000599194 0.0025793337 -0.0006967667 0.0010047772 -0.00030687373 -0.00017232372 -0.0003776485
0.0018563 0.0010571064 0.0007807488 0.00019127544 -0.001022988 0.0007843182 0.0003719635 -0.00035440965
0.00028074678 0.0014000931 0.0011506265 -0.00056704663 0.00037851458 -0.0007733152 -0.00027294323 -3.2076463e-05
-8.576351e-05 0.00024004644 -0.00038890625 -3.278638e-05 0.00064583746 0.0002651944 -0.0021844835 0.00026949012
0.0011338721 0.0006127165 -0.0009658778 7.598695e-05 -0.0011844451 -0.00047574434 -0.00032398754 0.00020371361
-0.000741952 -0.0004241648 0.0005549153 0.0004592232 0.0010653946 -0.00012078419 -0.00021510084 0.00018306985
0.00092489895 -0.0009464896 -0.0004131782 0.0024298776 -0.00046084076 -0.00029302557 0.00025407053 -7.846626e-05
0.0013206676 -0.002298099 0.00087419734 0.00013962657 -0.00072875794 -0.0018473426 0.00064363726 0.0008779331
0.0018408794 0.000694654 7.1286144e-05 0.00035106522 -0.0014661739 2.6802982e-05 -0.00011797654 0.0005006695
0.0005363617 -0.0018776237 1.6298747e-05 0.0007805274 -0.0001578396 -0.00070475315 0.0006095227 -0.00014641648
-0.001429843 0.0017394412 -0.0005318906 0.0018457911 -0.00031915266 -0.00053158845 0.0011772407 0.0013263199
