SMNIST/Models/rnn_L1_H3_tanh_drop0.1_sgd_lr0.002_normal_0.005_insize28_e0.ckpt (torch, 2023 bytes, 3 tensors)

fc.weight f4 [10, 3]
000000 10 cf 73 be 97 1f 01 bf 28 86 08 bf eb 04 0b be
       -0.23809457 -0.5043883 -0.53329706 -0.13576095
000010 34 e3 fb bd c8 ca b7 3e 36 92 2b 3d e3 17 49 be
       -0.12299195 0.35896897 0.041887484 -0.19638018
000020 e2 aa a9 be 2e 0d c0 be be 38 e2 3d aa 11 32 be
       -0.33138186 -0.37510055 0.11045979 -0.17389551
000030 a2 bd bf 3e 8d ed 10 3f ce be 21 3e 0d 3f 5c 3e
       0.37449366 0.56612474 0.15795442 0.21508427
000040 39 f3 10 be 63 57 58 3e 47 99 c0 be a8 4f 49 3d
       -0.14155282 0.21127085 -0.3761694 0.04914823
000050 12 a5 4b 3d 43 c8 f6 bc ae a0 a1 be a5 21 5f be
       0.04971797 -0.03012479 -0.315679 -0.21790178
000060 37 5a ea 3e f1 ca 01 3f 30 2f 86 bb 4b 9b 00 bf
       0.45771953 0.5070029 -0.0040949807 -0.5023696
000070 db 2b 5e 3e 57 d8 47 3e
       0.21696417 0.19516121

rnn_layer.weight_ih_l0 f4 [3, 28]
000000 e8 0f 83 ba 12 05 84 3a 6c c6 55 bb 53 2a 43 bb
       -0.0009999247 0.0010072312 -0.003261949 -0.0029779866
000010 34 3b 26 3c a5 a9 d2 3b 58 a6 ab 3a 8e 44 a4 bb
       0.010145951 0.0064289146 0.0013095839 -0.005013055
000020 3b 9a cf 3b 37 a6 97 bb 06 15 da 3a 79 f5 2f 3c
       0.0063355244 -0.0046279687 0.0016638346 0.010739678
000030 17 22 04 bb ab b4 30 bb e0 fb f2 3b e2 37 6c bb
       -0.002016192 -0.0026963155 0.0074152797 -0.003604405
000040 92 c2 83 bb 09 ab ae b9 1c 92 30 3b 82 b0 e3 bb
       -0.0040209973 -0.00033315297 0.0026942557 -0.0069485316
000050 80 c7 df bb 53 9c 45 bc 30 ce dd 3b 64 05 bd 3b
       -0.006829202 -0.012061196 0.006768964 0.005768465
000060 10 72 e1 3b 85 bb 83 bb a0 f2 f0 38 57 fd 46 3a
       0.0068800524 -0.004020157 0.00011489284 0.0007590851
000070 37 e0 e2 3a d2 05 80 bb 9d 0b a2 3a dd 9a f4 ba
       0.0017309253 -0.003906944 0.001236308 -0.0018661876
000080 e9 7d cd ba ef 86 de ba 6e 84 bd bb dd bf 50 bc
       -0.0015677783 -0.0016977469 -0.005783609 -0.012741056
000090 87 15 6c ba bd a4 60 3b e7 25 96 ba d0 22 8f ba
       -0.00090058934 0.003427788 -0.0011455388 -0.0010920409
0000a0 90 50 a2 bb 6c e9 17 ba 8d c2 a0 3b f4 fb ed ba
       -0.0049534515 -0.00057949754 0.0049060048 -0.0018156753
0000b0 d5 28 01 bb 25 ea 10 3c ef c4 f6 b9 40 a1 e9 3b
       -0.0019708176 0.008844887 -0.00047067503 0.007129818
0000c0 bd 37 03 3c 8b 76 cb 3a 6d 01 b9 3b c7 8c c3 3a
       0.0080088945 0.0015523 0.005645922 0.0014919274
0000d0 1e 27 21 3b 9b a6 a9 ba ef f3 c3 bb 98 8e b5 ba
       0.0024589966 -0.0012943329 -0.005980007 -0.00138517
0000e0 5b 0c 1a bc 5e cb ab ba a9 a2 79 bb 10 e0 d8 bb
       -0.00940236 -0.0013106873 -0.0038091338 -0.006618507
0000f0 b7 b6 ce 39 a0 f9 49 bb 97 71 66 3b b7 d8 f4 ba
       0.00039427515 -0.0030818954 0.003516292 -0.0018680309
000100 9a 36 81 3a b7 38 b6 3b 77 4f 1c 3c 37 1c 34 ba
       0.0009858191 0.00556096 0.00954043 -0.00068706594
000110 50 8b 7f bb 17 ed d6 ba fb 3c 59 bb 67 2a 4b 3b
       -0.0038992949 -0.0016397563 -0.003314792 0.0031000616
000120 f2 79 c1 3b ba 42 1d 3b 9d 54 8f bb 50 9d c7 bb
       0.0059044296 0.002399607 -0.0043741004 -0.006091751
000130 24 3a 38 3b 4f da b2 bb e9 f0 06 3c d3 80 88 3a
       0.0028110826 -0.0054581533 0.008236148 0.0010414369
000140 53 25 ac bb 59 1d 9c bb 89 f9 ff 3a 56 48 24 bb
       -0.005253473 -0.0047642407 0.0019529323 -0.002506753

rnn_layer.weight_hh_l0 f4 [3, 3]
000000 72 f4 cb 3b 8a 75 4f 3b 02 cc ae 3b 6d 73 0f 3b
       0.0062242085 0.0031655752 0.005334378 0.0021888867
000010 4a 78 64 bb a2 4f 0f bb 2d d2 bd 3a ef 19 31 bc
       -0.0034861737 -0.0021867533 0.0014482193 -0.010809406
000020 5b 78 8c 3b
       0.0042868084
